Trained_paremeters/nn_checkpoints_CHRNA5_ukb_y4.pth (torch, 4503 bytes, 5 tensors)

linear_sigmoid_stack.0.weight f4 [16, 31]
0	0x19f94155	2.5772384e-23
1	0x19da9e43	2.2604593e-23
2	0x19e769fb	2.3927645e-23
3	0x19f01b49	2.4826439e-23
4	0x99bc2564	-1.9453846e-23
5	0x19efe705	2.4805329e-23
6	0x19f19234	2.4977867e-23
7	0x99fbdb01	-2.6041247e-23
8	0x19f1dce2	2.500803e-23
9	0x19ed431e	2.4532334e-23
10	0x19f0f771	2.4915359e-23
11	0x19f6af7d	2.5506683e-23
12	0x99cdc015	-2.1274085e-23
13	0x19f75b94	2.557619e-23
14	0x99eeced1	-2.4692156e-23
15	0x19f27f01	2.507351e-23
16	0x99dedb6d	-2.3042887e-23
17	0x99e4efdd	-2.3671527e-23
18	0x19ed4dd8	2.4536666e-23
19	0x19ed7cb9	2.45556e-23
20	0x19f68f73	2.5493743e-23
21	0x995cb4b3	-1.1410225e-23
22	0x19f14b33	2.4949189e-23
23	0x99e2e428	-2.3460004e-23
24	0x99debd7f	-2.3030799e-23
25	0x19ef966e	2.4772779e-23
26	0x19ec8c98	2.4458613e-23
27	0x19d200ae	2.1713766e-23
28	0x19ee4432	2.4636167e-23
29	0x19e1fa03	2.3365434e-23
30	0x99dedb6d	-2.3042887e-23
31	0x198f21f6	1.479957e-23
32	0x1972c30d	1.2550497e-23
33	0x19887526	1.4109386e-23
34	0x199593fb	1.5466008e-23
35	0x99aa3dee	-1.7602601e-23
36	0x199655d8	1.5544308e-23
37	0x190ef06c	7.389781e-24
38	0x99bba47a	-1.9401778e-23
39	0x19938554	1.5253295e-23
40	0x19984509	1.5744315e-23
41	0x199a766e	1.597106e-23
42	0x1989c807	1.4246258e-23
43	0x19820916	1.3445355e-23
44	0x198e943a	1.4742324e-23
45	0x99908723	-1.4943832e-23
46	0x198a879b	1.4323636e-23
47	0x99a01f8f	-1.6556359e-23
48	0x99a460d8	-1.6996317e-23
49	0x198770e7	1.4004274e-23
50	0x198491f4	1.370743e-23
51	0x1990f34c	1.4987518e-23
52	0x19ba4c05	1.9262653e-23
53	0x19948771	1.5357546e-23
54	0x99a31f23	-1.6866381e-23
55	0x995c686d	-1.1394822e-23
56	0x1995ee11	1.5502393e-23
57	0x1992d110	1.5180486e-23
58	0x193b0609	9.668892e-24
59	0x198f183f	1.4795646e-23
60	0x1983ec2b	1.364047e-23
61	0x99a01f55	-1.6556267e-23
62	0x99aeef25	-1.8087768e-23
63	0x99b4b15c	-1.8683199e-23
64	0x998de8db	-1.4673108e-23
65	0x99cb1cb8	-2.1001307e-23
66	0x19fb5156	2.5985643e-23
67	0x99cd687d	-2.1238706e-23
68	0x99506295	-1.07732564e-23
69	0x1887b139	3.507563e-24
70	0x99c3f54a	-2.0261599e-23
71	0x99d63fdd	-2.2152876e-23
72	0x99d8bf6b	-2.241119e-23
73	0x99a3f6f0	-1.6953542e-23
74	0x98e3caa7	-5.888275e-24
75	0x99b15681	-1.833631e-23
76	0x19a267c7	1.6792323e-23
77	0x99a8cd1e	-1.7453639e-23
78	0x19fa93c2	2.5909073e-23
79	0x19ff1909	2.6376494e-23
80	0x999f9087	-1.6498589e-23
81	0x999e1ba2	-1.6347978e-23
82	0x99bace0d	-1.9315172e-23
83	0x98e84422	-6.003939e-24
84	0x99c6cc99	-2.0555356e-23
85	0x19fe3703	2.6285204e-23
86	0x1946b093	1.0272019e-23
87	0x99cc8759	-2.1147772e-23
88	0x99c8e4ee	-2.077198e-23
89	0x99759ea4	-1.269824e-23
90	0x99ba7aae	-1.9281499e-23
91	0x99918922	-1.5048036e-23
92	0x19fa93a5	2.5909027e-23
93	0x19f6ee23	2.5531986e-23
94	0x19f8dce3	2.5731814e-23
95	0x19fc4940	2.6085775e-23
96	0x19da8fae	2.2598703e-23
97	0x999754d6	-1.5647299e-23
98	0x19d92932	2.2453913e-23
99	0x19c77108	2.062177e-23
100	0x18bf0a4a	4.9382732e-24
101	0x19e049f7	2.3190931e-23
102	0x19d1e727	2.1703455e-23
103	0x19d557d1	2.2059153e-23
104	0x19fa1729	2.5858748e-23
105	0x99b70255	-1.8922698e-23
106	0x19f2048b	2.5024048e-23
107	0x99f98d95	-2.5803181e-23
108	0x19f1f5fc	2.5018168e-23
109	0x99b9a13c	-1.9193674e-23
110	0x99bf1295	-1.9756442e-23
111	0x19f23440	2.5043317e-23
112	0x19f0bf8a	2.489278e-23
113	0x19ea993d	2.4256925e-23
114	0x19cf3996	2.1426557e-23
115	0x19de6d7f	2.2998487e-23
116	0x99bd187e	-1.9552034e-23
117	0x99f3f906	-2.5226191e-23
118	0x19d92920	2.2453884e-23
119	0x19d6df29	2.2217215e-23
120	0x19de0c0c	2.2959128e-23
121	0x19e0cc90	2.324368e-23
122	0x19f17425	2.4965726e-23
123	0x99b9a136	-1.9193664e-23
124	0x197a431c	1.293825e-23
125	0x1961443d	1.1646008e-23
126	0x1965850e	1.1865893e-23
127	0x198592a1	1.38111e-23
128	0x998d245c	-1.4593744e-23
129	0x198649e6	1.3885123e-23
130	0x199a77a2	1.5971546e-23
131	0x197fe82e	1.3230079e-23
132	0x19835ac7	1.3581747e-23
133	0x1987fb45	1.406016e-23
134	0x198a0851	1.4272225e-23
135	0x196eb951	1.2341736e-23
136	0x18c0c952	4.983412e-24
137	0x197a418e	1.2937936e-23
138	0x997729cc	-1.27780415e-23
139	0x1971835d	1.24859366e-23
140	0x998bc09d	-1.4450059e-23
141	0x998f918a	-1.4844636e-23
142	0x196a1da5	1.2103503e-23
143	0x1965a344	1.1871994e-23
144	0x198085f3	1.3288991e-23
145	0x98e6d836	-5.9671924e-24
146	0x19846e46	1.3693019e-23
147	0x998e70c3	-1.4728e-23
148	0x993dccff	-9.81247e-24
149	0x1985ecf8	1.3847589e-23
150	0x19836581	1.358608e-23
151	0x19877130	1.4004389e-23
152	0x197dc671	1.3119868e-23
153	0x19845146	1.3681306e-23
154	0x998bc0ab	-1.4450081e-23
155	0x99efa90a	-2.4780295e-23
156	0x99d84920	-2.2363411e-23
157	0x99e84955	-2.4017856e-23
158	0x99eb99f3	-2.436061e-23
159	0x19de64cd	2.2994975e-23
160	0x99ebfb51	-2.4399936e-23
161	0x9999a919	-1.5888127e-23
162	0x990e4ff9	-7.357378e-24
163	0x99eb4e8c	-2.4330155e-23
164	0x99ec9f56	-2.4466183e-23
165	0x99efd7e5	-2.479922e-23
166	0x99ebcc03	-2.438083e-23
167	0x196a0506	1.2098531e-23
168	0x99ed4e6b	-2.4536898e-23
169	0x19ef92c4	2.4771299e-23
170	0x99e91ac0	-2.410244e-23
171	0x19f8085a	2.5645972e-23
172	0x19fd0426	2.6161262e-23
173	0x99e6105d	-2.3788052e-23
174	0x99e3479c	-2.3500173e-23
175	0x99ece607	-2.4494735e-23
176	0x99fd52f6	-2.6193095e-23
177	0x99eb999f	-2.4360478e-23
178	0x19fbb235	2.6024769e-23
179	0x19d076e1	2.155471e-23
180	0x99eb7f6a	-2.4349893e-23
181	0x99e7d6f1	-2.3971654e-23
182	0x99f7a150	-2.5604355e-23
183	0x99e73896	-2.3907695e-23
184	0x99bde2c2	-1.9633729e-23
185	0x19f80875	2.5646015e-23
186	0x19ec5dee	2.4439766e-23
187	0x19b1cd35	1.8384254e-23
188	0x19d574a4	2.2070795e-23
189	0x19e8f821	2.4088456e-23
190	0x99bb8e40	-1.9392801e-23
191	0x19e8d1cd	2.4072976e-23
192	0x19e53782	2.3700464e-23
193	0x99a4eb01	-1.705212e-23
194	0x19e9ba6a	2.4166927e-23
195	0x19e7629f	2.3924673e-23
196	0x19eae68b	2.4288148e-23
197	0x19e7375a	2.3907197e-23
198	0x99c89118	-2.0738118e-23
199	0x19eb5c87	2.4335802e-23
200	0x99e1c11d	-2.3342453e-23
201	0x19e58d39	2.3735084e-23
202	0x99dce570	-2.2840136e-23
203	0x99e2b74c	-2.3441885e-23
204	0x19dee300	2.3045947e-23
205	0x19de9b41	2.3016969e-23
206	0x19ec616d	2.4441178e-23
207	0x999c60b7	-1.6169085e-23
208	0x19e968c3	2.4133948e-23
209	0x99e0d311	-2.3246306e-23
210	0x99bce43c	-1.9530928e-23
211	0x19e87a23	2.4037568e-23
212	0x19e59ce6	2.3741416e-23
213	0x19d74e8f	2.2262209e-23
214	0x19e57fd0	2.3729668e-23
215	0x199fc94c	1.6521518e-23
216	0x99dce560	-2.284011e-23
217	0x9936aad4	-9.443678e-24
218	0x98cf7825	-5.362956e-24
219	0x99113ab7	-7.508182e-24
220	0x99683585	-1.2004927e-23
221	0x19b8c837	1.910602e-23
222	0x996c5095	-1.22171874e-23
223	0x18413e31	2.4976064e-24
224	0x183d47d5	2.4463943e-24
225	0x995ae265	-1.1316056e-23
226	0x997e17ac	-1.3136273e-23
227	0x9980552f	-1.3269295e-23
228	0x99282980	-8.693777e-24
229	0x99c1e8c6	-2.0049749e-23
230	0x993ac3f6	-9.655549e-24
231	0x1928921f	8.714905e-24
232	0x992f6e3c	-9.0695496e-24
233	0x19a4a6f0	1.7024628e-23
234	0x19a71a1f	1.7277946e-23
235	0x99249f67	-8.510792e-24
236	0x992242b3	-8.3886735e-24
237	0x99497457	-1.0414951e-23
238	0x99f4291a	-2.524561e-23
239	0x996006f5	-1.15819335e-23
240	0x19a6f2bb	1.7262036e-23
241	0x18ccf236	5.2977335e-24
242	0x996b0ce1	-1.2151816e-23
243	0x9965c5df	-1.1878982e-23
244	0x993e604b	-9.842216e-24
245	0x994c453d	-1.0560535e-23
246	0x9988973e	-1.4123157e-23
247	0x19a4a6c6	1.7024562e-23
248	0x97101b9a	-4.6563748e-25
249	0x17e82be0	1.5003724e-24
250	0x9846d841	-2.570008e-24
251	0x18500a8d	2.6888697e-24
252	0x9936018b	-9.409491e-24
253	0x18601858	2.8963612e-24
254	0x1949cb31	1.0432491e-23
255	0x99b13822	-1.8324043e-23

linear_sigmoid_stack.0.bias f4 [16]
0	0xbaa922a2	-0.0012903998
1	0x3aa28b66	0.0012401163
2	0xbaab7ac3	-0.001308285
3	0x3ac2d3ef	0.0014864187
4	0xbbb1fda7	-0.005431849
5	0x3ab46310	0.0013762433
6	0xbb2aec1d	-0.0026080676
7	0xbaf1a63a	-0.001843638
8	0xb938370f	-0.00017568118
9	0x3afd5f16	0.0019330706
10	0xbb2f0c14	-0.002671008
11	0xbaab4c6e	-0.0013069042
12	0x381e8a7c	3.779911e-05
13	0x3b13dbc2	0.0022561406
14	0x39925114	0.00027907698
15	0x3a3ac2cf	0.00071243657

linear_sigmoid_stack.2.weight f4 [4, 16]
0	0x25097b7a	1.1924691e-16
1	0x24e7bd65	1.0050113e-16
2	0x2522b00b	1.4110906e-16
3	0x2503ad66	1.1421188e-16
4	0x25008098	1.11458e-16
5	0x24f6a00c	1.06956624e-16
6	0x24e4af51	9.9176236e-17
7	0x24f38e20	1.0562522e-16
8	0x24f5346f	1.0634064e-16
9	0x24a28f68	7.049924e-17
10	0x24d72a49	9.331302e-17
11	0x2514333e	1.2854315e-16
12	0x24e3229a	9.8504175e-17
13	0x24a51ff4	7.1611474e-17
14	0x2511165b	1.258432e-16
15	0x24dab487	9.4848255e-17
16	0x25311ad6	1.5361395e-16
17	0x25513328	1.8145193e-16
18	0x2547185e	1.7268755e-16
19	0x25394285	1.606873e-16
20	0x252b75b7	1.4871769e-16
21	0x25113486	1.2594541e-16
22	0x2505e7a3	1.1614393e-16
23	0x251803e2	1.3185214e-16
24	0x25386b79	1.5995869e-16
25	0x250fe153	1.2479616e-16
26	0x2510f716	1.2573725e-16
27	0x25334a48	1.5550943e-16
28	0x2502d0af	1.1346407e-16
29	0x2511ecc1	1.265696e-16
30	0x2515eb7a	1.3003472e-16
31	0x2530c3e3	1.5331936e-16
32	0x251715b7	1.310452e-16
33	0x2512613c	1.2696426e-16
34	0x2515e7b9	1.30022e-16
35	0x25374285	1.5895257e-16
36	0x24f90cc1	1.0800814e-16
37	0x24c8b0af	8.703549e-17
38	0x2515dff5	1.299957e-16
39	0x250e23e2	1.2328694e-16
40	0x24ffd46f	1.109485e-16
41	0x2535333f	1.571661e-16
42	0x24b6e153	7.931163e-17
43	0x25021d7b	1.1285691e-16
44	0x24b49ec3	7.833151e-17
45	0x254f198e	1.7963046e-16
46	0x25152513	1.2936251e-16
47	0x253ac672	1.6200164e-16
48	0x251d1a32	1.3626455e-16
49	0x24dc4672	9.552913e-17
50	0x2500a33f	1.115754e-16
51	0x252f47a2	1.52031e-16
52	0x2548ae09	1.74062e-16
53	0x252ba33f	1.4887196e-16
54	0x24e85846	1.007635e-16
55	0x25122153	1.2674772e-16
56	0x25300f51	1.5270756e-16
57	0x250c100b	1.21485e-16
58	0x2502a3e2	1.1331228e-16
59	0x25473d65	1.72813e-16
60	0x2502a900	1.1332962e-16
61	0x24d9faed	9.4533833e-17
62	0x2521cc1e	1.4033682e-16
63	0x2508a1f7	1.1850995e-16

linear_sigmoid_stack.2.bias f4 [4]
0	0x3b4341d7	0.0029793882
1	0xbb87b51b	-0.0041414625
2	0x3b7a527e	0.0038196142
3	0x3a43bf5f	0.0007467176

last_fc.weight f4 [1, 4]
0	0xb2aa933e	-1.9857563e-08
1	0xb2e7cb90	-2.6984509e-08
2	0xb2cb5715	-2.367191e-08
3	0xb2c49c33	-2.2888434e-08
