Trained_paremeters/nn_checkpoints_CHRNB3_ukb_y1001.pth (torch, 4311 bytes, 5 tensors)

linear_sigmoid_stack.0.weight f4 [16, 28]
-0.6917824 -0.03492293 0.5895143 -0.46612436 -0.3129927 -0.7215586 0.05601228 -0.672188
-0.6068046 -0.28386053 0.6728648 0.55552125 -0.3938147 0.5006769 0.28061414 0.41897324
0.46842974 0.826508 -0.41054755 0.01270697 -0.95134866 -0.34327447 -0.77445954 0.76599705
0.80801034 0.77602744 -0.18335971 0.30453724 0.50259346 0.32181224 0.2926217 0.8708815
0.7791251 -1.0071393 0.38292882 0.24940789 -0.21785761 0.52287 -0.7187147 0.9260525
-0.05534512 -0.49416834 -0.5401745 0.16201568 -0.38917255 -0.42595628 -0.21744485 0.8910801
-0.24397196 -0.030776791 -0.02077558 0.7250592 -0.9264873 -0.04013016 0.64840525 -0.44639432
0.18464322 0.48718205 0.121125944 0.6710191 0.79612404 0.45334676 0.7249676 -0.67458665
-0.7081493 -0.2166463 -0.81187123 0.0073403534 0.24207474 0.9110538 0.7126724 -0.054360535
0.33673397 0.019975502 -0.08936055 0.6944873 0.006606485 -0.9768953 0.14235146 0.7938469
0.68693143 -0.6653132 -0.12652528 -0.84162664 -0.7855086 0.013466698 0.013788874 -0.12726356
-0.110437006 -0.6259662 -0.26641142 -0.17331861 -0.49799314 -0.5483202 0.53581256 -0.44754353
0.07345703 0.6867998 0.043693222 0.46031815 0.12548126 0.6028935 -0.12599361 0.7170088
0.4870298 -1.02947 0.06581645 0.55717766 0.5322956 0.07309325 -0.34481233 0.3523003
0.46122643 -0.9832958 0.87885547 -0.78798574 -0.7921897 0.15375541 -0.3338 0.78603417
0.05955682 0.2465808 0.7878454 -0.8980386 0.51065236 -0.49297065 0.7474181 -0.71478546
0.035850473 -0.9294813 -0.41090903 -0.09612533 -0.7191753 0.06611641 0.20973535 0.4869365
-0.65356207 0.10292126 -0.56591916 0.75277394 -0.97231257 -0.82211375 0.34446657 0.8653425
0.5461043 -0.21042924 -0.5168523 -0.95365965 -0.3715022 0.8962688 -0.7301545 0.67378575
0.22301714 0.27934623 0.5650193 -0.9789117 0.8888722 -0.16065137 -0.98128384 0.52805877
0.292298 -0.07952923 -0.6603729 -0.21032584 -0.19900429 0.86371225 -0.56217325 0.47913986
0.86881953 -0.024397302 0.8435592 0.077551395 0.15383932 -0.4285027 0.5646438 -0.08185644
0.081605285 0.7937073 0.33168367 -0.98905694 -0.87924796 0.20898208 0.38379934 -0.8066555
0.033640247 -0.65573263 -0.7348507 0.006157622 0.73504055 -0.5865885 0.73832965 -0.49488434
0.868975 0.69265574 0.8266338 -0.4326407 0.38626674 0.28456387 -0.8327731 -0.16901426
0.049837533 0.3418907 0.44445434 0.9568482 0.82281166 -0.039872862 0.42961374 0.46136725
0.8344015 -0.17653874 -0.8049214 -0.67001486 -0.73606956 -0.60470766 0.50993353 -0.42663845
-0.33166397 -0.9181064 0.49239466 0.72542423 -0.148254 -0.57703555 0.58931565 0.53998023
-0.75346315 0.68407804 -0.17715935 0.48162237 0.5047608 0.42664558 -0.34240472 -0.8310175
0.68991184 0.24721004 0.95219857 -0.13707812 0.528566 -0.71035415 -0.6836152 0.99528193
0.95133895 -0.23958175 -0.06317063 -0.32839403 0.26278538 0.6533537 0.8673646 0.75559145
0.52111304 0.765019 0.87052447 0.36590654 -0.6902515 -0.8444612 0.13124332 -0.3876994
00000000: a718 31bf 590b 0fbd 69ea 163f daa7 eebe
00000010: 9440 a0be 10b8 38bf 226d 653d 8314 2cbf
00000020: 8c57 1bbf 2b56 91be de40 2c3f a436 0e3f
00000030: 15a2 c9be 5c2c 003f a8ac 8f3e a983 d63e
00000040: 06d6 ef3e 0796 533f 4a33 d2be e530 503c
00000050: 968b 73bf acc1 afbe fb42 46bf 6218 443f
00000060: c4d9 4e3f bca9 463f a6c2 3bbe 4eec 9b3e
00000070: f7a9 003f 93c4 a43e 83d2 953e 17f2 5e3f
00000080: be74 473f f1e9 80bf 3f0f c43e c864 7f3e
00000090: 1116 5fbe cfda 053f b0fd 37bf c711 6d3f
000000a0: 91b1 62bd a203 fdbe e048 0abf 70e7 253e
000000b0: a041 c7be f116 dabe dda9 5ebe d31d 643f
000000c0: c9d3 79be 9c1f fcbc 8d31 aabc 7b9d 393f
000000d0: 462e 6dbf 865f 24bd e3fd 253f cc8d e4be
000000e0: 1d13 3d3e ed6f f93e e110 f83d e8c7 2b3f
000000f0: c9ce 4b3f 111d e83e 7a97 393f b6b1 2cbf
00000100: 4649 35bf 87d8 5dbe cbd6 4fbf 5987 f03b
00000110: 71e2 773e d23a 693f b371 363f 27a9 5ebd
00000120: 6568 ac3e aaa3 a33c aa02 b7bd ebc9 313f
00000130: 377b d83b cf15 7abf 95c4 113e 8d39 4b3f
00000140: bdda 2f3f f751 2abf d88f 01be d874 57bf
00000150: 1717 49bf 6da3 5c3c bbea 613c 6151 02be
00000160: cc2c e2bd 523f 20bf 1467 88be 6f7a 31be
00000170: f5f8 febe b65e 0cbf 032b 093f 6d24 e5be
00000180: a470 963d 1dd2 2f3f aaf7 323d d2ae eb3e
00000190: 297e 003e 3a57 1a3f 7804 01be e48d 373f
000001a0: f85b f93e acc5 83bf c6ca 863d 32a3 0e3f
000001b0: 8644 083f eab1 953d 3e8b b0be b460 b43e
000001c0: df25 ec3e 46b9 7bbf acfc 603f 6fb9 49bf
000001d0: f2cc 4abf 0f72 1d3e d5e7 aabe 8939 493f
000001e0: daf1 733d ad7f 7c3e 3cb0 493f dce5 65bf
000001f0: 1dba 023f a666 fcbe cb56 3f3f 2efc 36bf
00000200: f2d7 123d 7df2 6dbf ab62 d2be 5bdd c4bd
00000210: df1b 38bf 0a68 873d ddc4 563e be4f f93e
00000220: d84f 27bf 62c8 d23d 14e0 10bf cbb5 403f
00000230: 7ae9 78bf 0c76 52bf ec5d b03e 1687 5d3f
00000240: 7ecd 0b3f c37a 57be 6f50 04bf 0a23 74bf
00000250: 8935 bebe df71 653f 68eb 3abf 397d 2c3f
00000260: 9b5e 643e 7806 8f3e 1ba5 103f f599 7abf
00000270: 218d 633f cb81 24be 6b35 7bbf dc2e 073f
00000280: 15a8 953e 39e0 a2bd 330e 29bf a85f 57be
00000290: c8c7 4bbe 3f1c 5d3f 96ea 0fbf d251 f53e
000002a0: f56a 5e3f dadc c7bc 7ff3 573f 44d3 9e3d
000002b0: 0e88 1d3e b564 dbbe 7f8c 103f 59a4 a7bd
000002c0: ac20 a73d 6730 4b3f 71d2 a93e d632 7dbf
000002d0: 6516 61bf 66ff 553e 5981 c43e fa80 4ebf
000002e0: 5bca 093d 18de 27bf 2d1f 3cbf e1c5 c93b
000002f0: 9e2b 3c3f aa2a 16bf 2c03 3d3f 7b61 fdbe
00000300: 2575 5e3f e351 313f 469e 533f 1583 ddbe
00000310: c1c4 c53e 5bb2 913e 9e30 55bf 1312 2dbe
00000320: 7122 4c3d 4c0c af3e 858f e33e 01f4 743f
00000330: c9a3 523f ba51 23bd 55f6 db3e 5438 ec3e
00000340: 569b 553f 92c6 34be 540f 4ebf 1886 2bbf
00000350: 0e6f 3cbf 1fce 1abf 018b 023f 5b70 dabe
00000360: dccf a9be 0509 6bbf 271b fc3e 67b5 393f
00000370: e6cf 17be 9ab8 13bf 64dd 163f 253c 0a3f
00000380: f6e2 40bf bd1f 2f3f 4369 35be 3597 f63e
00000390: 0138 013f 4a71 da3e ac4f afbe 90bd 54bf
000003a0: 109e 303f a124 7d3e 49c3 733f 355e 0cbe
000003b0: 1a50 073f c5d9 35bf 6801 2fbf ccca 7e3f
000003c0: f38a 733f eb54 75be 9a5f 81bd 4323 a8be
000003d0: ce8b 863e 3042 273f 9b0b 5e3f 716e 413f
000003e0: aa67 053f 49d8 433f b1da 5e3f 1a58 bb3e
000003f0: 53b4 30bf 9c2e 58bf a664 063e 8980 c6be

linear_sigmoid_stack.0.bias f4 [16]
0.012547235 0.029238358 -0.006948226 -0.0068218233 0.013394825 -0.009867713 -0.010663935 0.003186661
0.01409043 -0.0065738754 0.006215412 0.00093247485 0.027323242 -0.00735974 0.029214757 0.009306335
00000000: eb92 4d3c 4885 ef3c f2ad e3bb 9a89 dfbb
00000010: f875 5b3c 30ac 21bc c9b7 2ebc 4dd7 503b
00000020: 8cdb 663c aa69 d7bb a8aa cb3b 5471 743a
00000030: fed4 df3c f929 f1bb c953 ef3c 9979 183c

linear_sigmoid_stack.2.weight f4 [4, 16]
0.9735584 -0.36402166 -0.89909256 0.20436965 0.12928024 0.05752713 -0.01498349 0.16611065
-0.042626277 0.7392127 0.7499838 -0.7731026 -0.71307373 0.45235246 0.4865495 0.5368904
0.24557471 -0.84672445 0.7861029 -0.14581355 0.29685652 0.20569442 -0.5154928 -0.6598185
0.49273935 -0.45505178 0.75899917 0.94570154 0.8039814 0.04534843 -0.48195022 -0.9786215
0.13494171 0.55287695 -0.11303829 0.19276896 0.17598091 -0.6837075 -0.25065526 0.7108091
-0.81222296 -0.28050938 -0.44209245 -0.921329 -0.22627836 -0.16000986 -0.13222162 -0.007215969
0.43510014 0.78053933 0.36832178 0.23294586 0.32573444 -0.5460106 -0.561658 -0.37502223
0.36629155 -0.6974461 0.97880393 0.6991544 0.0721722 -0.0021050966 0.6860464 -0.85997605
00000000: 203b 793f 0c61 babe ee2a 66bf 4746 513e
00000010: 0a62 043e 91a1 6b3d 507d 75bc e918 2a3e
00000020: e498 2ebd 0b3d 3d3f f0fe 3f3f 0dea 45bf
00000030: 008c 36bf be9a e73e 041d f93e a671 093f
00000040: f077 7b3e efc2 58bf 0a3e 493f 2650 15be
00000050: 94fd 973e 8fa1 523e 56f7 03bf dde9 28bf
00000060: 5548 fc3e 8cfc e8be c54d 423f 7f19 723f
00000070: bad1 4d3f 46bf 393d 2ec2 f6be f086 7abf
00000080: 292e 0a3e 5889 0d3f 9e80 e7bd 3a65 453e
00000090: 5734 343e 7407 2fbf e355 80be 96f7 353f
000000a0: d8ed 4fbf ed9e 8fbe f159 e2be 38dc 6bbf
000000b0: 84b5 67be a0d9 23be 1b65 07be ef73 ecbb
000000c0: 72c5 de3e 6dd1 473f ac94 bc3e 5c89 6e3e
000000d0: aac6 a63e 5ac7 0bbf d2c8 0fbf ea02 c0be
000000e0: 918a bb3e d48b 32bf e592 7a3f c8fb 323f
000000f0: 05cf 933d a9f5 09bb bda0 2f3f 6427 5cbf

linear_sigmoid_stack.2.bias f4 [4]
-0.0037114285 0.10963166 0.00588353 0.024707783
00000000: 703b 73bb 9086 e03d a0ca c03b fa67 ca3c

last_fc.weight f4 [1, 4]
0.113009095 0.58774084 0.5952986 -0.6353326
00000000: 5071 e73d 2f76 163f 7d65 183f 28a5 22bf
