Trained_paremeters/nn_checkpoints_CHRNA5_ukb_y1001.pth (torch, 4503 bytes, 5 tensors)

linear_sigmoid_stack.0.weight f4 [16, 31]
00000000: 5048 52bf e600 1abd 386a ecbd 2e58 d7be
00000010: 467e 193d 360e 40bf c512 5cbf f1b1 3ebf
00000020: 8eb8 31bf fcd9 d1be bd6a f03b e155 abbe
00000030: 8721 59bf ec6c 60be 0ceb ea3e 68a6 823e
00000040: 07f9 e3be 1416 993d 069f 73bd b7b2 333e
00000050: b065 563f 3ff3 523f b936 b23d 6c97 b33e
00000060: 36f6 37bf 9807 ef3e 6f63 2e3f cf1e 17bf
00000070: ddd1 f4be 6d63 6dbe c85a 11bf f076 3ebf
00000080: 6f50 f8be 8d5b b23e b541 eabe 9f40 25bf
00000090: 88ba 933e 6227 57be 9152 2cbe 7f81 50bf
000000a0: 0f38 c13e 9814 e33e 7560 a03d c4f8 49bf
000000b0: 9a6b e5bb 7a6a c2bd 43d9 a73e da7e 54bf
000000c0: eefc a43e 9891 d0be cdc3 61bc fb1e 323f
000000d0: 2b3b 0ebe 4924 60be 9663 523f ad6f 46be
000000e0: ef6b a6bc 0e41 943e e699 e4bc a691 5ebe
000000f0: 307a c63e 33f0 aebd 46f9 ca3e 01ba acbe
00000100: 46a8 393d de6f ed3e 7b17 4b3f 5c8e 8cbd
00000110: 7a5a 083f dc5d 34bf 4275 9c3e 7aec 103f
00000120: 3dc8 393e 23c9 88be 9b91 eabe 01dc dd3e
00000130: e237 3b3f d5a5 df3e b2df 6c3e b9ba f63c
00000140: 5f9a 833e 5451 c1be 803c 9a3e acca 553e
00000150: 6b73 403f 4b14 0a3f 93f2 403f b1f4 5e3e
00000160: da76 183f ee62 9f3e 2984 50be 88db 52bf
00000170: 05e9 aebe 682b 46bf 1f3f 573f 1fa9 c0be
00000180: d937 f63e d884 c6be ea36 473f 70ea 31bf
00000190: 8333 373f 4d99 33bf 8fd0 61bf c60d 193e
000001a0: 38bf 3f3f d124 ed3e b730 81be 7687 fc3d
000001b0: 6aaa 633e 9300 a33d 1b11 8c3e 4788 35bf
000001c0: 342c 663d 67bf 123f 15fc bd3e a8ce 05bf
000001d0: 8766 3bbf e624 4bbf 1b93 8dbe 94ac 563e
000001e0: ff3d ebbd 7a93 ae3e 9f53 83be 598d 44be
000001f0: 2c09 38bf 64ba ea3d 6c99 a8bd 3b06 24bf
00000200: 172f 55bf 4d4f 3ebf 5ad9 103e 8acc 09bd
00000210: 8397 62be 5c6b 453f 14e9 adbe a032 c7be
00000220: ff17 c03e cdad 243f 3da3 f43b cab9 80bd
00000230: 517b cb3e 5d9c a9be 3003 32be a623 223c
00000240: b820 c3be 1c7f f23e f032 633f aa9c fa3e
00000250: d505 8e3c bee9 b63e d412 933e df7d 06bf
00000260: 146b ca3e 7116 02bf 6417 2bbf d154 eabe
00000270: e59c 8fbd 5cbd ad3d 7209 ea3d 4469 2c3f
00000280: 4e02 89be 281f c9bd 83da 0c3e d8cb e4be
00000290: 095a e33e 7f0a 20bf 8ee1 d63e ac4b bf3b
000002a0: 5ba9 2dbe 4798 973e 8d21 ff3c 3624 fd3d
000002b0: 2e5e 66bd 66f4 08be 6c32 0abf 9859 303f
000002c0: 6006 c13d b7b9 4c3f d721 4ebf d346 a33a
000002d0: 372e bebe 9101 b6be 40b5 8c3e 9cea 19be
000002e0: 7708 253e 1f93 41bf 7d34 b6bd 65e1 27bf
000002f0: 657d a0be 3d08 58bf 74fb 29bf 3da7 4fbe
00000300: 3cb7 35bf 76dc 433f af32 273f 9c22 bd3e
00000310: dfdf ea3d 748d 353f 2a72 a03e 3d6a 15bf
00000320: c142 57bf eee5 5ebd 6667 003f f515 bf3e
00000330: 9567 6b3e b3c8 f83e 41f6 c5bd 0791 ea3e
00000340: ad53 17bf 4df1 4fbf 62bd 36bf c08b 113f
00000350: b77d bebe 7086 37bf 822c b4be 646f d6be
00000360: d4bb 23bf d98c 9b3e c7fc 353f a9d0 c0be
00000370: f9e4 24bf 9cc7 dd3d 9267 df3e 993c 553d
00000380: e302 f7be e3eb 613b d30a 1d3f 6978 01bf
00000390: 2a0e 3fbf 8ba2 413f 5620 2f3f 35af bfbe
000003a0: d082 f23a 83b9 073f 0958 44bf 32e3 25bf
000003b0: 0cbf 423f a962 b5bd 8dd8 173d 2b49 253f
000003c0: 8a0a c43d 5539 653e d5a4 c13d d6d9 f5bd
000003d0: 3655 103f 0411 fcbc 9a0e a8be 1df9 3ebf
000003e0: f5fa 5fbf 1808 56bf cb94 46bf 996d 143f
000003f0: 89ef d7bc 82c9 0bbf 75fd f63e 2866 a9bd
-0.8214159 -0.037598513 -0.11543697 -0.42059463 0.03747394 -0.75021684 -0.8596614 -0.7449027
-0.69422233 -0.4098662 0.007336943 -0.33463958 -0.84816784 -0.2191655 0.45882452 0.25517583
-0.4452593 0.07474914 -0.05947783 0.17548643 0.8374891 0.82402414 0.08701844 0.35076463
-0.71860063 0.4668548 0.68120474 -0.59031385 -0.47816363 -0.23182459 -0.56779146 -0.74400234
-0.48498866 0.34835473 -0.45753255 -0.6455173 0.2885325 -0.21011117 -0.16828372 -0.81447595
0.37738082 0.4435165 0.07830898 -0.7889521 -0.0070013525 -0.09492965 0.32782945 -0.8300606
0.3222422 -0.4073608 -0.013779593 0.6957852 -0.13889758 -0.21888842 0.82183206 -0.19378538
-0.020315139 0.28955883 -0.027905416 -0.21735248 0.38765097 -0.08541908 0.39643306 -0.3373566
0.045326494 0.4637441 0.79332703 -0.068630904 0.53263056 -0.7045572 0.3055821 0.56610835
0.18142791 -0.26715955 -0.45814213 0.43331912 0.73132145 0.43681207 0.23132208 0.030118333
0.25703713 -0.3775736 0.30124283 0.20878094 0.75176114 0.53937215 0.7537014 0.2177303
0.59556353 0.31130165 -0.20362915 -0.8236623 -0.34162155 -0.7740998 0.8408069 -0.3762903
0.48089483 -0.38773227 0.7781817 -0.6949835 0.71562976 -0.70155793 -0.8820886 0.1494666
0.7490115 0.4631715 -0.2523248 0.123305246 0.22232977 0.07959094 0.273568 -0.7091107
0.0561945 0.57323307 0.37106386 -0.5226846 -0.7320332 -0.7935318 -0.27651295 0.20964271
-0.11486434 0.3409689 -0.25649735 -0.19194545 -0.71888995 0.114613324 -0.08232388 -0.64072007
-0.8327498 -0.74339753 0.14145413 -0.03364233 -0.2212811 0.7711694 -0.33966887 -0.3890581
0.37518308 0.643277 0.0074657486 -0.062854365 0.3974252 -0.33127108 -0.17384028 0.009896195
-0.381109 0.47362602 0.887496 0.4894765 0.017336765 0.35725206 0.28725302 -0.52535814
0.3953482 -0.5081549 -0.66832566 -0.45767835 -0.07012347 0.08483383 0.11427583 0.6734812
-0.2675957 -0.09820396 0.1375523 -0.4468677 0.4440463 -0.62516016 0.4196896 0.005837878
-0.16959135 0.29608366 0.031143928 0.12360422 -0.05624216 -0.1337448 -0.5398319 0.6888671
0.09425044 0.7997088 -0.80520386 0.001245702 -0.37144634 -0.3554807 0.27482033 -0.15030903
0.1611651 -0.75615114 -0.0889673 -0.655783 -0.31345668 -0.8438757 -0.6639931 -0.2027864
-0.7098272 0.7650827 0.6531171 0.36940467 0.11468481 0.70918965 0.313371 -0.5836523
-0.84086233 -0.054418497 0.50157773 0.3732144 0.22988732 0.4859062 -0.0966611 0.45813772
-0.59112054 -0.8122757 -0.71382725 0.56853867 -0.37205288 -0.7168951 -0.35190207 -0.4188186
-0.6395848 0.30380896 0.7108883 -0.37659195 -0.64411885 0.10829088 0.43633705 0.052059744
-0.4824439 0.0034472875 0.6134464 -0.50574356 -0.7463099 0.75638646 0.68408716 -0.3743836
0.001850212 0.53017443 -0.7669683 -0.647998 0.76072764 -0.088567086 0.037071753 0.6456477
0.09572323 0.22385152 0.09455267 -0.120044395 0.5638002 -0.030769832 -0.3282364 -0.74598867
-0.87492305 -0.836061 -0.7757079 0.5797973 -0.026359336 -0.5460435 0.48240247 -0.08271438

linear_sigmoid_stack.0.bias f4 [16]
00000000: b0b8 5bba 9c8d 1a3b a346 ba3b 8567 523c
00000010: 5803 1ab9 e041 dfbb 1b2b aa3b 9eca c4bb
00000020: da8b a9ba dc39 823b edd5 9cbb 4392 8fbb
00000030: 9561 513c b694 0abc be3b 97bc a8aa 43bc
-0.00083817076 0.002358294 0.00568469 0.012842064 -0.0001468783 -0.006813273 0.005193127 -0.006005599
-0.0012935356 0.0039741825 -0.004786244 -0.0043814494 0.012779613 -0.008458307 -0.018461104 -0.011942543

linear_sigmoid_stack.2.weight f4 [4, 16]
00000000: 2829 c43d e7d7 ac3e 1848 12bf beb3 213f
00000010: ad15 3e3f c827 14bf 514a 3b3f 46fb 20bf
00000020: 0281 93be b898 013e c835 fcbd 9043 b1bd
00000030: 2048 263f ab11 45be e202 163e 8f77 e0bd
00000040: 68b2 8f3e bce7 febe c65d 48bf fd80 2abf
00000050: 1465 8b3e 7779 c33e 3f8e 963e 938f a8be
00000060: b902 c23e 16bb 96be 5bc3 3c3e ac26 15bf
00000070: 5d26 adbe dc08 013f 6542 363f cd69 003e
00000080: dec0 22be 9e4b 70be 44c5 013f b6cf 25bf
00000090: 3095 1bbf 51ba 7c3e 684f 5b3e c632 06bf
000000a0: e5a3 c23e 25c0 0cbf 1d3a 8a3d 5392 dc3d
000000b0: 33de c1bc b942 3cbf 2ab6 a6be d86d 04bf
000000c0: fbfe 1b3f 9468 66bd 8282 89bb e397 f8bd
000000d0: 0fde 3abf e9b2 2cbf 01fd e1be 7baa 243f
000000e0: 0d45 9cbd 5e84 463d d04c 353e d5dc e13e
000000f0: c80f 3cbf 0b55 213f 008c f2be b1d2 95be
0.095781624 0.3375847 -0.57141256 0.6316489 0.74251825 -0.578732 0.7316027 -0.6288341
-0.28809363 0.12655914 -0.123149455 -0.08655465 0.64953804 -0.19245021 0.14649537 -0.10960304
0.280658 -0.49786174 -0.78268087 -0.6660307 0.27225554 0.38178608 0.294054 -0.32922038
0.37892702 -0.2943961 0.18433897 -0.58262134 -0.3381833 0.50404143 0.7119506 0.1254036
-0.15893885 -0.23466346 0.5069163 -0.64770067 -0.6077452 0.24680449 0.2141701 -0.52421224
0.38015667 -0.5498069 0.067493655 0.10770097 -0.023665523 -0.7353931 -0.32560855 -0.5173011
0.60935944 -0.056252077 -0.004196466 -0.12138345 -0.72995085 -0.67460495 -0.4413834 0.6432263
-0.07630358 0.04846608 0.17705083 0.44113794 -0.7346158 0.6302039 -0.47372437 -0.29262307

linear_sigmoid_stack.2.bias f4 [4]
00000000: 1150 3e3c 9130 fd3b 9606 3abc 690d 2dbc
0.011615769 0.007726737 -0.011354109 -0.010562279

last_fc.weight f4 [1, 4]
00000000: 85da 9cbe 6910 b63e 6b04 15bf 95af 67be
-0.30635467 0.35559395 -0.58209866 -0.22625573
