Trained_paremeters/nn_checkpoints_CHRNA6_ukb_y1002.pth (torch, 3863 bytes, 5 tensors)

linear_sigmoid_stack.0.weight f4 [16, 21]
-0.5048409 -0.22589624 0.05141229 0.6146948 0.32469133 0.22232725 -0.17081314 0.48521876
0.6142262 0.058139898 -0.067338854 -0.3373801 0.14027219 0.43986675 -0.4745431 0.5599758
0.002006213 -0.6189827 0.17827623 -0.30339527 -0.3629382 -0.52962095 -0.19732915 0.19824445
-0.60635436 0.46313593 0.71683645 0.01894344 0.01352073 -0.43095723 0.26280227 -0.31606162
-0.55135006 -0.46646887 0.29536897 0.19924876 0.3793415 -0.56529033 0.30443415 0.44133103
0.6135186 0.3772308 -0.29036275 0.17714186 0.14706232 0.22517836 -0.0245627 -0.69282365
0.5086369 -0.09413389 -0.36558324 -0.12504855 0.10157894 0.44248536 -0.3259165 0.45043585
-0.10992943 -0.3356959 0.4507568 -0.20532002 0.55033815 -0.014355271 0.446557 0.024270687
-0.33742034 0.14963146 0.49677128 0.4683149 -0.6433598 -0.24739459 0.12802394 0.20148993
-0.07872542 0.418113 -0.17512436 0.33992776 -0.4105522 0.62591875 -0.44839942 -0.22683182
-0.43022203 0.1737728 -0.09751652 -0.065142386 -0.49356943 -0.35627726 0.37951154 -0.49621433
0.68765354 0.50332576 -0.61874884 0.3078476 -0.26433042 -0.36476243 0.10648014 -0.22973129
-0.22813189 -0.21821856 0.5300738 0.45293927 0.564157 -0.5278853 -0.17314543 0.5534787
-0.06735593 -0.6482736 -0.10870403 -0.3188867 0.37203038 -0.2839848 -0.46402922 -0.37645948
-0.0062271864 -0.16315141 -0.4335467 0.07672734 -0.5951136 0.0048316387 -0.41931725 0.607072
0.035522167 0.21838784 0.20941275 -0.3594519 -0.4707578 0.14540558 0.2727413 -0.30815247
0.21818458 -0.28353393 0.50446635 -0.47940308 0.5594216 0.4758594 0.549837 0.2732606
-0.20351726 -0.3795296 -0.4395096 0.55862814 0.19361462 0.68055904 0.5756108 0.42758185
-0.58950037 0.5825902 0.0033889718 -0.03370711 0.2680942 -0.12713613 -0.43996832 -0.5999813
0.42521954 -0.22647786 0.3081677 0.022733722 0.5348025 -0.4801165 -0.44694802 0.01347857
0.051600397 0.027214335 0.4716505 0.30315682 0.32698464 0.5166864 0.29091454 -0.26724967
-0.40860152 -0.15888703 -0.10885839 0.022757266 -0.102016196 -0.25405005 0.5838709 0.3578423
0.056182887 -0.6103607 0.0049795755 0.6256915 -0.39044738 -0.22395073 -0.48237002 -0.607842
-0.09809557 0.34740025 0.51335317 -0.17590608 -0.115045466 -0.5929338 -0.16793199 -0.00014038902
-0.06383837 0.66364056 -0.6501176 0.34125522 -0.36714104 0.6518939 -0.6270823 0.020711709
0.3097135 0.048434455 -0.37884322 0.23685758 0.58315504 -0.16566014 -0.17949873 0.58404654
0.5560434 0.511695 -0.45804986 -0.046864964 0.12195581 0.0996753 -0.2605381 -0.63519824
-0.36427453 -0.623564 0.5806484 0.6224768 -0.53761077 0.33065447 -0.3498906 -0.08056697
0.16940506 0.45816344 -0.1971836 -0.4399478 0.53576547 0.29026502 -0.018526077 0.16648835
0.016795889 -0.34308967 -0.36461762 -0.43794164 0.5478275 0.3656111 -0.0016427463 0.0973669
0.08772283 -0.32773173 0.19696102 0.27717975 -0.56473863 -0.6124181 0.6393252 -0.21573763
-0.63760424 0.43246087 -0.23599453 0.11345269 0.0059566237 0.38427636 0.019751444 0.050269265
00000000: 413d 01bf 5851 67be b295 523d a35c 1d3f
00000010: f13d a63e c1a9 633e a4e9 2ebe 986e f83e
00000020: ee3d 1d3f 1a24 6e3d f4e8 89bd 16bd acbe
00000030: 83a3 0f3e 3736 e13e 50f7 f2be 935a 0f3f
00000040: ab7a 033b a675 1ebf 0b8e 363e a056 9bbe
00000050: 09d3 b9be 3d95 07bf a710 4abe 9800 4b3e
00000060: 0a3a 1bbf 2720 ed3e 9882 373f 462f 9b3c
00000070: 0d86 5d3c 6da6 dcbe 058e 863e d4d2 a1be
00000080: 4725 0dbf 02d5 eebe 9a3a 973e de07 4c3e
00000090: 0d39 c23e deb6 10bf cbde 9b3e 24f6 e13e
000000a0: 8e0f 1d3f 6524 c13e 6daa 94be ad64 353e
000000b0: 8197 163e 2895 663e b737 c9bc e45c 31bf
000000c0: 0736 023f 45c9 c0bd ba2d bbbe ba0c 00be
000000d0: 9f08 d03d 718d e23e 87de a6be 879f e63e
000000e0: ae22 e1bd 55e0 abbe 98c9 e63e 693f 52be
000000f0: f6e2 0c3f 5f32 6bbc 1ea3 e43e 52d3 c63c
00000100: 5cc2 acbe fd38 193e ce58 fe3e f8c6 ef3e
00000110: 3ab3 24bf 0255 7dbe b518 033e 6053 4e3e
00000120: cb3a a1bd e812 d63e cd53 33be 030b ae3e
00000130: e633 d2be 363c 203f 9c94 e5be 9a46 68be
00000140: 1046 dcbe 7ff1 313e beb6 c7bd 5f69 85bd
00000150: 22b5 fcbe f969 b6be 564f c23e ce0f febe
00000160: 100a 303f f5d9 003f 5366 1ebf 339e 9d3e
00000170: 5156 87be 24c2 babe 4212 da3d ae3e 6bbe
00000180: 689b 69be b074 5fbe ebb2 073f a8e7 e73e
00000190: 986c 103f 7e23 07bf 094d 31be c8b0 0d3f
000001a0: e8f1 89bd 42f5 25bf 38a0 debd 1e45 a3be
000001b0: c47a be3e 7566 91be 3d95 edbe 4cbf c0be
000001c0: 6d0d ccbb 2a11 27be d5f9 ddbe 3923 9d3d
000001d0: 5d59 18bf b952 9e3b c0b0 d6be 1269 1b3f
000001e0: b17f 113d 10a1 5f3e 4c70 563e 140a b8be
000001f0: 2b07 f1be 33e5 143e bfa4 8b3e 29c6 9dbe
00000200: c76b 5f3e 5c2b 91be b524 013f 5274 f5be
00000210: 4136 0f3f d8a3 f33e 1ec2 0c3f d0e8 8b3e
00000220: d466 50be b451 c2be 6707 e1be 4102 0f3f
00000230: e942 463e 1e39 2e3f 3b5b 133f 02ec da3e
00000240: 7fe9 16bf a224 153f 8319 5e3b 7710 0abd
00000250: a543 893e f92f 02be 8743 e1be 6098 19bf
00000260: 60b6 d93e d0e9 67be 28c8 9d3e 123c ba3c
00000270: d1e8 083f d4d1 f5be 5fd6 e4be 38d5 5c3c
00000280: f05a 533d 99f0 de3c 2d7c f13e 5f37 9b3e
00000290: 886a a73e 8f45 043f c0f2 943e f3d4 88be
000002a0: 3834 d1be 48b3 22be 26f1 debd 726d ba3c
000002b0: deed d0bd d912 82be 9078 153f 1b37 b73e
000002c0: 0720 663d 9940 1cbf b52b a33b 512d 203f
000002d0: b8e8 c7be 5753 65be 34f9 f6be 899b 1bbf
000002e0: 55e6 c8bd 72de b13e 1d6b 033f b920 34be
000002f0: f59c ebbd 82ca 17bf 5df6 2bbe 6435 13b9
00000300: b1bd 82bd 59e4 293f 1b6e 26bf 01b9 ae3e
00000310: e9f9 bbbe 85e2 263f 7788 20bf 9aab a93c
00000320: c592 9e3e 3563 463d bdf7 c1be cb8a 723e
00000330: a649 153f d0a2 29be 84ce 37be 1384 153f
00000340: dc58 0e3f 72fe 023f 8385 eabe 7af5 3fbd
00000350: f8c3 f93d 9022 cc3d 4065 85be 5a9c 22bf
00000360: 3182 babe e4a1 1fbf 60a5 143f a45a 1f3f
00000370: dca0 09bf 8b4b a93e dc24 b3be 4c00 a5bd
00000380: 8578 2d3e 6694 ea3e 7fea 49be d740 e1be
00000390: ed27 093f 9e9d 943e 00c4 97bc ec7b 2a3e
000003a0: 8897 893c 73a9 afbe 29af babe e339 e0be
000003b0: 6c3e 0c3f 6131 bb3e 6b51 d7ba 4c68 c73d
000003c0: 07a8 b33d 74cc a7be 26b0 493e 81ea 8d3e
000003d0: b692 10bf 6fc7 1cbf d1aa 233f 53ea 5cbe
000003e0: 083a 23bf 836b dd3e 8da8 71be e259 e83d
000003f0: c82f c33b dfbf c43e c8cd a13c 25e7 4d3d

linear_sigmoid_stack.0.bias f4 [16]
-0.0017584977 0.010527519 -1.8987581e-05 0.0011993068 -0.013157607 -0.0011777157 -0.0068282615 -0.0030377824
0.011786294 0.0031763478 -0.024186721 -0.0052667772 -0.014573066 0.00057582784 0.0016938559 0.0022821953
00000000: 647d e6ba 9d7b 2c3c 8547 9fb7 0f32 9d3a
00000010: 0193 57bc 955d 9aba 9cbf dfbb 8815 47bb
00000020: 4d1b 413c 462a 503b 3b23 c6bc ee94 acbb
00000030: dec3 6ebc 27f3 163a 5f04 de3a e290 153b

linear_sigmoid_stack.2.weight f4 [4, 16]
6.056914e-07 0.022968506 -0.14306375 -0.02754155 -0.013013818 -0.03270485 0.12372705 -0.03604611
-0.09825791 -0.23839754 -0.27057743 -2.585275e-08 0.04788342 -0.2666812 -0.11683203 0.05892451
-2.370461e-06 -0.025698533 0.3226311 -0.0060304096 -0.025753083 -0.064069115 0.325544 0.114462554
0.20413798 -0.34486857 0.23402658 8.832253e-09 0.361442 -0.046885863 0.260784 0.2115057
-7.930649e-07 -0.016377052 0.25805014 0.02227969 0.012178782 -0.15829507 -0.28967002 0.12476428
-0.24650215 0.33542973 0.22370963 -2.858795e-08 0.34577674 0.24428193 -0.040775333 0.18718562
-9.1653914e-07 0.018830933 0.09609258 0.0070100455 -0.042705365 0.10174973 0.073813975 0.025950639
0.23605949 -0.37699175 -0.24278554 5.507993e-08 -0.17544253 0.043471765 0.2860443 0.080061816
00000000: cc96 2235 7328 bc3c 4e7f 12be d19e e1bc
00000010: e937 55bc 85f5 05bd 9c64 fd3d 16a5 13bd
00000020: 713b c9bd 7c1e 74be 2089 8abe cc12 deb2
00000030: 6821 443d 708a 88be a245 efbd d45a 713d
00000040: 3614 1fb6 bb85 d2bc e72f a53e be9a c5bb
00000050: 21f8 d2bc ab36 83bd b4ad a63e 586b ea3d
00000060: 8c09 513e 9d92 b0be aaa4 6f3e a9bc 1732
00000070: ed0e b93e 640b 40bd 7b85 853e f394 583e
00000080: 01e3 54b5 2b29 86bc 261f 843e e583 b63c
00000090: 8489 473c 1a18 22be a14f 94be 6a84 ff3d
000000a0: 0f6b 7cbe 72bd ab3e 2314 653e 9191 f5b2
000000b0: a609 b13e 0b25 7a3e 0904 27bd 96ad 3f3e
000000c0: 1708 76b5 5443 9a3c 30cc c43d 86b4 e53b
000000d0: d2eb 2ebd 2a62 d03d c82b 973d 6f96 d43c
000000e0: 94b9 713e 1005 c1be c69c 78be 0691 6c33
000000f0: 35a7 33be 730f 323d 6674 923e 73f7 a33d

linear_sigmoid_stack.2.bias f4 [4]
-0.0028543097 -0.013862892 0.0041865082 0.026339743
00000000: 5f0f 3bbb 2f21 63bc fa2e 893b 72c6 d73c

last_fc.weight f4 [1, 4]
0.000112421185 -4.520261e-05 0.00011198561 -0.0002352066
00000000: aac3 eb38 ef97 3db8 d1d9 ea38 caa1 76b9
