Trained_paremeters/nn_checkpoints_CHRNA5_sage.pth (torch, 4503 bytes, 5 tensors)

linear_sigmoid_stack.0.weight f4 [16, 31]
-0.009692519 -2.6667168e-23 -0.057579912 -0.024625054 -0.061378516 -2.6357283e-23 -2.672703e-23 2.792493e-23
-2.6440234e-23 -0.060239628 -0.054496143 0.078605816 -2.4133417e-23 -0.0049656243 -0.004938795 -0.041729666
-2.446753e-23 -2.419981e-23 -2.6285396e-23 -2.673369e-23 -0.1523381 -0.005235832 -2.682469e-23 -2.3818202e-23
-2.6102226e-23 -2.6357285e-23 -5.5931885e-23 0.017068533 -2.6467852e-23 -2.6437116e-23 0.031614497 -0.011292888
-3.623722e-24 0.024943978 -0.0030637553 0.0670595 -3.5931143e-24 -3.6333584e-24 3.9959363e-24 -3.6278703e-24
0.058620885 0.053971052 0.075406566 -3.1954793e-24 0.010488499 0.010065206 0.027858756 -3.2472804e-24
-3.2115888e-24 -3.554379e-24 -3.6146956e-24 0.14676206 -0.0027305607 -3.6925956e-24 -2.9928403e-24 -3.5470085e-24
-3.593114e-24 5.9786362e-27 -0.010517871 -3.6310313e-24 -3.6274617e-24 0.012121079 -0.0015447559 -2.2078191e-23
-0.08294498 -0.07263772 0.03475243 -2.187465e-23 -2.2108373e-23 2.3307426e-23 -2.1928864e-23 0.01819671
0.00017409943 -0.11575882 -2.0131369e-23 -0.0063576363 0.0081215715 0.030644856 -2.0408357e-23 -2.0185032e-23
-2.1753153e-23 -2.2124106e-23 -0.01942562 -0.008656672 -2.2252114e-23 -2.0022487e-23 -2.1610395e-23 -2.1874649e-23
4.8979218e-24 -0.009627508 -2.1951658e-23 -2.1926e-23 -0.025274128 0.008226961 -2.2206084e-23 -0.08244373
-0.08092155 -0.020484993 -2.2277127e-23 -2.2185047e-23 2.3957646e-23 -2.2273425e-23 0.036702767 0.0031696227
-0.096379034 -2.1237196e-23 0.04348394 -0.016871694 0.062313497 -2.1517349e-23 -2.128188e-23 -2.1844669e-23
-2.2217149e-23 -0.23345195 -0.0011262503 -2.2618209e-23 -2.1833755e-23 -2.1735649e-23 -2.2277123e-23 7.17337e-24
0.018051196 -2.2295898e-23 -2.2270383e-23 0.08678055 -0.0019265576 -2.5334075e-23 0.06980042 -0.08474351
0.033114966 -2.496061e-23 -2.538865e-23 2.6487242e-23 -2.5032025e-23 -0.019102741 -0.05847903 0.08830032
-2.2512258e-23 0.008063263 0.010663293 -0.031708892 -2.2831528e-23 -2.2581681e-23 -2.4975914e-23 -2.5401834e-23
-0.2352647 0.00076571124 -2.5396224e-23 -2.2099291e-23 -2.4797385e-23 -2.4960613e-23 -6.261668e-23 -0.008163221
-2.5058001e-23 -2.5028982e-23 -0.060200483 0.0014021964 -1.9834144e-23 0.054756302 0.06298141 -0.017332967
-1.9548383e-23 -1.9855356e-23 2.0466936e-23 -1.9537473e-23 -0.04224182 -0.044492178 0.12011698 -1.7312973e-23
0.04745514 0.01081777 -0.04155047 -1.7559643e-23 -1.7367508e-23 -1.9586324e-23 -1.992038e-23 -0.12641805
-0.008847331 -1.9799259e-23 -1.7240582e-23 -1.9413973e-23 -1.9548379e-23 8.018712e-24 -0.0133019425 -1.9558642e-23
-1.9534828e-23 -0.03495627 -0.0002444053 -1.9636013e-23 -0.058470115 0.043240003 -0.027686702 -1.9306134e-23
-1.9656172e-23 2.02551e-23 -1.9273587e-23 -0.009121618 -0.009337916 -0.15111795 -1.6867716e-23 0.048072137
0.013601391 -0.06576729 -1.711457e-23 -1.69273e-23 -1.938581e-23 -1.9716446e-23 0.18776588 -0.012622194
-1.9538611e-23 -1.682186e-23 -1.9219976e-23 -1.9306126e-23 -6.857081e-24 -0.0027298653 -1.9293935e-23 -1.92711e-23
-0.08053459 -0.010081907 -1.7727721e-23 0.049545158 -0.07197087 -0.010016457 -1.7360552e-23 -1.7767172e-23
1.8484593e-23 -1.7395184e-23 0.041285247 0.05260634 0.0032592055 -1.5043107e-23 -0.024741018 0.008751821
-0.06591306 -1.5268774e-23 -1.5101612e-23 -1.7499626e-23 -1.7797901e-23 -0.10181328 -0.009942411 -1.763596e-23
-1.4564527e-23 -1.7352179e-23 -1.7360552e-23 3.0973194e-23 0.01677196 -1.7413428e-23 -1.7392747e-23 -0.0655609
0.0036634991 -2.5898024e-23 0.039683335 -0.081072725 -0.043930735 -2.5998524e-23 -2.5936358e-23 2.8427553e-23
00000000: 5fcd 1ebc 5bf4 009a ead8 6bbd 7bba c9bc
00000010: 0a68 7bbd 79e9 fe99 763e 019a 6409 071a
00000020: d9b6 ff99 d4bd 76bd 5937 5fbd 16fc a03d
00000030: 7267 e999 adb6 a2bb 9ed5 a1bb baec 2abd
00000040: aca2 ec99 d40b ea99 7d37 fe99 b546 019a
00000050: 85fe 1bbe 5891 abbb 5cb7 019a 035b e699
00000060: fb71 fc99 7ae9 fe99 293c 879a 4fd3 8b3c
00000070: 3afb ff99 21af ff99 347e 013d ce05 39bc
00000080: 9b2f 8c98 5057 cc3c 49c9 48bb 7e56 893d
00000090: 7b00 8b98 0a8f 8c98 d695 9a18 b058 8c98
000000a0: 741c 703d c010 5d3d c26e 9a3d fd3c 7798
000000b0: f4d7 2b3c 89e8 243c 0c38 e43c 043f 7b98
000000c0: 127c 7898 dd80 8998 36d6 8b98 cb48 163e
000000d0: 35f3 32bb b2d9 8e98 4f8f 6798 df37 8998
000000e0: 7a00 8b98 93d6 ec13 2653 2cbc fe77 8c98
000000f0: a454 8c98 7d97 463c 6879 caba f486 d599
00000100: 0fdf a9bd 16c3 94bd 9058 0e3d 038f d399
00000110: aed1 d599 646a e119 3d15 d499 4411 953c
00000120: 768e 3639 f612 edbd dbb2 c299 b853 d0bb
00000130: 5710 053c ec0a fb3c a560 c599 b837 c399
00000140: 3362 d299 a2f8 d599 7a22 9fbc b7d4 0dbc
00000150: 9135 d799 47a5 c199 bf00 d199 028f d399
00000160: ab7a bd18 b2bc 1dbc ac4d d499 260e d499
00000170: b00b cfbc 60ca 063c 9ac3 d699 42d8 a8bd
00000180: 33ba a5bd 25d0 a7bc 7f73 d799 848f d699
00000190: 42b4 e719 546a d799 a455 163d 72b9 4f3b
000001a0: 5f62 c5bd c064 cd99 371c 323d 8236 8abc
000001b0: 703c 7f3d 601a d099 62d3 cd99 c844 d399
000001c0: ffde d699 070e 6fbe b09e 93ba f9bf da99
000001d0: c229 d399 dc36 d299 7c73 d799 cfc0 0a19
000001e0: 1ae0 933c f8a1 d799 cc62 d799 00ba b13d
000001f0: 8c84 fcba 2204 f599 86f3 8e3d 018e adbd
00000200: 8fa3 073d 7a67 f199 418b f599 9e15 001a
00000210: 4b18 f299 5a7d 9cbc b587 6fbd ccd6 b43d
00000220: a7b9 d999 c71b 043c 18b5 2e3c 2fe1 01bd
00000230: 20d0 dc99 8965 da99 5e8d f199 e5ab f599
00000240: 3be9 70be 03ba 483a 019e f599 32bb d599
00000250: 5ad3 ef99 7c67 f199 d965 979a 08bf 05bc
00000260: 9b58 f299 c210 f299 c894 76bd e7c9 b73a
00000270: f6d2 bf99 2548 603d 66fc 803d defd 8dbc
00000280: 740f bd99 7b07 c099 aef1 c519 71f4 bc99
00000290: c205 2dbd 6e3d 36bd e4ff f53d d870 a799
000002a0: 5260 423d 043d 313c d330 2abd 92d3 a999
000002b0: def7 a799 646d bd99 79a8 c099 bc73 01be
000002c0: 65f4 10bc 977c bf99 9dbd a699 abc2 bb99
000002d0: 710f bd99 bd1a 1b19 64f0 59bc da28 bd99
000002e0: e4ed bc99 4e2e 0fbd 8623 80b9 6ae8 bd99
000002f0: 5c7e 6fbd 6e1c 313d 39cf e2bc acb7 ba99
00000300: 531a be99 33e5 c319 1767 ba99 d772 15bc
00000310: 0ffe 18bc aabe 1abe 7122 a399 4ae7 443d
00000320: 5ed8 5e3c 00b1 86bd 9f85 a599 f7b5 a399
00000330: f17c bb99 8eaf be99 b345 403e 52cd 4ebc
00000340: 42f7 bc99 e8b0 a299 5be2 b999 a7b7 ba99
00000350: 9fa2 0499 8ae7 32bb 7899 ba99 ef60 ba99
00000360: 52ef a4bd 952e 25bc b673 ab99 ddef 4a3d
00000370: 7765 93bd 111c 24bc a5e6 a799 63d5 ab99
00000380: a3c5 b219 643c a899 b81a 293d bf79 573d
00000390: 6598 553b ee7c 9199 adad cabc cc63 0f3c
000003a0: 6dfd 86bd a7ab 9399 c80d 9299 fa3e a999
000003b0: 7821 ac99 7b83 d0bd 7fe5 22bc 8690 aa99
000003c0: 06dc 8c99 ead1 a799 a5e6 a799 f5c6 151a
000003d0: 5965 893c 8f69 a899 5b36 a899 cb44 86bd
000003e0: 5117 703b 6778 fa99 fe8a 223d 7509 a6bd
000003f0: b7f0 33bd 3a71 fb99 50d7 fa99 9b77 091a

linear_sigmoid_stack.0.bias f4 [16]
4.043252e-06 0.00028182243 3.8918773e-05 2.864977e-05 -0.0001710737 -4.875309e-05 -6.002754e-05 5.5816906e-07
-0.00021708252 -2.7945653e-05 -0.00015978405 -0.00025042333 0.0003033974 -3.8804683e-05 -2.5217316e-05 -0.00013082878
00000000: 45ab 8736 91c1 9339 b73c 2338 ea54 f037
00000010: 3f62 33b9 3b7c 4cb8 15c6 7bb8 16d5 1535
00000020: a5a0 63b9 d56c eab7 b48b 27b9 404b 83b9
00000030: 4f11 9f39 36c2 22b8 c689 d3b7 152f 09b9

linear_sigmoid_stack.2.weight f4 [4, 16]
1.6945981e-12 2.514083e-13 1.4179252e-12 1.4831378e-12 1.6045104e-12 1.2274628e-12 1.2136018e-12 1.1180296e-12
1.7830468e-12 1.1924593e-12 1.5139756e-12 7.428228e-13 1.4057156e-12 7.165042e-13 7.0283097e-13 1.2157378e-12
1.6933456e-12 2.5122255e-13 1.4168783e-12 1.4820433e-12 1.6033251e-12 1.226556e-12 1.2127045e-12 1.1172037e-12
1.7817303e-12 1.1915784e-12 1.5128572e-12 7.422738e-13 1.4046772e-12 7.1597513e-13 7.023123e-13 1.2148396e-12
1.6925409e-12 2.5110266e-13 1.4162045e-12 1.4813388e-12 1.602563e-12 1.2259729e-12 1.2121284e-12 1.1166722e-12
1.7808836e-12 1.1910114e-12 1.5121376e-12 7.4192085e-13 1.4040094e-12 7.1563437e-13 7.019779e-13 1.2142627e-12
1.6944583e-12 2.5138753e-13 1.4178096e-12 1.4830173e-12 1.6043783e-12 1.2273621e-12 1.2135014e-12 1.1179382e-12
1.7829012e-12 1.1923612e-12 1.5138514e-12 7.427616e-13 1.4056009e-12 7.164456e-13 7.0277334e-13 1.2156387e-12
00000000: 557e ee2b c187 8d2a 248e c72b acbb d02b
00000010: 94d0 e12b 02c0 ac2b 9dcc aa2b 4359 9d2b
00000020: 08f1 fa2b e0d2 a72b b812 d52b 0616 512b
00000030: 3ed6 c52b 92ad 492b 4fd4 452b 9219 ab2b
00000040: 3451 ee2b fc6c 8d2a 6c68 c72b 3d94 d02b
00000050: e0a5 e12b 569f ac2b 49ac aa2b 813b 9d2b
00000060: 99c1 fa2b 23b3 a72b 6dea d42b 77ee 502b
00000070: d4b0 c52b 7287 492b efae 452b 36f9 aa2b
00000080: 3634 ee2b b55b 8d2a 2550 c72b db7a d02b
00000090: 6b8a e12b 548a ac2b 8797 aa2b 5b28 9d2b
000000a0: 18a3 fa2b b59e a72b 80d0 d42b 08d5 502b
000000b0: c598 c52b e46e 492b d796 452b 6de4 aa2b
000000c0: 4b79 ee2b c384 8d2a f989 c72b 54b7 d02b
000000d0: d2cb e12b 61bc ac2b ffc8 aa2b f855 9d2b
000000e0: c9eb fa2b 57cf a72b 3f0e d52b 9d11 512b
000000f0: 1cd2 c52b 59a9 492b 28d0 452b 0016 ab2b

linear_sigmoid_stack.2.bias f4 [4]
0.001080789 -0.00039869078 -0.0013467799 0.00092009373
00000000: 43a9 8d3a 5f07 d1b9 6f86 b0ba 7232 713a

last_fc.weight f4 [1, 4]
-2.0710606e-06 -2.0695306e-06 -2.068546e-06 -2.0708908e-06
00000000: 8dfc 0ab6 44e2 0ab6 5ad1 0ab6 a2f9 0ab6
