Trained_paremeters/nn_checkpoints_CHRNA6_TL_y1002.pth (torch, 5527 bytes, 6 tensors)

linear_sigmoid_stack.0.weight f8 [16, 21]
000000 00 00 00 80 9a 53 d0 bf 00 00 00 c0 a8 b2 c5 3f
       -0.2551027536392212 0.1695147454738617
000010 00 00 00 80 1e f6 e1 bf 00 00 00 60 75 a1 ef bf
       -0.5612938404083252 -0.9884592890739441
000020 00 00 00 20 55 c3 db 3f 00 00 00 e0 61 ce d6 3f
       0.433797150850296 0.35634657740592957
000030 00 00 00 60 37 d4 d0 bf 00 00 00 60 8a ae dc bf
       -0.26295265555381775 -0.4481531083583832
000040 00 00 00 a0 76 21 eb bf 00 00 00 e0 ac ce d8 3f
       -0.8478348851203918 0.3876144587993622
000050 00 00 00 a0 79 08 d8 bf 00 00 00 a0 d5 45 e5 bf
       -0.3755172789096832 -0.6647747159004211
000060 00 00 00 c0 98 ae e0 bf 00 00 00 80 63 5a c0 bf
       -0.5213130712509155 -0.1277584433555603
000070 00 00 00 e0 dc d1 e7 bf 00 00 00 60 2f 6f ea bf
       -0.7443680167198181 -0.8260723948478699
000080 00 00 00 40 cd 31 e6 bf 00 00 00 40 cf 9c ee bf
       -0.6935793161392212 -0.9566417932510376
000090 00 00 00 a0 01 f6 eb bf 00 00 00 20 94 63 d2 3f
       -0.8737800717353821 0.2873277962207794
0000a0 00 00 00 00 b3 6f ec 3f 00 00 00 80 71 9b 71 3f
       0.8886351585388184 0.004298632964491844
0000b0 00 00 00 e0 39 40 db bf 00 00 00 a0 d2 d9 e6 3f
       -0.4257950484752655 0.7140896916389465
0000c0 00 00 00 20 a8 41 e0 3f 00 00 00 c0 ae 3f dc bf
       0.5080147385597229 -0.441386878490448
0000d0 00 00 00 20 39 1c e1 3f 00 00 00 80 81 15 d7 bf
       0.5346952080726624 -0.36068761348724365
0000e0 00 00 00 e0 03 0b ce bf 00 00 00 80 05 04 d9 bf
       -0.234711155295372 -0.39087045192718506
0000f0 00 00 00 00 0f 9a eb bf 00 00 00 60 d4 01 e9 bf
       -0.862555980682373 -0.7814733386039734
000100 00 00 00 e0 49 1e b8 bf 00 00 00 20 74 87 dc bf
       -0.09421216696500778 -0.44576743245124817
000110 00 00 00 c0 5a dc e2 3f 00 00 00 00 e3 27 ea bf
       0.5893987417221069 -0.8173689842224121
000120 00 00 00 c0 25 19 e5 bf 00 00 00 40 e9 23 d2 3f
       -0.6593197584152222 0.28344184160232544
000130 00 00 00 80 95 c8 69 bf 00 00 00 40 98 86 c5 3f
       -0.003147403709590435 0.1681700050830841
000140 00 00 00 60 4a 12 e8 3f 00 00 00 00 62 0c da 3f
       0.7522327303886414 0.40700578689575195
000150 00 00 00 20 e5 e3 d5 bf 00 00 00 80 c7 4b cd 3f
       -0.34203460812568665 0.22887510061264038
000160 00 00 00 c0 8d 0e ec bf 00 00 00 40 93 60 eb 3f
       -0.8767765760421753 0.8555389642715454
000170 00 00 00 40 9e f4 f0 bf 00 00 00 00 b1 06 d0 bf
       -1.0597212314605713 -0.250408411026001
000180 00 00 00 40 12 1b e2 3f 00 00 00 00 4e 65 8a bf
       0.5658046007156372 -0.012888535857200623
000190 00 00 00 80 c3 2e c8 bf 00 00 00 e0 f2 81 df 3f
       -0.18892711400985718 0.4923064410686493
0001a0 00 00 00 00 39 5e b4 bf 00 00 00 e0 60 c8 ef bf
       -0.0795627236366272 -0.9932102560997009
0001b0 00 00 00 80 fc a4 ee bf 00 00 00 e0 c0 e4 e5 bf
       -0.9576399326324463 -0.6841740012168884
0001c0 00 00 00 60 d7 76 e6 3f 00 00 00 20 4f 89 ec bf
       0.702006995677948 -0.8917613625526428
0001d0 00 00 00 e0 c6 e4 ed 3f 00 00 00 00 08 0f e8 bf
       0.9341768622398376 -0.7518348693847656
0001e0 00 00 00 c0 98 fd 85 bf 00 00 00 60 6e e8 dc bf
       -0.010737603530287743 -0.45168647170066833
0001f0 00 00 00 c0 e2 7c ba 3f 00 00 00 20 aa de da 3f
       0.10346810519695282 0.41984036564826965
000200 00 00 00 20 90 ea e8 3f 00 00 00 80 26 e7 e0 3f
       0.778633177280426 0.5282166004180908
000210 00 00 00 60 a3 18 68 3f 00 00 00 a0 73 e3 a2 3f
       0.0029414359014481306 0.03689156845211983
000220 00 00 00 00 25 7e c2 3f 00 00 00 20 96 61 d5 3f
       0.14447462558746338 0.3340812027454376
000230 00 00 00 00 91 ac a3 3f 00 00 00 40 85 61 e8 bf
       0.038425952196121216 -0.7619043588638306
000240 00 00 00 80 51 ff b5 3f 00 00 00 40 b4 cd e7 bf
       0.0859270989894867 -0.7438603639602661
000250 00 00 00 c0 0d ab e3 bf 00 00 00 60 01 f3 dc 3f
       -0.6146305799484253 0.45233187079429626
000260 00 00 00 20 68 5c d8 3f 00 00 00 80 ea b7 de bf
       0.38064005970954895 -0.4799753427505493
000270 00 00 00 40 5b c5 ee 3f 00 00 00 a0 bd bf db 3f
       0.961591362953186 0.43357792496681213
000280 00 00 00 80 c1 34 b1 bf 00 00 00 40 c8 ed df 3f
       -0.06721124053001404 0.4988880753517151
000290 00 00 00 c0 9a f8 d0 3f 00 00 00 80 62 13 e3 bf
       0.26517361402511597 -0.596116304397583
0002a0 00 00 00 20 93 bf ee 3f 00 00 00 80 84 71 b7 bf
       0.9608855843544006 -0.09157589077949524
0002b0 00 00 00 00 89 2b d4 3f 00 00 00 00 ed 83 eb 3f
       0.3151571750640869 0.8598542213439941
0002c0 00 00 00 a0 ff 9c dc 3f 00 00 00 c0 c3 8b db bf
       0.44708243012428284 -0.43040555715560913
0002d0 00 00 00 c0 f4 d5 d4 3f 00 00 00 40 a6 77 eb bf
       0.3255588412284851 -0.8583556413650513
0002e0 00 00 00 c0 fe 3d db bf 00 00 00 80 27 7f e5 bf
       -0.4256588816642761 -0.671771764755249
0002f0 00 00 00 60 38 2a c8 3f 00 00 00 a0 0d fd b3 3f
       0.18878845870494843 0.07808003574609756
000300 00 00 00 c0 2c 97 e1 3f 00 00 00 40 4b a1 e5 bf
       0.5497039556503296 -0.6759392023086548
000310 00 00 00 a0 5e 99 e1 bf 00 00 00 80 3a b3 e6 bf
       -0.549971878528595 -0.7093784809112549
000320 00 00 00 60 e3 62 db 3f 00 00 00 20 e6 f4 e7 3f
       0.4279106557369232 0.7486448884010315
000330 00 00 00 20 85 a8 ee 3f 00 00 00 20 a5 44 d3 bf
       0.9580712914466858 -0.30106475949287415
000340 00 00 00 a0 2e b0 e1 3f 00 00 00 00 50 65 d6 bf
       0.5527566075325012 -0.3499336242675781
000350 00 00 00 40 3e 1d db bf 00 00 00 40 43 a9 d7 bf
       -0.4236598610877991 -0.3697059750556946
000360 00 00 00 e0 93 ff d3 3f 00 00 00 20 a4 e5 bb bf
       0.31247422099113464 -0.10897279530763626
000370 00 00 00 20 41 b0 ec 3f 00 00 00 c0 75 ef e7 3f
       0.896515429019928 0.7479809522628784
000380 00 00 00 20 40 97 e9 bf 00 00 00 e0 72 05 e1 bf
       -0.7997131943702698 -0.5319151282310486
000390 00 00 00 c0 4a 9f dd 3f 00 00 00 40 9f 18 d4 3f
       0.46284741163253784 0.3140028119087219
0003a0 00 00 00 20 4c 59 e5 3f 00 00 00 a0 5c 8f c4 bf
       0.6671505570411682 -0.16062505543231964
0003b0 00 00 00 e0 7c 95 e0 bf 00 00 00 c0 4d 12 c4 3f
       -0.5182480216026306 0.15680858492851257
0003c0 00 00 00 80 37 a8 d9 bf 00 00 00 20 76 7e d9 3f
       -0.40089213848114014 0.39834359288215637
0003d0 00 00 00 00 96 da e1 bf 00 00 00 60 0c 81 e7 bf
       -0.5579328536987305 -0.7345029711723328
0003e0 00 00 00 40 88 e9 e6 3f 00 00 00 80 92 65 e4 3f
       0.7160073518753052 0.6373989582061768
0003f0 00 00 00 80 85 fc db bf 00 00 00 00 a8 37 ed 3f
       -0.43728768825531006 0.9130439758300781
000400 00 00 00 e0 36 34 ed bf 00 00 00 a0 b9 11 dc bf
       -0.9126238226890564 -0.4385818541049957
000410 00 00 00 e0 6d bf b6 3f 00 00 00 80 f8 81 e7 3f
       0.0888584777712822 0.7346155643463135
000420 00 00 00 60 08 7a d6 bf 00 00 00 60 00 1d c7 3f
       -0.3511982858181 0.18057255446910858
000430 00 00 00 40 a0 e0 d7 3f 00 00 00 a0 56 41 e9 bf
       0.373085081577301 -0.7892258763313293
000440 00 00 00 a0 31 d5 eb 3f 00 00 00 00 ae 43 e7 bf
       0.8697746396064758 -0.7270116806030273
000450 00 00 00 60 de 84 de bf 00 00 00 c0 f5 9e d6 3f
       -0.4768596589565277 0.3534521460533142
000460 00 00 00 80 93 32 e0 3f 00 00 00 00 1e 8a c2 3f
       0.506173849105835 0.14484000205993652
000470 00 00 00 c0 14 b1 e8 bf 00 00 00 e0 7e f6 e1 bf
       -0.7716163396835327 -0.561339795589447
000480 00 00 00 e0 fc c1 d8 bf 00 00 00 e0 1b 31 e1 bf
       -0.3868400752544403 -0.5372447371482849
000490 00 00 00 60 67 14 e9 3f 00 00 00 40 9a 63 e8 bf
       0.7837406992912292 -0.7621585130691528
0004a0 00 00 00 c0 03 84 e2 3f 00 00 00 80 b7 e7 e0 3f
       0.5786150693893433 0.5282857418060303
0004b0 00 00 00 60 c0 f9 ea bf 00 00 00 20 80 c3 d1 bf
       -0.8429872393608093 -0.2775574028491974
0004c0 00 00 00 60 5a 28 e1 3f 00 00 00 20 bc 79 b5 3f
       0.5361759066581726 0.08388877660036087
0004d0 00 00 00 40 42 72 e0 bf 00 00 00 a0 01 e9 b8 3f
       -0.513947606086731 0.09730539470911026
0004e0 00 00 00 80 f5 1c e8 bf 00 00 00 c0 82 9e dd bf
       -0.7535350322723389 -0.46279972791671753
0004f0 00 00 00 60 c5 e4 db bf 00 00 00 60 60 b6 95 bf
       -0.43583807349205017 -0.021203523501753807
000500 00 00 00 40 7f 8e e8 bf 00 00 00 c0 08 5d dc 3f
       -0.7673946619033813 0.44317835569381714
000510 00 00 00 80 3f a3 c7 bf 00 00 00 60 24 26 db bf
       -0.18466943502426147 -0.4242030084133148
000520 00 00 00 a0 b3 67 db 3f 00 00 00 a0 9e 1b c5 bf
       0.4282044470310211 -0.16490538418293
000530 00 00 00 40 63 28 e0 3f 00 00 00 20 9c b4 ea 3f
       0.5049301385879517 0.8345471024513245
000540 00 00 00 a0 97 13 e8 3f 00 00 00 c0 41 75 ca 3f
       0.7523916363716125 0.20670339465141296
000550 00 00 00 00 c9 3f ec 3f 00 00 00 80 3f 03 e7 3f
       0.8827862739562988 0.7191464900970459
000560 00 00 00 a0 8e b7 ec 3f 00 00 00 40 3d b4 e3 3f
       0.8974068760871887 0.6157518625259399
000570 00 00 00 a0 41 55 e8 bf 00 00 00 c0 8f 2b cb 3f
       -0.7604072690010071 0.21226689219474792
000580 00 00 00 40 a6 d6 cf bf 00 00 00 a0 11 87 c7 3f
       -0.24873808026313782 0.18380947411060333
000590 00 00 00 40 16 57 e6 bf 00 00 00 80 b7 25 eb 3f
       -0.69813072681427 0.8483541011810303
0005a0 00 00 00 40 25 6c bf bf 00 00 00 c0 64 57 c2 3f
       -0.12274391949176788 0.14329203963279724
0005b0 00 00 00 00 fa 66 bf 3f 00 00 00 40 11 bf cb 3f
       0.12266504764556885 0.21676841378211975
0005c0 00 00 00 20 e1 68 ca bf 00 00 00 60 83 9b c4 bf
       -0.20632566511631012 -0.16099588572978973
0005d0 00 00 00 a0 93 37 d2 3f 00 00 00 60 4b d8 e3 bf
       0.28464213013648987 -0.6201531291007996
0005e0 00 00 00 20 57 a5 ea bf 00 00 00 40 67 4b dc 3f
       -0.8326831459999084 0.44210225343704224
0005f0 00 00 00 c0 aa 05 d5 bf 00 00 00 60 c7 d3 e5 3f
       -0.3284708857536316 0.6821019053459167
000600 00 00 00 20 1c 9f d6 3f 00 00 00 00 86 17 77 bf
       0.35346129536628723 -0.005637668073177338
000610 00 00 00 80 2e 6d e1 3f 00 00 00 e0 7e 9e d7 bf
       0.5445778369903564 -0.3690488040447235
000620 00 00 00 c0 28 16 e1 3f 00 00 00 c0 92 9e e6 3f
       0.5339549779891968 0.7068570852279663
000630 00 00 00 a0 10 55 f0 bf 00 00 00 c0 6c 77 e6 3f
       -1.0207678079605103 0.7020782232284546
000640 00 00 00 a0 af 15 d7 3f 00 00 00 c0 f9 90 d3 bf
       0.3606986105442047 -0.3057236075401306
000650 00 00 00 80 14 79 ee 3f 00 00 00 a0 d1 0d bc 3f
       0.9522802829742432 0.10958585888147354
000660 00 00 00 80 38 ec e2 3f 00 00 00 20 cf 13 e1 3f
       0.5913355350494385 0.5336681008338928
000670 00 00 00 c0 0e 01 e3 3f 00 00 00 00 c6 5a e7 3f
       0.5938791036605835 0.7298307418823242
000680 00 00 00 20 26 a9 d4 3f 00 00 00 a0 0d 48 e1 bf
       0.32282403111457825 -0.5400455594062805
000690 00 00 00 40 ce 92 d0 3f 00 00 00 00 c0 c0 d6 bf
       0.2589603066444397 -0.3555145263671875
0006a0 00 00 00 40 12 cc d1 bf 00 00 00 c0 12 78 d0 3f
       -0.2780805230140686 0.25732868909835815
0006b0 00 00 00 20 ac d4 ec 3f 00 00 00 60 11 d7 eb 3f
       0.9009609818458557 0.8700034022331238
0006c0 00 00 00 00 37 67 b4 3f 00 00 00 a0 29 0c e0 bf
       0.07969993352890015 -0.5014846920967102
0006d0 00 00 00 20 c4 5d a0 3f 00 00 00 60 6a 11 d4 bf
       0.03196537867188454 -0.31356295943260193
0006e0 00 00 00 c0 73 2a ed bf 00 00 00 00 9b 4e d3 bf
       -0.911432147026062 -0.30167269706726074
0006f0 00 00 00 c0 64 76 dd 3f 00 00 00 e0 9d d3 e4 bf
       0.4603511691093445 -0.6508321166038513
000700 00 00 00 80 3d fd e5 3f 00 00 00 60 b0 a5 b9 bf
       0.6871631145477295 -0.10018446296453476
000710 00 00 00 e0 f3 7c c4 bf 00 00 00 60 49 87 d4 3f
       -0.1600632518529892 0.3207572400569916
000720 00 00 00 00 65 b6 de bf 00 00 00 80 1c 18 e9 3f
       -0.47988247871398926 0.7841932773590088
000730 00 00 00 20 a9 6a b0 3f 00 00 00 e0 fd 14 d3 3f
       0.06412751227617264 0.2981562316417694
000740 00 00 00 00 e4 d2 d7 bf 00 00 00 40 a2 6c e7 3f
       -0.37224674224853516 0.7320109605789185
000750 00 00 00 60 d8 32 d3 bf 00 00 00 c0 ba 20 f1 bf
       -0.2999783456325531 -1.0704905986785889
000760 00 00 00 80 5a b7 c8 bf 00 00 00 e0 76 56 e1 bf
       -0.19309550523757935 -0.5418047308921814
000770 00 00 00 e0 57 f0 e8 3f 00 00 00 40 dc 5c e3 3f
       0.7793387770652771 0.6050854921340942
000780 00 00 00 60 b0 da c7 bf 00 00 00 80 ba 16 db 3f
       -0.18636135756969452 0.42326223850250244
000790 00 00 00 a0 1e 0e e3 3f 00 00 00 40 76 ea ee bf
       0.59547358751297 -0.9661208391189575
0007a0 00 00 00 c0 fc e8 e1 bf 00 00 00 e0 e8 41 e1 3f
       -0.5596908330917358 0.5392956137657166
0007b0 00 00 00 e0 0f 7a cb 3f 00 00 00 60 48 b5 e3 bf
       0.21466253697872162 -0.615879237651825
0007c0 00 00 00 c0 7a ec e6 bf 00 00 00 e0 6d a9 ce bf
       -0.7163671255111694 -0.2395455688238144
0007d0 00 00 00 40 79 00 dd bf 00 00 00 80 c7 33 c9 3f
       -0.45315390825271606 0.19689267873764038
0007e0 00 00 00 a0 bb e3 c3 bf 00 00 00 e0 0b ac da bf
       -0.15538735687732697 -0.41675087809562683
0007f0 00 00 00 c0 f0 85 d9 3f 00 00 00 a0 4d eb c9 3f
       0.3988000750541687 0.20249338448047638

linear_sigmoid_stack.0.bias f8 [16]
000000 00 00 00 a0 cb fe 93 bf 00 00 00 40 bd ef a3 bf
       -0.019526654854416847 -0.03893844038248062
000010 00 00 00 60 0e c0 bd 3f 00 00 00 c0 b6 19 b6 bf
       0.11621179431676865 -0.0863298624753952
000020 00 00 00 60 83 f7 a4 3f 00 00 00 c0 c0 8f c8 3f
       0.040950875729322433 0.1918869912624359
000030 00 00 00 60 81 04 b0 bf 00 00 00 c0 02 d4 b1 bf
       -0.06256874650716782 -0.06964127719402313
000040 00 00 00 00 39 66 b0 3f 00 00 00 20 68 81 c3 bf
       0.0640597939491272 -0.15238668024539948
000050 00 00 00 60 02 e3 c4 bf 00 00 00 60 ab 5f cb 3f
       -0.16317777335643768 0.21385709941387177
000060 00 00 00 80 26 bd b6 bf 00 00 00 e0 cb 2f 90 3f
       -0.08882370591163635 0.01580732874572277
000070 00 00 00 c0 3a 62 ba bf 00 00 00 20 b7 5f d1 bf
       -0.10306136310100555 -0.271467000246048

linear_sigmoid_stack.2.weight f8 [4, 16]
000000 00 00 00 20 c4 0b d4 bf 00 00 00 80 8d a2 d1 bf
       -0.3132181465625763 -0.27554643154144287
000010 00 00 00 c0 2a 42 b3 bf 00 00 00 60 58 0c c7 3f
       -0.07522837817668915 0.18006424605846405
000020 00 00 00 e0 40 53 f1 bf 00 00 00 c0 c8 48 f4 bf
       -1.0828255414962769 -1.2677695751190186
000030 00 00 00 20 04 f3 e0 bf 00 00 00 c0 9c cd b3 3f
       -0.5296650528907776 0.07735614478588104
000040 00 00 00 e0 ac 72 d7 3f 00 00 00 20 5a 29 d6 bf
       0.3663742244243622 -0.34627392888069153
000050 00 00 00 20 80 3f e1 3f 00 00 00 40 83 fb dc bf
       0.5390015244483948 -0.4528511166572571
000060 00 00 00 c0 e5 84 d1 3f 00 00 00 c0 8a b7 e9 bf
       0.2737364172935486 -0.8036550283432007
000070 00 00 00 e0 ad 9d ef bf 00 00 00 c0 e5 28 e6 3f
       -0.9879979491233826 0.6924923658370972
000080 00 00 00 20 8e 07 e4 bf 00 00 00 e0 01 f8 dd bf
       -0.6259222626686096 -0.4682621657848358
000090 00 00 00 60 18 59 b2 bf 00 00 00 20 eb 54 da bf
       -0.0716719850897789 -0.41143301129341125
0000a0 00 00 00 00 bf 83 f2 bf 00 00 00 60 0a ed e9 bf
       -1.1571645736694336 -0.8101856112480164
0000b0 00 00 00 40 f9 55 d9 3f 00 00 00 a0 ba 71 bc bf
       0.39587241411209106 -0.11111036688089371
0000c0 00 00 00 80 8d 64 d7 bf 00 00 00 e0 8d c9 d6 3f
       -0.36551225185394287 0.35605189204216003
0000d0 00 00 00 20 25 52 e2 bf 00 00 00 a0 a3 fe ca bf
       -0.5725274682044983 -0.21089597046375275
0000e0 00 00 00 00 c4 8c ca 3f 00 00 00 80 60 f2 ab 3f
       0.20742082595825195 0.05458356440067291
0000f0 00 00 00 c0 af 6f e0 3f 00 00 00 e0 99 18 ec bf
       0.5136336088180542 -0.8780030608177185
000100 00 00 00 a0 bc 55 b5 3f 00 00 00 60 b3 a5 ca 3f
       0.08333948999643326 0.20818178355693817
000110 00 00 00 e0 b8 ff ed bf 00 00 00 c0 b4 cb c2 3f
       -0.9374660849571228 0.1468416154384613
000120 00 00 00 60 8e 6f ca 3f 00 00 00 c0 40 0c e4 bf
       0.2065294235944748 -0.6264957189559937
000130 00 00 00 40 6c 12 bb bf 00 00 00 a0 e3 aa cb 3f
       -0.10574986040592194 0.216152623295784
000140 00 00 00 e0 66 af d3 bf 00 00 00 60 17 e3 d5 bf
       -0.3075806796550751 -0.3419855535030365
000150 00 00 00 00 31 87 a0 3f 00 00 00 c0 b1 47 f1 bf
       0.03228142857551575 -1.0800034999847412
000160 00 00 00 00 14 92 f4 bf 00 00 00 e0 3b 10 dd bf
       -1.2856636047363281 -0.4541158378124237
000170 00 00 00 20 fe 13 e5 3f 00 00 00 e0 62 32 e2 3f
       0.6586905121803284 0.5686506628990173
000180 00 00 00 e0 d4 15 c1 3f 00 00 00 00 d6 8d ce bf
       0.13347874581813812 -0.23870348930358887
000190 00 00 00 e0 83 2e eb bf 00 00 00 00 8c 62 e6 bf
       -0.849428117275238 -0.6995296478271484
0001a0 00 00 00 e0 13 f2 d6 3f 00 00 00 40 dd 60 d2 bf
       0.35852524638175964 -0.2871621251106262
0001b0 00 00 00 20 9f fd e2 bf 00 00 00 e0 c3 cb e1 bf
       -0.5934596657752991 -0.556123673915863
0001c0 00 00 00 e0 cc 74 f2 bf 00 00 00 e0 46 23 e1 3f
       -1.1535156965255737 0.5355562567710876
0001d0 00 00 00 00 4f 46 c2 3f 00 00 00 80 04 e6 e9 bf
       0.1427706480026245 -0.8093283176422119
0001e0 00 00 00 60 10 7e b7 bf 00 00 00 c0 88 ae e5 bf
       -0.0917673334479332 -0.6775554418563843
0001f0 00 00 00 a0 53 4d 8d bf 00 00 00 c0 23 04 e7 3f
       -0.01430764514952898 0.7192553281784058

linear_sigmoid_stack.2.bias f8 [4]
000000 00 00 00 c0 3f 41 e9 bf 00 00 00 40 90 f6 e7 bf
       -0.7892149686813354 -0.7488480806350708
000010 00 00 00 00 2c 4b e4 bf 00 00 00 a0 f6 f2 e4 bf
       -0.6341762542724609 -0.6546586155891418

last_fc.weight f8 [1, 4]
000000 c8 6f 86 2c 04 0f de bf ff f1 bf d6 e8 ce 6e bf
       -0.46966652248533736 -0.0037607715257748082
000010 37 57 5c 15 83 84 00 40 6a 83 44 59 a3 45 e0 3f
       2.0647031468205586 0.5085007422932055

last_fc.bias f8 [1]
000000 01 21 45 10 93 89 c8 bf
       -0.19169843954501434
