Trained_paremeters/nn_checkpoints_CHRNB3_TL_sage.pth (torch, 4311 bytes, 5 tensors)

linear_sigmoid_stack.0.weight f4 [16, 28]
-0.16530614 0.7863814 0.07605826 -0.020427544 0.5471012 0.39461774 0.800773 -0.1897422
-0.022219894 -0.53656334 -0.9337477 -0.64747596 -0.6397475 -0.46426663 -0.59343576 -0.64643484
0.6029321 -0.8963649 -0.8810353 -0.13521338 -0.63107413 -0.29571033 -0.5461153 -0.36483547
-0.42936593 -0.94593495 0.015192154 -0.7259168 -0.2993993 0.6134054 -0.46866688 -0.83928335
-0.10423409 0.68253285 -0.36513582 -0.5597613 -0.50045747 0.7801853 0.020883895 0.5217896
0.73431 0.43934742 0.45447674 -0.12454451 -0.20027779 0.18276063 0.9686522 -0.67402124
-0.21795389 0.39996263 0.3647352 0.67871255 0.6824169 0.58024186 0.73392725 0.48642644
-0.19589005 -0.7868841 0.38351136 0.20184715 0.7076938 -0.6103284 -0.83139217 0.82888657
-0.031749003 -0.23961768 0.7056875 -0.12851918 0.010472901 -0.058783326 -0.20990562 -0.9749946
-0.5291352 -0.4306204 0.23567584 -0.15201028 -0.6797039 -0.1969959 -0.6005537 0.5934117
-0.7771442 -0.25712225 -0.11349965 0.093940966 -0.7034528 0.20964721 0.8857933 -0.05588552
0.05478475 -0.16638596 -0.2537674 0.42768383 -0.52014714 0.5330769 0.5780104 -0.8927682
0.045117 0.4552445 0.09251422 -0.5451886 0.4839925 -0.20871376 0.20767903 -0.3434434
0.15913984 -0.43737948 -0.40377218 0.66774076 0.1262842 0.45805225 0.73931223 -0.32357922
0.22162817 -0.82567966 0.5488361 0.100160696 0.23992807 0.24191512 0.52945846 -0.50296605
0.36316666 0.46311575 0.53905904 -0.6533866 0.987384 -0.19828199 0.11515103 0.56474125
-0.6759894 -0.51389945 0.9163738 -0.666085 -0.6227723 0.11983893 -0.40454936 0.04238098
0.8272082 -0.038121402 0.19111109 -0.6974817 0.5543462 -0.8952027 -0.6261864 0.5058961
-0.4107366 -0.83893543 -0.8915075 0.15170039 0.77374494 -0.052270778 -0.66717815 0.66869736
-0.84790766 0.56721866 0.19236562 -0.37505636 -0.9880628 0.98809934 -0.8983002 -0.5966687
-0.50150543 -0.97768724 0.26690295 0.86392486 0.9264907 0.37662837 -0.8425444 -0.258905
-0.9472332 -0.7568329 0.8583938 0.4085698 -0.46783668 0.17184359 0.6062215 0.7690448
-0.93786633 0.71355385 0.7411706 -0.21796195 0.03033096 -0.11661712 -0.4604391 -0.37498328
0.12916091 0.34017876 -0.19991511 0.384941 0.40727854 -0.034098048 -0.6150307 0.23547758
-0.30698892 -0.87272865 -0.8684624 1.0219864 0.8368225 -0.80757713 0.6577094 0.703298
0.54656386 0.08863048 0.7754015 -0.50455326 -0.9760391 0.55342364 0.74881864 -0.8440621
-0.9440014 -0.7914957 -0.8098054 -0.27646148 -0.6416008 0.5265818 -0.35761806 0.6019244
0.6952937 0.9044268 0.8373225 -0.67101717 -0.64922404 0.83744746 0.2538298 0.45938656
0.48587734 -0.5755104 -0.08695798 0.05873148 0.4652701 -0.9413695 -0.9183553 0.40052617
0.094782434 0.99723417 -0.7614368 0.7365668 -0.85262775 0.3521292 -0.8671031 -0.72376984
-0.83056736 -0.13780253 0.8912077 -0.106610864 0.73528594 0.26994678 0.74609745 -0.16839427
-0.91799814 -0.24421822 -0.7521638 -0.22994226 -0.66776866 -0.14415628 0.30353463 -0.48613417
00000000: 0346 29be 4b50 493f 6fc4 9b3d aa57 a7bc
00000010: d30e 0c3f 560b ca3e 76ff 4c3f c74b 42be
00000020: 7f06 b6bc 375c 09bf 170a 6fbf fcc0 25bf
00000030: 7ec6 23bf 5bb4 edbe 68eb 17bf c17c 25bf
00000040: c259 1a3f 2c78 65bf 888b 61bf 6075 0abe
00000050: 138e 21bf 5867 97be 36ce 0bbf b7cb babe
00000060: dad5 dbbe cb28 72bf 83e8 783c afd5 39bf
00000070: dd4a 99be 2308 1d3f 1bf5 efbe 46db 56bf
00000080: af78 d5bd 79ba 2e3f 15f3 babe 844c 0fbf
00000090: fb1d 00bf 39ba 473f b414 ab3c 0194 053f
000000a0: bdfb 3b3f 25f2 e03e 2db1 e83e 3111 ffbd
000000b0: 9f15 4dbe 9a25 3b3e 97f9 773f a88c 2cbf
000000c0: 4e2f 5fbe e7c7 cc3e 92be ba3e 1bc0 2d3f
000000d0: e0b2 2e3f bb8a 143f a8e2 3b3f e30c f93e
000000e0: 6797 48be 3d71 49bf 9a5b c43e 05b1 4e3e
000000f0: 6c2b 353f 7b3e 1cbf 1ed6 54bf e931 543f
00000100: 3e0b 02bd 565e 75be f0a7 343f 889a 03be
00000110: 8896 2b3c c9c6 70bd 80f1 56be 3f99 79bf
00000120: 6875 07bf 477a dcbe 0255 713e 95a8 1bbe
00000130: 1301 2ebf 4bb9 49be e3bd 19bf d4e9 173f
00000140: ecf2 46bf 87a5 83be 8172 e8bd 1f64 c03d
00000150: 7c15 34bf c2ad 563e 5ac3 623f 37e8 64bd
00000160: f965 603d 1561 2abe cded 81be 60f9 da3e
00000170: 5d28 05bf ba77 083f 7df8 133f 758c 64bf
00000180: 9acc 383d cf15 e93e 1878 bd3d 7b91 0bbf
00000190: ddcd f73e 0fb9 55be d0a9 543e d0d7 afbe
000001a0: 8ef5 223e 34f0 dfbe 3abb cebe 0ff1 2a3f
000001b0: a550 013e d385 ea3e 9143 3d3f 2dac a5be
000001c0: 7ff2 623e be5f 53bf 8680 0c3f 0d21 cd3d
000001d0: b4af 753e 99b8 773e 978a 073f 62c2 00bf
000001e0: fbf0 b93e 821d ed3e c6ff 093f 5844 27bf
000001f0: 33c5 7c3f 6f0a 4bbe 4ed4 eb3d e292 103f
00000200: a40d 2dbf ea8e 03bf 7997 6a3f 8c84 2abf
00000210: 016e 1fbf 1d6e f53d 1821 cfbe ae97 2d3d
00000220: ebc3 533f 3025 1cbd a0b2 433e 298e 32bf
00000230: a2e9 0d3f 012c 65bf c04d 20bf 6882 013f
00000240: 114c d2be 79c4 56bf d639 64bf 5957 1b3e
00000250: 2614 463f e219 56bd 30cc 2abf c02f 2b3f
00000260: 7a10 59bf 3e35 113f 7efb 443e 6307 c0be
00000270: aff1 7cbf 14f4 7c3f 00f7 65bf 48bf 18bf
00000280: a962 00bf b649 7abf 81a7 883e 2e2a 5d3f
00000290: 7f2e 6d3f 6fd5 c03e fdb0 57bf 328f 84be
000002a0: e07d 72bf cdbf 41bf b2bf 5b3f 1030 d13e
000002b0: 4a88 efbe c4f7 2f3e 5531 1b3f 1fe0 443f
000002c0: 0218 70bf 77ab 363f 5bbd 3d3f 6b31 5fbe
000002d0: a278 f83c f5d4 eebd acbe ebbe cffd bfbe
000002e0: c242 043e e92b ae3e 8cb6 4cbe fd16 c53e
000002f0: d086 d03e 65aa 0bbd a772 1dbf 0921 713e
00000300: a72d 9dbe 256b 5fbf 8d53 5ebf 73d0 823f
00000310: 003a 563f 60bd 4ebf a55f 283f 560b 343f
00000320: 9ceb 0b3f e683 b53d b680 463f 672a 01bf
00000330: b3dd 79bf 2cad 0d3f 94b2 3f3f 7414 58bf
00000340: 13aa 71bf 769f 4abf 684f 4fbf 5c8c 8dbe
00000350: f33f 24bf 11ce 063f b719 b7be b817 1a3f
00000360: c5fe 313f 8488 673f c45a 563f c8c7 2bbf
00000370: 8c33 26bf f562 563f fbf5 813e b734 eb3e
00000380: eac4 f83e a654 13bf 0717 b2bd 6c90 703d
00000390: e237 ee3e 97fd 70bf 5519 6bbf c411 cd3e
000003a0: 4b1d c23d bd4a 7f3f 86ed 42bf a48f 3c3f
000003b0: d045 5abf 474a b43e 78fa 5dbf fb48 39bf
000003c0: 10a0 54bf 1b1c 0dbe 3026 643f cc56 dabd
000003d0: b33b 3c3f 7736 8a3e 3e00 3f3f 8c6f 2cbe
000003e0: ed01 6bbf 5714 7abe cf8d 40bf fc75 6bbe
000003f0: e3f2 2abf b49d 13be e468 9b3e 94e6 f8be

linear_sigmoid_stack.0.bias f4 [16]
-0.007132253 -0.0069034835 0.031227214 0.005278863 0.011768772 -0.019650612 0.0020109555 0.018478401
0.010241187 -0.0072376775 -0.014772393 -0.09457551 -0.0059043365 0.06233807 0.015812395 0.009219205
00000000: adb5 e9bb 9e36 e2bb 37d0 ff3c 50fa ac3b
00000010: cfd1 403c 52fa a0bc 3cca 033b 0460 973c
00000020: a7ca 273c 0a2a edbb e807 72bc ceb0 c1bd
00000030: 2a79 c1bb 3456 7f3d ff88 813c 260c 173c

linear_sigmoid_stack.2.weight f4 [4, 16]
-0.532833 -0.09871679 0.6487473 -0.32848102 0.035909954 0.79954517 0.5230094 0.008772083
0.17237663 0.023767058 0.40785968 -0.9117542 -0.4206832 0.24216893 -0.93377846 -0.0069729844
-0.30611435 -0.43890738 0.5431258 -0.3256953 -0.80037653 0.5116022 0.22833145 -0.79165494
0.31241333 -0.40478382 0.7982286 0.8000055 0.6373637 -0.6613924 -0.8739879 0.2947869
0.18385062 0.742223 -0.72077227 -0.37636253 -0.703863 0.23732537 -0.28348753 -0.35691127
-0.05089325 0.09432983 -0.5706995 0.6784652 -0.3753654 -0.68863803 -0.8376178 -0.48590225
-0.23738956 0.35484758 0.25283375 0.18892735 -0.0030137612 -0.34568673 -0.93226117 -0.5477959
0.5700663 0.16309005 -0.5999687 0.85874194 0.14017747 0.8294365 -0.7859424 -0.14820758
00000000: be67 08bf 072c cabd 4e14 263f aa2e a8be
00000010: 5116 133d feae 4c3f f2e3 053f c8b8 0f3c
00000020: 8083 303e 22b3 c23c fcd2 d03e b968 69bf
00000030: ca63 d7be 22fb 773e 1b0c 6fbf a27d e4bb
00000040: 05bb 9cbe 78b8 e0be 4b0a 0b3f 89c1 a6be
00000050: 7ae5 4cbf 5df8 023f b8cf 693e e6a9 4abf
00000060: a4f4 9f3e d33f cfbe b658 4c3f 29cd 4c3f
00000070: 442a 233f 0351 29bf acbd 5fbf 4fee 963e
00000080: 5643 3c3e 5402 3e3f 8884 38bf 97b2 c0be
00000090: 5e30 34bf 6c05 733e 4725 91be 13bd b6be
000000a0: 7175 50bd ff2f c13d 5d19 12bf e5af 2d3f
000000b0: e52f c0be 954a 30bf 1f6e 56bf 2ec8 f8be
000000c0: 4016 73be 95ae b53e 6d73 813e 2c76 413e
000000d0: 8682 45bb dafd b0be aba8 6ebf 5a3c 0cbf
000000e0: ddef 113f 1401 273e 8c97 19bf 83d6 5b3f
000000f0: af8a 0f3e f355 543f 8533 49bf bac3 17be

linear_sigmoid_stack.2.bias f4 [4]
0.031662505 -0.10733616 -0.1471739 -0.00482905
00000000: 8bb0 013d 10d3 dbbd c1b4 16be 023d 9ebb

last_fc.weight f4 [1, 4]
0.9859339 -1.1068984 0.5073767 1.1303455
00000000: 2a66 7c3f d9ae 8dbf 70e3 013f 29af 903f
