Trained_paremeters/nn_checkpoints_CHRNB4_ukb_y1001.pth (torch, 4823 bytes, 5 tensors)

linear_sigmoid_stack.0.weight f4 [16, 36]
-0.107236445 0.628955 0.3105782 0.6280275 -0.058670487 0.4938018 0.68011856 -0.86147636
-0.47077218 -0.58023924 0.038344987 0.54297453 -0.71001506 0.13580729 0.2905071 0.47831756
0.45503855 0.5922859 -0.72037584 0.6499015 -0.4083164 0.43918276 -0.7515567 -0.4248427
-0.6286061 -0.41272476 -0.74595684 0.74675864 0.18672204 -0.8018774 0.32720628 -0.610154
0.038251106 -0.37430555 0.6409388 -0.2220674 -0.08286496 -0.542191 0.0461871 -0.55994546
-0.110293195 0.35927677 0.29452825 -0.30020922 -0.16659541 -0.62197703 -0.65829587 0.30330655
-0.64970535 -0.82877254 -0.8117235 -0.67864615 -0.18423039 -0.2089308 -0.34775215 -0.46921122
0.7170174 -0.1864252 0.10382755 -0.62711984 -0.66829365 0.18932949 0.75149304 -0.65126413
-0.71589166 -0.044636134 -0.5381634 -0.84600496 -0.5014985 -0.59932435 0.6621398 0.39454612
0.85677445 -0.57286847 0.83241224 -0.23764628 -0.83949506 0.6252558 0.29201472 -0.26692212
-0.17200208 -0.697935 -0.48040196 0.23651753 0.45297274 0.73857063 -0.5324444 0.7522318
-0.6261696 0.48436704 -0.45837563 0.54884666 -0.26646858 -0.61886775 -0.70396227 -0.6591129
-0.21049151 -0.18939969 0.79142493 -0.26499358 0.81686825 -0.71554005 0.7219373 0.18063429
-0.5332194 -0.024408374 -0.078423016 -0.17360246 0.81551105 0.042653613 0.6267601 -0.68224967
0.24729925 -0.5787063 -0.2806457 0.135415 -0.14187765 0.12985383 -0.49397805 0.29858813
0.5813738 0.26196635 0.35491002 -0.13862409 -0.027945772 0.061937585 0.70882154 0.380248
-0.5092352 -0.062489495 0.1506128 -0.62321365 -0.12378749 0.64136606 0.46236578 -0.7019525
0.60956436 -0.14468247 0.51922256 0.4230539 0.10811612 0.60320187 0.64280033 -0.18049084
0.213082 0.5473339 -0.6876178 0.28988025 -0.5460749 -0.5879533 0.61893547 0.49344277
-0.22915433 0.17366491 -0.5007267 0.82936084 0.86804336 0.23179328 -0.2416094 0.19822492
0.11073582 -0.2074725 0.2428503 0.27420408 -0.015487961 -0.10860318 -0.07580365 0.23661618
-0.0010504365 -0.4944176 0.15695338 0.47459581 -0.11923302 -0.59371185 0.8386276 -0.58402056
-0.2244943 0.55974346 0.0041353763 -0.05092912 -0.23094706 -0.38057518 0.8177875 -0.8651541
0.5092641 -0.07183639 0.18756236 0.25945708 0.18008958 0.56556857 -0.7888727 0.78277254
0.113126 0.66967267 0.04600714 0.24436073 0.33544475 -0.80373913 0.36285546 -0.7637645
0.52483594 -0.2873242 0.45014468 0.0070223 0.76250905 0.8375545 -0.81065834 0.8456947
-0.1023855 0.69955665 -0.85693085 -0.65314585 -0.055034857 -0.6956798 0.47781143 -0.812968
0.24183622 -0.06827859 0.7358902 0.77423185 -0.19503206 -0.29439902 -0.7119727 0.4027688
0.38632393 -0.34235162 -0.0036667897 0.7866333 0.43466264 0.05267758 -0.7529193 0.7575214
0.5377965 0.69854915 -0.15599504 -0.64391994 0.4299601 0.79767513 -0.2928238 0.7805527
0.7008334 -0.040209293 0.4392622 0.3728352 0.39357418 0.5769522 -0.23333757 0.45185655
0.074916594 0.15340516 0.16835448 0.52942485 0.8208122 0.09246859 0.3038437 -0.07362458
00000000: c89e dbbd 3203 213f 1b04 9f3e 69c6 203f
00000010: 7750 70bd 97d3 fc3e 401c 2e3f b789 5cbf
00000020: 0d09 f1be 8f8a 14bf a20f 1d3d 6100 0b3f
00000030: 8cc3 35bf 1111 0b3e 59bd 943e 0ae6 f43e
00000040: d0fa e83e 0ca0 173f 8d6a 38bf f25f 263f
00000050: d90e d1be 90dc e03e 0566 40bf fb84 d9be
00000060: 54ec 20bf a950 d3be 07f7 3ebf 932b 3f3f
00000070: 1034 3f3e d647 4dbf 9587 a73e 0d33 1cbf
00000080: 31ad 1c3d faa4 bfbe 9114 243f a365 63be
00000090: 1bb5 a9bd 08cd 0abf af2e 3d3d 9658 0fbf
000000a0: 66e1 e1bd 20f3 b73e 68cc 963e 06b5 99be
000000b0: fd97 2abe e339 1fbf 1486 28bf ff4a 9b3e
000000c0: 1753 26bf 702a 54bf 1ccd 4fbf c1bb 2dbf
000000d0: e4a6 3cbe f5f1 55be 920c b2be 743c f0be
000000e0: 748e 373f 3fe6 3ebe 8aa3 d43d ed8a 20bf
000000f0: 4b15 2bbf 97df 413e d961 403f 3fb9 26bf
00000100: ad44 37bf 61d4 36bd 14c5 09bf c893 58bf
00000110: 3562 00bf 526d 19bf fe81 293f f301 ca3e
00000120: 9255 5b3f 82a7 12bf f818 553f 8c59 73be
00000130: 26e9 56bf c410 203f f482 953e 04aa 88be
00000140: 5021 30be deab 32bf 3ff7 f5be a731 723e
00000150: 0bec e73e f712 3d3f 474e 08bf 4392 403f
00000160: a74c 20bf f5fe f73e 36b0 eabe 3781 0c3f
00000170: 926e 88be 1e6e 1ebf df36 34bf 9fbb 28bf
00000180: 168b 57be fef1 41be d39a 4a3f 3dad 87be
00000190: 471e 513f a22d 37bf e2d0 383f 32f8 383e
000001a0: 1181 08bf 12f4 c7bc 3f9c a0bd d8c4 31be
000001b0: 55c5 503f 8eb5 2e3d 5a73 203f eaa7 2ebf
000001c0: 043c 7d3e 1926 14bf cbb0 8fbe 3baa 0a3e
000001d0: 6048 11be 67f8 043e b1ea fcbe 8be0 983e
000001e0: ead4 143f 7420 863e c4b6 b53e 79f3 0dbe
000001f0: 88ee e4bc 44b2 7d3d 5475 353f deaf c23e
00000200: 3d5d 02bf fcf4 7fbd 3e3a 1a3e ee8a 1fbf
00000210: 4c84 fdbd 9130 243f 35bb ec3e 29b3 33bf
00000220: 690c 1c3f a427 14be c5eb 043f 859a d83e
00000230: fc6b dd3d 706b 1a3f 908e 243f 97d2 38be
00000240: 2b32 5a3e 131e 0c3f b807 30bf 2f6b 943e
00000250: 91cb 0bbf 1c84 16bf 8e72 1e3f 88a4 fc3e
00000260: 6fa7 6abe 37d5 313e a02f 00bf fe50 543f
00000270: 1738 5e3f 385b 6d3e 7468 77be 79fb 4a3e
00000280: 76c9 e23d ac73 54be c0ad 783e 7a64 8c3e
00000290: 37c1 7dbc 586b debd f23e 9bbd 834b 723e
000002a0: cdae 89ba 4e24 fdbe 63b8 203e 39fe f23e
000002b0: 7130 f4bd 80fd 17bf 4cb0 563f 5f82 15bf
000002c0: d5e1 65be 594b 0f3f 0d82 873b 0e9b 50bd
000002d0: 637d 6cbe c0da c2be 865a 513f bd7a 5dbf
000002e0: 225f 023f f51e 93bd 5910 403e 8fd7 843e
000002f0: 6769 383e 1ac9 103f 90f3 49bf c863 483f
00000300: 9bae e73d ab6f 2b3f fc71 3c3d b339 7a3e
00000310: 6abf ab3e d9c1 4dbf 31c8 b93e 1286 43bf
00000320: a65b 063f 281c 93be 5d79 e63e 521b e63b
00000330: cb33 433f f969 563f 4e87 4fbf 737f 583f
00000340: 7daf d1bd 2516 333f d25f 5bbf 9134 27bf
00000350: 3b6c 61bd 1218 32bf b3a3 f43e ac1e 50bf
00000360: eaa3 773e a5d5 8bbd 4d63 3c3f 0f34 463f
00000370: 7cb6 47be 78bb 96be d843 36bf b637 ce3e
00000380: 40cc c53e b648 afbe 864e 70bb cd60 493f
00000390: 1a8c de3e 72c4 573d 52bf 40bf ecec 413f
000003a0: 08ad 093f 1ed4 323f 2abd 1fbe f0d7 24bf
000003b0: bb23 dc3e 7034 4c3f 00ed 95be 4dd2 473f
000003c0: d169 333f 80b2 24bd fae6 e03e 41e4 be3e
000003d0: 8e82 c93e 24b3 133f 0bf0 6ebe be59 e73e
000003e0: df6d 993d 3e16 1d3e 1e65 2c3e 6388 073f
000003f0: c020 523f 2c60 bd3d 6791 9b3e 7cc8 96bd

linear_sigmoid_stack.0.bias f4 [16]
0.0040173735 0.0014824958 0.0016083486 -0.006558386 0.0033976967 -0.0016709429 -0.0019207019 0.0025113027
-0.016560748 -0.0023656632 0.009849318 0.008187251 -0.001548181 -0.0030461065 0.0015515402 -0.0014299199
00000000: 2ca4 833b 4e50 c23a 39cf d23a bbe7 d6bb
00000010: e4ab 5e3b 8a03 dbba 10c0 fbba ab94 243b
00000020: 68aa 87bc 3e09 1bbb 095f 213c d223 063c
00000030: 56ec caba 30a1 47bb 0d5d cb3a 266c bbba

linear_sigmoid_stack.2.weight f4 [4, 16]
0.61512387 -0.23578806 -0.13997997 -0.31078225 0.47644988 0.06732479 0.15881719 -0.5566837
-0.3610308 -0.03802306 -0.16436568 -0.7365718 0.36351615 0.018954761 -0.5387594 0.322768
0.33066773 -0.27629748 -0.16678753 -0.3820608 0.50664943 -0.021274224 0.3544325 -0.20382117
0.43790433 -0.2925785 0.37272054 0.30507517 0.17999619 -0.09524936 0.16689913 -0.2600907
0.2714561 0.7600783 0.6887262 0.54876864 0.045206893 0.07709651 0.3716475 0.29742602
0.7032667 -0.6577214 -0.1248725 0.38148212 0.11371737 -0.48595566 0.32131723 -0.48469278
0.36245444 -0.6807787 -0.30785558 -0.054576345 -0.16879909 -0.013680064 0.4381924 -0.5043521
0.63381743 -0.3977637 -0.43006566 -0.7557107 0.14365107 -0.2643016 -0.50910866 0.19016217
00000000: c278 1d3f 6d72 71be e956 0fbe da1e 9fbe
00000010: 3df1 f33e 94e1 893d f9a0 223e d382 0ebf
00000020: 07d9 b8be 11be 1bbd 7a4f 28be f88f 3cbf
00000030: ca1e ba3e 0447 9b3c 23ec 09bf d941 a53e
00000040: 484d a93e dd76 8dbe 5aca 2abe 799d c3be
00000050: c7b3 013f 4847 aebc 2d78 b53e 7fb6 50be
00000060: ff34 e03e d9cc 95be 3ad5 be3e d032 9c3e
00000070: ec50 383e 1912 c3bd 9be7 2a3e 9c2a 85be
00000080: 4bfc 8a3e 7e94 423f 5c50 303f 1a7c 0c3f
00000090: dd2a 393d c6e4 9d3d 9548 be3e 3948 983e
000000a0: 4909 343f 6e60 28bf 27bd ffbd a051 c33e
000000b0: a7e4 e83d 2ecf f8be b183 a43e a729 f8be
000000c0: a193 b93e 8347 2ebf 3f9f 9dbe 728b 5fbd
000000d0: abd9 2cbe 5922 60bc c15a e03e 381d 01bf
000000e0: dc41 223f afa7 cbbe 9131 dcbe 4276 41bf
000000f0: 4419 133e 8a52 87be f254 02bf dfb9 423e

linear_sigmoid_stack.2.bias f4 [4]
0.0024963897 0.060224853 -0.0382663 -0.054567344
00000000: 789a 233b 56ae 763d 20bd 1cbd 0282 5fbd

last_fc.weight f4 [1, 4]
-0.2946856 -0.17157945 0.4079092 0.55335236
00000000: 08e1 96be 86b2 2fbe 7ad9 d03e 80a8 0d3f
