Trained_paremeters/nn_checkpoints_CHRNA6_ukb_y4.pth (torch, 3863 bytes, 5 tensors)

linear_sigmoid_stack.0.weight f4 [16, 21]
0	0xbd41706a	-0.047226347
1	0xbf1025d7	-0.5630774
2	0x3e8fc18e	0.28077358
3	0xbea8828d	-0.32912102
4	0xbed2c250	-0.41163874
5	0xbf1dd184	-0.6164782
6	0xbeae666e	-0.34062523
7	0xbe00a6a6	-0.12563571
8	0x3ec6f496	0.3885848
9	0x3e4e2948	0.20132935
10	0x3e6cb04e	0.2311413
11	0x3f1c7050	0.61108875
12	0xbf189145	-0.59596664
13	0x3ebdfdad	0.37107602
14	0x3e286ac9	0.16446985
15	0x3e4301f5	0.19043715
16	0x3db10f38	0.08645481
17	0xbe7e761b	-0.24849741
18	0x3f08ae7c	0.5339124
19	0xbecbdaf9	-0.398155
20	0x3e8177b9	0.25286654
21	0x3db13b41	0.0865388
22	0x3d5bde3d	0.05367874
23	0xbe5678eb	-0.20944564
24	0x3f1afb16	0.60539377
25	0x3d731b78	0.059352368
26	0xbed7dcf2	-0.42160755
27	0x3ced627d	0.028977627
28	0x3e653f26	0.2238737
29	0x3ecf534e	0.40493244
30	0xbdc1137b	-0.09427544
31	0xbd1783d4	-0.036990955
32	0x3e6a44d7	0.22877823
33	0x3ef02927	0.46906397
34	0x3d4ab949	0.049493108
35	0xbe95faf0	-0.29293013
36	0xbefae64e	-0.49003834
37	0x3d827f56	0.06371944
38	0xbe82ff47	-0.25585386
39	0x3d17a4ed	0.03702252
40	0xbf20b830	-0.6278105
41	0xbdee05f0	-0.11622226
42	0xbf19ed80	-0.6012802
43	0x3bcf96c9	0.0063351137
44	0xbe0e4f12	-0.1389735
45	0x3ecdc19e	0.4018678
46	0x3efff538	0.49991775
47	0x3e838dc1	0.25694087
48	0x3e8d094a	0.2754615
49	0x3da1793a	0.0788445
50	0x3eb79d93	0.35862407
51	0x3ee436ac	0.4457296
52	0x3ebf0c36	0.37314004
53	0x3f1cc644	0.6124003
54	0xbd39a603	-0.045324337
55	0x3ebe9e6a	0.37230235
56	0xbef6b305	-0.48183456
57	0xbf1e16bc	-0.6175344
58	0xbe2a22f0	-0.1661489
59	0x3ee4cabe	0.4468593
60	0xbd65e9c5	-0.056131143
61	0x3f1201f4	0.5703423
62	0xbda15dbc	-0.078792065
63	0xbede398a	-0.43403274
64	0x3e7b519c	0.2454285
65	0xbed1a2cc	-0.40944517
66	0xbe27e113	-0.16394453
67	0xbe520f76	-0.2051371
68	0x3cf1e8db	0.02952998
69	0xbde57b3f	-0.11205148
70	0x3f179b78	0.592216
71	0xbe753666	-0.23946533
72	0x3e8fe83a	0.28106862
73	0xbea512a7	-0.32240793
74	0x3e926bd4	0.2859789
75	0x3e79c7d7	0.24392639
76	0x3e989698	0.29802394
77	0x3eeb35ba	0.45939428
78	0xbe8d9e79	-0.27659968
79	0x3e9263e4	0.28591835
80	0xbe08598e	-0.13315412
81	0x3e3f1b8e	0.18662855
82	0x3e88d9c7	0.2672865
83	0x3e0470e6	0.12933692
84	0xbef5a830	-0.4797988
85	0x3cea54ec	0.028604947
86	0xbf01c260	-0.5068722
87	0xbe266435	-0.16249163
88	0xbd9b79a6	-0.07591562
89	0xbf0d881b	-0.55285805
90	0xbe3d6fd3	-0.18499689
91	0x3f1cc98b	0.6124503
92	0x3db04c72	0.08608331
93	0x3ca058dc	0.019573621
94	0x3ecbc024	0.3979503
95	0x3ec55c77	0.38547108
96	0xbec1a8d2	-0.37824112
97	0xbe078f36	-0.13238224
98	0x3eff2194	0.49830306
99	0xbeab423e	-0.33448976
100	0x3f043070	0.5163641
101	0xbe4f1300	-0.20222092
102	0x3eac1c6a	0.33615428
103	0x3ef7910a	0.48352844
104	0x3e577ce6	0.21043739
105	0x3ec5e605	0.38652053
106	0xbe2b6ff9	-0.16741933
107	0x3e4d61aa	0.20056787
108	0xbc58358e	-0.013196362
109	0xbeaf9790	-0.3429532
110	0xbe405bac	-0.1878497
111	0xbefcd326	-0.49379843
112	0xbeff4760	-0.49859142
113	0xbde5ced3	-0.11221089
114	0x3e88eefe	0.26744837
115	0xbed7b4b6	-0.4213006
116	0x3e421560	0.18953466
117	0x3e5b5ceb	0.21422164
118	0xbe84f0a4	-0.25964844
119	0xbde60377	-0.112311296
120	0x3e99906c	0.29992998
121	0x3f096345	0.536671
122	0x3d7b5afe	0.061366074
123	0x3efa2782	0.48858267
124	0x3f065b0e	0.5248269
125	0x3e3ffb60	0.18748236
126	0x3e356dd8	0.17717683
127	0xbe8fe5bd	-0.28104964
128	0x3ee0cad2	0.4390474
129	0xbede0a16	-0.4336707
130	0x3eec219e	0.46119398
131	0xbf1c2f66	-0.61009824
132	0xbedc2518	-0.4299705
133	0xbe15bae3	-0.14622073
134	0xbf1965ec	-0.59921145
135	0xbeee16d4	-0.4650179
136	0xbef6d2a6	-0.48207587
137	0x3d9f402c	0.07775912
138	0x3ef8f571	0.48624757
139	0xbe7adde8	-0.24498713
140	0xbf1367d8	-0.5758033
141	0xbebaf153	-0.3651224
142	0xbeb37977	-0.35053608
143	0x3ec507be	0.3848247
144	0xbed6dc83	-0.41965112
145	0xbedf1fef	-0.4357905
146	0x3e6cbeb3	0.23119621
147	0x3ece4647	0.40287992
148	0xbc0cf643	-0.008603635
149	0xbeb39b3d	-0.35079375
150	0xbf21341f	-0.62970155
151	0x3e979ccf	0.29611823
152	0xbefdde78	-0.49583793
153	0x3e58b2a0	0.2116189
154	0x3f1f09be	0.6212424
155	0xbea64f45	-0.32482353
156	0x3dc392e8	0.095495045
157	0x3dd1c863	0.10243299
158	0x3e547f62	0.20751718
159	0x3f048924	0.5177176
160	0x3e848231	0.25880578
161	0x3f0b7145	0.5446971
162	0x3d443834	0.047905162
163	0xbe2e6e32	-0.17034224
164	0xbf119096	-0.56861246
165	0xbe546917	-0.20743214
166	0x3de51d60	0.111872435
167	0xbdda4fbd	-0.1065974
168	0x3ef05308	0.46938348
169	0x3f077a77	0.5292124
170	0xbe7bf40d	-0.24604817
171	0x3ee6edd9	0.45103338
172	0x3e7e02ae	0.2480571
173	0x3e53d173	0.20685367
174	0xbe145d68	-0.14488757
175	0x3ea2a80b	0.31768832
176	0xbeb8ea18	-0.361161
177	0xbee468cb	-0.446112
178	0xbeb5f32a	-0.35537082
179	0xbed69974	-0.4191395
180	0xbe8ad8a0	-0.27118397
181	0xbe2a0f79	-0.16607465
182	0xbe61e9b6	-0.2206181
183	0x3f0ca009	0.54931694
184	0xbe1d7bd0	-0.15379262
185	0x3f0af85a	0.54285204
186	0xbe8978c2	-0.26849943
187	0xbf3158a6	-0.6927589
188	0xbdb04ec2	-0.08608772
189	0xbef45761	-0.47722915
190	0x3e188168	0.14893115
191	0xbece04f7	-0.40238163
192	0x3e8a07ee	0.26959175
193	0x3ed5b07a	0.41736203
194	0x3ed3f158	0.41395068
195	0x3f05403a	0.52051127
196	0xbef05824	-0.46942246
197	0xbf1fd16d	-0.62428933
198	0x3f142b98	0.5787902
199	0x3ce59f43	0.028030043
200	0xbed1d9e4	-0.4098655
201	0x3ef1451e	0.47123045
202	0xbf03a356	-0.51421106
203	0x3ccd2f44	0.025046952
204	0x3ec6e649	0.3884757
205	0x3f143bcf	0.5790376
206	0x3ec15c82	0.3776589
207	0x3cc195d0	0.023631006
208	0x3f2c7257	0.6736197
209	0xbd04c511	-0.0324145
210	0x3e89a05f	0.26880166
211	0x3ec8dee5	0.39232555
212	0xbe8d4177	-0.27589008
213	0x3e4ebab9	0.20188417
214	0xbedd5a38	-0.43232894
215	0x3efa38a2	0.48871332
216	0x3d696f81	0.056991104
217	0x3e97ee63	0.29674062
218	0x3f0877d5	0.5330785
219	0x3e77ddad	0.24205656
220	0xbeaa42cd	-0.3325409
221	0x3f14b689	0.58091027
222	0x3ec6fdb0	0.38865423
223	0x3d691f8c	0.05691485
224	0xbf18f066	-0.5974182
225	0xbebebb49	-0.37252262
226	0x3f1cc313	0.6123516
227	0xb8d98c4c	-0.00010373499
228	0xbf1b4804	-0.6065676
229	0xbf1692b6	-0.58817613
230	0x3ea69b1c	0.32540214
231	0x3f11c708	0.5694432
232	0x3eae6045	0.34057823
233	0xbe15252e	-0.14564964
234	0xbdf0c40c	-0.11756143
235	0x3f0aee94	0.5427029
236	0x3f25be6d	0.6474369
237	0xbd853662	-0.06504513
238	0x3eeeabd0	0.46615458
239	0x3d02fbee	0.03197854
240	0xbe3de9f2	-0.18546274
241	0x3f09d967	0.53847355
242	0x3de6329c	0.11240122
243	0xbdb7a74f	-0.089674585
244	0x3dbba0a4	0.09161499
245	0xbeb86b5a	-0.36019403
246	0xbd81cc97	-0.063378505
247	0xbe4fd535	-0.20296176
248	0xbef9310e	-0.48670238
249	0xbe253fd3	-0.16137628
250	0x3ec94cea	0.39316493
251	0x3e8fb34c	0.2806648
252	0xbd6709d1	-0.056405846
253	0xbe7b8025	-0.24560602
254	0x3eefa44e	0.46805042
255	0x3f17849f	0.5918674

linear_sigmoid_stack.0.bias f4 [16]
0	0xb9e14323	-0.00042965365
1	0x3be3b462	0.0069489935
2	0xba0b86c0	-0.00053225085
3	0xbb90fa9b	-0.0044244057
4	0x39955ece	0.0002849013
5	0xbbca98a7	-0.0061827484
6	0xbbafa54b	-0.0053602806
7	0x3b68243d	0.003542199
8	0xbc2f46c2	-0.010698022
9	0x3b8f38f9	0.0043708053
10	0xbb6d90e8	-0.00362497
11	0x3a04e2ee	0.00050692155
12	0x3bba8e4b	0.005693232
13	0x3b7b7cbc	0.0038373908
14	0x3b977a95	0.004622767
15	0xba87a994	-0.0010350221

linear_sigmoid_stack.2.weight f4 [4, 16]
0	0x338bdb6c	6.5126045e-08
1	0x3bcf8f84	0.006334247
2	0xbd937fb3	-0.07202091
3	0x3eb3725b	0.35048184
4	0xb9c5f1c0	-0.00037754886
5	0xbecd55a6	-0.40104407
6	0x3e72409f	0.23657463
7	0xbeee4c73	-0.465427
8	0xbe883e31	-0.26609948
9	0xbcf0474a	-0.029330868
10	0x31b7bccb	5.3474642e-09
11	0xbd80086d	-0.06251607
12	0x3d468d05	0.04847433
13	0x3e3e274d	0.1856968
14	0xbebb5301	-0.36586764
15	0xbd4eed82	-0.050519474
16	0x3696c8e0	4.4937333e-06
17	0xbed25dc1	-0.41087154
18	0x3db454b6	0.0880522
19	0x3e541c38	0.2071389
20	0xbbc1f3b6	-0.005918945
21	0x3e3ed9c2	0.18637756
22	0x3ea36748	0.31914735
23	0xbe6c12b7	-0.23054014
24	0x3db70f56	0.08938472
25	0xbd6dac72	-0.058025785
26	0x34408a5c	1.7931728e-07
27	0xbd531796	-0.051536165
28	0x3d98e3a2	0.074652925
29	0xbe106910	-0.14102578
30	0xbe3e14cd	-0.18562622
31	0xbcf96fa8	-0.03044875
32	0x33c99a5a	9.387868e-08
33	0xbec82f84	-0.39098752
34	0x3df02529	0.11725838
35	0x3ebca6a3	0.36845884
36	0xbb373d81	-0.0027960243
37	0x3e576c5c	0.2103743
38	0x3e06a032	0.13147047
39	0xbedbfb43	-0.42965135
40	0xbe3c791d	-0.18405576
41	0xbe0f138c	-0.139723
42	0x31ff18e4	7.4243065e-09
43	0xbdc5c4e8	-0.096566975
44	0xbcfc618b	-0.03080823
45	0xbc4516a6	-0.012029326
46	0xbede3b92	-0.43404824
47	0xbbd27c9a	-0.006423545
48	0x32c7622d	2.3211294e-08
49	0xbe6b2b72	-0.22965792
50	0xbded8852	-0.11598267
51	0xbec8d046	-0.392214
52	0xbdab7cc6	-0.08373408
53	0xbeba5672	-0.36394078
54	0x3e9da965	0.307933
55	0x3ef5ac08	0.47982812
56	0xbe08cde3	-0.1335979
57	0x3e232a59	0.15934123
58	0x30923121	1.0636861e-09
59	0x3e2482fc	0.16065592
60	0xbdbb4ce1	-0.09145523
61	0xbe11e9be	-0.14249322
62	0x3eb4e458	0.35330462
63	0xbac965c6	-0.0015365414

linear_sigmoid_stack.2.bias f4 [4]
0	0x39014cb3	0.00012330971
1	0xbc4dd362	-0.012562605
2	0xbd1febac	-0.039043114
3	0xbb7f70c7	-0.0038977133

last_fc.weight f4 [1, 4]
0	0xb98501fd	-0.00025369218
1	0xbc8a041c	-0.016847663
2	0xb9b47f4c	-0.0003442712
3	0xb8bc1e62	-8.970198e-05
