Trained_paremeters/nn_checkpoints_CHRNA6_ukb_y1.pth (torch, 3863 bytes, 5 tensors)

linear_sigmoid_stack.0.weight f4 [16, 21]
0	0xbed32a56	-0.41243237
1	0x3e8ccfd1	0.275023
2	0xbeab21d8	-0.33424258
3	0xbe806d21	-0.2508326
4	0x3f632834	0.8873322
5	0x3ed94e45	0.42442527
6	0x3bdda61d	0.006764187
7	0x3eb7e048	0.359133
8	0xbe9ed451	-0.3102136
9	0xbf3bf6a3	-0.7342321
10	0x3ef33f14	0.47509062
11	0xbf18d697	-0.5970244
12	0xbe6daee5	-0.23211248
13	0xbf55b450	-0.8347826
14	0x3f5706bb	0.83994645
15	0x3f23fcac	0.6405742
16	0xbd2a194d	-0.041528035
17	0xbf27d491	-0.65558726
18	0x3e6358fb	0.22201912
19	0x3e6b82b5	0.2299908
20	0x3e10e5b7	0.1415013
21	0x3e678cae	0.22612259
22	0xbf12cfc6	-0.5734829
23	0x3f7a2184	0.9770739
24	0xbe85163d	-0.2599353
25	0x3e213ae4	0.15745121
26	0x3f000c0b	0.50018376
27	0xbe9d0f24	-0.30675614
28	0xbf45f42c	-0.773257
29	0xbf6804cb	-0.90632313
30	0x3ef58fb0	0.47961187
31	0x3f130e12	0.57443345
32	0x3ecd80e9	0.40137413
33	0x3f3ab05a	0.7292534
34	0x3e699581	0.22810937
35	0x3c7f82d3	0.015595156
36	0xbd94c131	-0.07263411
37	0x3b9d2ebd	0.0047968314
38	0x3f7a5f83	0.9780199
39	0x3f0507c7	0.5196499
40	0xbe9a8585	-0.30179992
41	0xbebf5bc1	-0.3737469
42	0xbf6a1b48	-0.9144788
43	0xbf252aa7	-0.6451821
44	0xbf2b22bb	-0.6684987
45	0x3f72dc0a	0.94867
46	0xbf07a50c	-0.52986217
47	0x3ecf371e	0.4047174
48	0x3ee3893b	0.44440636
49	0x3f081728	0.53160334
50	0xbf5f5567	-0.8723969
51	0x3e4e1f65	0.20129164
52	0xbed6fa85	-0.41988006
53	0xbe36494b	-0.17801397
54	0x3eadb929	0.33930328
55	0x3f7bde33	0.98385924
56	0x3e9c0132	0.30469662
57	0xbf8135af	-1.0094508
58	0x3e319bef	0.1734464
59	0x3f7632bf	0.9617118
60	0xbec54278	-0.38527274
61	0xbeb89c08	-0.36056542
62	0x3ecd2b93	0.40072307
63	0xbdf718b3	-0.12065258
64	0x3f482c44	0.78192544
65	0xbf47b2ee	-0.780074
66	0xbf5502c6	-0.83207357
67	0x3f1132a9	0.56717926
68	0xbf315cda	-0.69282305
69	0x3f59d385	0.8508838
70	0x3f7a7fac	0.9785106
71	0x3eaf9fbb	0.34301552
72	0xbf7820f0	-0.9692526
73	0xbe2a023a	-0.16602412
74	0x3e18ba29	0.14914764
75	0xbf256a66	-0.64615476
76	0x3e6188cb	0.22024839
77	0xbf0415d3	-0.515958
78	0x3e8eb631	0.27873376
79	0x3ec00943	0.37507066
80	0x3e12b280	0.14325905
81	0x3f0f649d	0.560129
82	0xbf3e0be4	-0.74236894
83	0xbde4f56f	-0.11179625
84	0xbef2415e	-0.47315496
85	0x3f3a7a59	0.7284294
86	0xbee4b5b0	-0.44669867
87	0x3c94fe7d	0.018187756
88	0xbf54047d	-0.8281935
89	0xbe1afe28	-0.15136015
90	0xbf4d09ce	-0.80093086
91	0x3f669856	0.90076196
92	0xbe6b4ebc	-0.22979254
93	0xbedccb5d	-0.43123904
94	0xbe32c9b0	-0.1745975
95	0x3f25fb3f	0.64836496
96	0xbf45d3c3	-0.7727625
97	0x3f2201c9	0.63283974
98	0xbed51072	-0.4161411
99	0xbd664164	-0.056214705
100	0x3eadd879	0.33954218
101	0x3f437551	0.76350886
102	0xbf245f27	-0.6420769
103	0xbe276e11	-0.16350581
104	0xbdc7a779	-0.0974874
105	0x3f2325d7	0.63729614
106	0x3e29e143	0.16589837
107	0xbec81a00	-0.39082336
108	0x3e590714	0.21194106
109	0x3f22daf7	0.63615364
110	0x3eb44ec6	0.3521635
111	0x3f039af2	0.514083
112	0x3ef4cdfa	0.47813398
113	0xbe36cb42	-0.17850974
114	0x3e824baa	0.25448352
115	0x3f1417cf	0.5784883
116	0xbef25c78	-0.47336173
117	0x3f6d9027	0.92798084
118	0x3eb3daf3	0.35127982
119	0xbf66ce60	-0.90158653
120	0x3eb301cb	0.34962305
121	0x3f208210	0.6269846
122	0xbf51ab8b	-0.8190238
123	0xbf2e22f5	-0.6802209
124	0x3ec0ffd7	0.3769519
125	0x3f0bee96	0.5466093
126	0xbea5c5b5	-0.323774
127	0xbeb39b22	-0.35079294
128	0x3eddc2a4	0.43312562
129	0x3f4bf80f	0.7967538
130	0xbf50da75	-0.8158334
131	0xbf537503	-0.8260042
132	0x3ef15f70	0.47143126
133	0x3f730741	0.94932944
134	0xbf66cd26	-0.9015678
135	0x3f5cca57	0.86246246
136	0xbf34eac2	-0.7067071
137	0xbddc5105	-0.10757641
138	0xbeeadb9f	-0.45870683
139	0x3eebb49b	0.4603623
140	0xbcd80aac	-0.026372276
141	0xbea78a3b	-0.3272265
142	0x3eae47a2	0.34039026
143	0x3ce99530	0.028513521
144	0xbf334a82	-0.70035565
145	0x3f2ca57c	0.6744001
146	0xbf57304e	-0.8405808
147	0xbe83fb34	-0.2577759
148	0xbd9461cd	-0.072452165
149	0xbf172dde	-0.5905436
150	0xbf0af1e4	-0.54275346
151	0xbf0611fd	-0.523712
152	0xbebb58ca	-0.36591178
153	0x3f666011	0.89990336
154	0xbe4b47f2	-0.19851664
155	0xbf0fc507	-0.56160015
156	0x3f73a0b7	0.95167106
157	0xbedad9a7	-0.4274418
158	0x3f643729	0.8914667
159	0xbe9f37bc	-0.3109721
160	0x3f321906	0.6956943
161	0x3e985327	0.2975094
162	0xbf269512	-0.65071213
163	0x3f713b58	0.94231176
164	0x3ef0be7f	0.47020337
165	0xbf0000e1	-0.5000134
166	0xbedf7cd1	-0.43649915
167	0xbf62b80e	-0.88562095
168	0x3f489bbf	0.7836265
169	0x3efea7dd	0.49737445
170	0x3f7801d5	0.96877795
171	0xbf7d4f4e	-0.98949134
172	0x3d585642	0.052816637
173	0xbd235851	-0.039879147
174	0xbe871a2f	-0.26387164
175	0x3edd252b	0.4319242
176	0xbf77bc10	-0.96771336
177	0xbeaead97	-0.34116814
178	0xbf787244	-0.97049356
179	0x3f5cead6	0.8629583
180	0x3df4a331	0.11945189
181	0x3f39ce59	0.72580487
182	0x3e2f40d9	0.17114581
183	0x3e194ec7	0.14971457
184	0xbe45f4db	-0.19331686
185	0x3f56e9cc	0.83950496
186	0x3e8b3971	0.27192262
187	0x3c0fdbe3	0.008780452
188	0xbe84b051	-0.2591577
189	0xbe76feff	-0.24120711
190	0x3f49ae09	0.7878118
191	0xbf1f6bd8	-0.6227393
192	0xbe81c2c5	-0.2534391
193	0x3f12f381	0.5740281
194	0x3f66e513	0.9019329
195	0xbf2942fe	-0.66117847
196	0xbec68fdd	-0.38781634
197	0x3cfa7bd1	0.030576618
198	0x3f700cb4	0.93769383
199	0x3e31648d	0.17323513
200	0xbcde8db8	-0.027167186
201	0xbf0e9d22	-0.55708516
202	0x3f30aec8	0.69016695
203	0xbe123297	-0.14277111
204	0xbf6d08d7	-0.92591614
205	0xbf6ffa86	-0.93741643
206	0xbe23cab9	-0.15995301
207	0x3e92664d	0.28593674
208	0x3ea952d6	0.3307101
209	0xbf40f1e9	-0.75369126
210	0x3e869ba4	0.2629062
211	0x3f64f1dc	0.8943155
212	0xbebfbcf6	-0.37448853
213	0xbf3d5b81	-0.7396775
214	0xbf79af78	-0.9753337
215	0xbf168cd9	-0.58808666
216	0x3f0c3d46	0.54780996
217	0x3e30ac04	0.17253119
218	0x3eb4c154	0.35303748
219	0xbf687061	-0.90796477
220	0xbe5659b8	-0.20932662
221	0xbeb8bd7a	-0.3608206
222	0xbf0fc7e7	-0.561644
223	0xbf4813d4	-0.78155255
224	0xbf776af4	-0.9664757
225	0xbf5e6442	-0.8687173
226	0x3e419f5c	0.18908447
227	0xbf33af2a	-0.70189154
228	0xbf010a9b	-0.5040681
229	0x3ed20044	0.41015828
230	0x3f47d047	0.7805218
231	0xbeca772c	-0.39544046
232	0x3f3022eb	0.6880328
233	0x3e6e8686	0.23293504
234	0xbf4e5ac0	-0.80607224
235	0xbf37e5ed	-0.71835214
236	0xbf71ec9b	-0.94501656
237	0xbf4a8233	-0.7910492
238	0xbe65b363	-0.22431712
239	0x3e80cd55	0.25156656
240	0x3f47c48f	0.780343
241	0xbe20ae70	-0.15691543
242	0xbf0c341e	-0.54767025
243	0xbe8e3860	-0.27777386
244	0xbf3731e2	-0.7156049
245	0x3f7581b9	0.95901066
246	0x3d2933e5	0.041309256
247	0x3f5ad0f8	0.8547511
248	0xbf025d85	-0.5092395
249	0xbebbd862	-0.36688524
250	0x3f4c7c15	0.79876834
251	0xbf6bb35a	-0.92070544
252	0xbb0ed595	-0.0021794785
253	0x3f104785	0.5635913
254	0xbeb58adf	-0.35457513
255	0x3f50d723	0.8157827

linear_sigmoid_stack.0.bias f4 [16]
0	0xbdb8673c	-0.090040654
1	0xbcf9adf8	-0.030478463
2	0xbd68cafb	-0.056834202
3	0x3d7adfee	0.061248712
4	0xbc6a9b19	-0.014319205
5	0x3d7fa2d8	0.06241116
6	0x3d199a91	0.03750092
7	0x3c7c6e1d	0.015407112
8	0xbd578022	-0.05261243
9	0xbd0a9870	-0.033836782
10	0xbc8e05ed	-0.01733681
11	0x3cc1f440	0.023676038
12	0x3cf79dd9	0.030226635
13	0xbdbb09ea	-0.0913275
14	0x3d7a3eaf	0.061094936
15	0xbd4ae768	-0.049537092

linear_sigmoid_stack.2.weight f4 [4, 16]
0	0xbbee4e58	-0.007272523
1	0xbd1af8f6	-0.037835084
2	0x3f2141c3	0.6299097
3	0x3e98aff5	0.29821745
4	0xbe6ed5d7	-0.23323761
5	0xbf570ff5	-0.84008723
6	0xbf60a3fb	-0.87750214
7	0xbf6465b2	-0.89217675
8	0xbe8af08e	-0.27136654
9	0xbf2b30ae	-0.66871154
10	0x3e493c62	0.1965194
11	0xbed2fccc	-0.41208494
12	0xbf08bfc1	-0.53417593
13	0x3eef61ac	0.46754205
14	0x3eabf76e	0.3358721
15	0x3ed27170	0.4110217
16	0x3f6573cc	0.89629817
17	0x3df0d22d	0.11758838
18	0x3e2a3238	0.1662072
19	0xbf90e91e	-1.1321142
20	0xbea03d1e	-0.3129663
21	0xbe7429d7	-0.23844086
22	0xbee3ed6f	-0.44517085
23	0xbf47cfa6	-0.7805122
24	0xbd929dee	-0.07159029
25	0x3f325ad3	0.69669837
26	0x3f337d7b	0.70113343
27	0xbe667611	-0.22505976
28	0xbf328989	-0.6974111
29	0x3f41b4f9	0.7566677
30	0xbf4c5c4a	-0.7982832
31	0xbca309c9	-0.019902127
32	0xbf184335	-0.5947755
33	0x3f40c6cb	0.75303334
34	0xbf1fee42	-0.6247293
35	0xbf7330c1	-0.9499627
36	0xbf5c423f	-0.86038584
37	0xbf51a931	-0.8189879
38	0xbeedfd75	-0.46482435
39	0xbf75fe2f	-0.9609098
40	0xbf5b7911	-0.8573161
41	0xbe84400a	-0.25830108
42	0x3c1a293a	0.009409243
43	0xbe30c712	-0.1726344
44	0x3f47a33f	0.7798347
45	0x3f6d3bf8	0.9266963
46	0x3e1991ff	0.149971
47	0xbf38f634	-0.72250676
48	0x3f4d7abe	0.80265415
49	0x3cea8875	0.02862952
50	0x3e2018c4	0.15634447
51	0xbec032cf	-0.37538764
52	0x3f648e1f	0.8927936
53	0xbe9f8c54	-0.3116175
54	0x3de10c9c	0.10988733
55	0x3f0d529e	0.5520419
56	0x3f453663	0.7703611
57	0xbf2bab34	-0.6705811
58	0xbf41a02c	-0.7563503
59	0xbf1c3a68	-0.6102662
60	0xbeb5e27e	-0.35524362
61	0x3f4ad6f7	0.7923426
62	0xbf82743d	-1.0191723
63	0x3ed25cdd	0.41086474

linear_sigmoid_stack.2.bias f4 [4]
0	0xbe830760	-0.25591564
1	0xbe2d3f96	-0.16918787
2	0xbdd341f3	-0.10315313
3	0xbe88d0c0	-0.26721764

last_fc.weight f4 [1, 4]
0	0xbeb6e73b	-0.3572329
1	0x3e8b533e	0.27211946
2	0xbee810c3	-0.45325288
3	0xbd93f23f	-0.07223939
