Trained_paremeters/nn_checkpoints_CHRNB4_ukb_y4.pth (torch, 4823 bytes, 5 tensors)

linear_sigmoid_stack.0.weight f4 [16, 36]
0	0x194b2d4c	1.0504002e-23
1	0x16cf34d8	3.3476003e-25
2	0x996d1447	-1.2256708e-23
3	0x17968288	9.726474e-25
4	0x991ec740	-8.208647e-24
5	0x9969c35d	-1.2085271e-23
6	0x1700255c	4.1406185e-25
7	0x996cf4dd	-1.2250364e-23
8	0x98a3c73a	-4.233568e-24
9	0x98a12f66	-4.1665385e-24
10	0x19c02a6e	1.9869472e-23
11	0x16bc6d9e	3.0442216e-25
12	0x997732ce	-1.2779861e-23
13	0x97ab7e31	-1.1082471e-24
14	0x178e389d	9.190826e-25
15	0x991e8cd1	-8.196846e-24
16	0x99d974db	-2.2484472e-23
17	0x99e9e5ef	-2.4184505e-23
18	0x193af986	9.6663655e-24
19	0x98a14c24	-4.1694407e-24
20	0x17c927ed	1.2999399e-24
21	0x9721ffc3	-5.234472e-25
22	0x99b39668	-1.8568915e-23
23	0x172df5af	5.620941e-25
24	0x196ad5d6	1.21407e-23
25	0x99579f80	-1.114745e-23
26	0x99675236	-1.19590225e-23
27	0x9922fb71	-8.425982e-24
28	0x9899c439	-3.9747707e-24
29	0x19ea7e24	2.424598e-23
30	0x99446876	-1.0154058e-23
31	0x191c8d02	8.093487e-24
32	0x98a13031	-4.1666185e-24
33	0x17af5692	1.1330963e-24
34	0x991fdc2f	-8.264573e-24
35	0x9710ba32	-4.676392e-25
36	0x194b36d2	1.0505925e-23
37	0x16cf4470	3.3485844e-25
38	0x996d18ca	-1.2257619e-23
39	0x179681b4	9.726264e-25
40	0x991ec980	-8.209101e-24
41	0x9969cd58	-1.20872865e-23
42	0x1700329f	4.1422923e-25
43	0x996cf999	-1.225132e-23
44	0x98a3cc2f	-4.2340685e-24
45	0x98a134eb	-4.167096e-24
46	0x19c03300	1.9872933e-23
47	0x16bc8d3f	3.0462177e-25
48	0x99773cd5	-1.2781886e-23
49	0x97ab865e	-1.1084535e-24
50	0x178e370a	9.190429e-25
51	0x991e8e5f	-8.19716e-24
52	0x99d97890	-2.2485969e-23
53	0x99e9efeb	-2.4188537e-23
54	0x193afee8	9.6674525e-24
55	0x98a151f7	-4.1700288e-24
56	0x17c93392	1.3002339e-24
57	0x9721f704	-5.2333683e-25
58	0x99b39e6f	-1.8572157e-23
59	0x172df09e	5.6203016e-25
60	0x196adad8	1.21417116e-23
61	0x9957a894	-1.11492836e-23
62	0x996756df	-1.19599636e-23
63	0x9922fe77	-8.4265925e-24
64	0x9899c92b	-3.97527e-24
65	0x19ea8895	2.4250198e-23
66	0x99447135	-1.01558245e-23
67	0x191c8ef2	8.0938785e-24
68	0x98a135bf	-4.1671794e-24
69	0x17af603a	1.1333401e-24
70	0x991fdd92	-8.264853e-24
71	0x9710b1dc	-4.67534e-25
72	0x194b55e6	1.0512201e-23
73	0x16cf43de	3.3485484e-25
74	0x996d4a55	-1.2267624e-23
75	0x17968eb1	9.729543e-25
76	0x991ee9f1	-8.215653e-24
77	0x9969f146	-1.20945425e-23
78	0x17005760	4.1469313e-25
79	0x996d2b23	-1.2261324e-23
80	0x98a3ece0	-4.2373695e-24
81	0x98a15544	-4.170362e-24
82	0x19c050ee	1.9885022e-23
83	0x16bceca6	3.0522384e-25
84	0x9977647e	-1.2789895e-23
85	0x97abb2d2	-1.1095757e-24
86	0x178e44b3	9.193877e-25
87	0x991eaf9e	-8.203874e-24
88	0x99d99ff8	-2.2501885e-23
89	0x99ea14bd	-2.4203409e-23
90	0x193b250a	9.675153e-24
91	0x98a170de	-4.173149e-24
92	0x17c94b23	1.3008288e-24
93	0x9721ef3e	-5.232387e-25
94	0x99b3ba1c	-1.8583335e-23
95	0x172decfa	5.619842e-25
96	0x196b0d23	1.2151868e-23
97	0x9957cc10	-1.11564496e-23
98	0x99678249	-1.1968731e-23
99	0x99231eaa	-8.433095e-24
100	0x9899e7b3	-3.978353e-24
101	0x19eaacba	2.4264797e-23
102	0x99448f82	-1.0161944e-23
103	0x191cafc2	8.100505e-24
104	0x98a15618	-4.1704457e-24
105	0x17af73a1	1.1338299e-24
106	0x991ffc33	-8.2710386e-24
107	0x9710e77e	-4.6821094e-25
108	0x194b3c93	1.0507087e-23
109	0x16cf602f	3.3503354e-25
110	0x996d2275	-1.2259571e-23
111	0x17968846	9.727923e-25
112	0x991ecf47	-8.210268e-24
113	0x9969d3e7	-1.2088611e-23
114	0x17002422	4.1404637e-25
115	0x996d0267	-1.2253098e-23
116	0x98a3cea2	-4.234316e-24
117	0x98a1370e	-4.1673116e-24
118	0x19c037cc	1.9874871e-23
119	0x16bc7527	3.0446972e-25
120	0x99774428	-1.2783365e-23
121	0x97ab8270	-1.1083543e-24
122	0x178e4196	9.193091e-25
123	0x991e952a	-8.198532e-24
124	0x99d97c55	-2.2487491e-23
125	0x99e9f5b4	-2.4190874e-23
126	0x193b0150	9.6679385e-24
127	0x98a15365	-4.170173e-24
128	0x17c939f1	1.3003947e-24
129	0x9721f446	-5.233022e-25
130	0x99b3a2d1	-1.8573927e-23
131	0x172dfba8	5.621695e-25
132	0x196ae439	1.2143606e-23
133	0x9957b028	-1.1150814e-23
134	0x99675867	-1.1960273e-23
135	0x9922ff22	-8.426727e-24
136	0x9899cf21	-3.975872e-24
137	0x19ea8eee	2.4252762e-23
138	0x9944775f	-1.0157069e-23
139	0x191c95ef	8.09529e-24
140	0x98a137d7	-4.167391e-24
141	0x17af68bc	1.1335549e-24
142	0x991fe0da	-8.265516e-24
143	0x9710a390	-4.6735354e-25
144	0x194b0b05	1.04970794e-23
145	0x16cf1920	3.345851e-25
146	0x996ce99e	-1.2248093e-23
147	0x179657cb	9.715685e-25
148	0x991ea920	-8.202563e-24
149	0x99699a6e	-1.20770045e-23
150	0x17001117	4.13806e-25
151	0x996ccc38	-1.2242156e-23
152	0x98a3a7c9	-4.2303932e-24
153	0x98a11106	-4.1634714e-24
154	0x19c00979	1.985616e-23
155	0x16bc86e6	3.045817e-25
156	0x99770956	-1.2771486e-23
157	0x97ab620c	-1.10753665e-24
158	0x178e101b	9.180601e-25
159	0x991e6de5	-8.1906016e-24
160	0x99d94e17	-2.2468814e-23
161	0x99e9bd85	-2.4168182e-23
162	0x193adade	9.6601745e-24
163	0x98a12d80	-4.1663468e-24
164	0x17c9051f	1.2990613e-24
165	0x9721bfb1	-5.2263854e-25
166	0x99b37808	-1.8556646e-23
167	0x172db9d0	5.6133843e-25
168	0x196aadd8	1.2132624e-23
169	0x99577a3a	-1.1139923e-23
170	0x9967280b	-1.1950507e-23
171	0x9922defd	-8.420236e-24
172	0x9899a897	-3.9719805e-24
173	0x19ea5613	2.4229798e-23
174	0x994446dd	-1.0147273e-23
175	0x191c6ff3	8.087619e-24
176	0x98a111ca	-4.1635487e-24
177	0x17af331e	1.1322014e-24
178	0x991fbf43	-8.258732e-24
179	0x9710a16f	-4.6732667e-25
180	0x194b211d	1.0501541e-23
181	0x16cf2394	3.3465107e-25
182	0x996d0582	-1.2253725e-23
183	0x17966c80	9.720912e-25
184	0x991ebb8d	-8.206284e-24
185	0x9969b3ee	-1.2082154e-23
186	0x170028b3	4.14104e-25
187	0x996ce633	-1.22474024e-23
188	0x98a3be69	-4.2326778e-24
189	0x98a126ca	-4.165669e-24
190	0x19c01d63	1.9864204e-23
191	0x16bc9c0e	3.0471522e-25
192	0x9977234a	-1.2776727e-23
193	0x97ab7883	-1.1081037e-24
194	0x178e24fe	9.185873e-25
195	0x991e8131	-8.1944985e-24
196	0x99d9626b	-2.2477025e-23
197	0x99e9d62e	-2.4178142e-23
198	0x193aeae9	9.663414e-24
199	0x98a143c6	-4.168596e-24
200	0x17c919de	1.299585e-24
201	0x9721d6c3	-5.2292973e-25
202	0x99b38b4d	-1.856443e-23
203	0x172dd1b5	5.6164e-25
204	0x196ac7bf	1.2137855e-23
205	0x995792c5	-1.1144879e-23
206	0x99673da4	-1.1954868e-23
207	0x9922ed5d	-8.423139e-24
208	0x9899bb24	-3.9738537e-24
209	0x19ea6eca	2.423978e-23
210	0x99445c8d	-1.0151653e-23
211	0x191c8365	8.091546e-24
212	0x98a12798	-4.1657504e-24
213	0x17af48b7	1.1327466e-24
214	0x991fcda7	-8.2616385e-24
215	0x97109f63	-4.6730084e-25
216	0x194b969b	1.05252686e-23
217	0x16cf6595	3.350676e-25
218	0x996d92db	-1.228227e-23
219	0x1796c109	9.742252e-25
220	0x991f1f2a	-8.226401e-24
221	0x996a3bb2	-1.2109572e-23
222	0x17008d17	4.153711e-25
223	0x996d732f	-1.2275874e-23
224	0x98a4255e	-4.2430738e-24
225	0x98a18bda	-4.175874e-24
226	0x19c08d82	1.990949e-23
227	0x16bd2d23	3.0563082e-25
228	0x9977b26f	-1.2805635e-23
229	0x97abeff4	-1.1111189e-24
230	0x178e73aa	9.205733e-25
231	0x991ee358	-8.21432e-24
232	0x99d9e2f0	-2.2528933e-23
233	0x99ea5e6c	-2.423317e-23
234	0x193b5b32	9.68609e-24
235	0x98a1a934	-4.1788376e-24
236	0x17c98709	1.3023408e-24
237	0x972221ea	-5.238783e-25
238	0x99b3f2d8	-1.860625e-23
239	0x172e27ad	5.627251e-25
240	0x196b5399	1.2166098e-23
241	0x99580efb	-1.11699636e-23
242	0x9967c7ed	-1.1982795e-23
243	0x99234fbb	-8.443004e-24
244	0x989a1cab	-3.9837014e-24
245	0x19eaf6c3	2.4294699e-23
246	0x9944cdc0	-1.0174513e-23
247	0x191ce168	8.1105314e-24
248	0x98a18cab	-4.1759563e-24
249	0x17afa45f	1.1350603e-24
250	0x99202d37	-8.280937e-24
251	0x971104e2	-4.685819e-25
252	0x194bd8bd	1.0538624e-23
253	0x16cfe8d0	3.358958e-25
254	0x996dd83c	-1.2296281e-23
255	0x17970050	9.758225e-25

linear_sigmoid_stack.0.bias f4 [16]
0	0xbace4974	-0.0015738443
1	0xbaa95ffa	-0.001292228
2	0xb89e716d	-7.555154e-05
3	0xba8f749f	-0.001094479
4	0xbb422b6b	-0.002962793
5	0xbb0a99ce	-0.0021148804
6	0x3b2185e0	0.0024646446
7	0x3ba24b56	0.0049528284
8	0xb9db1927	-0.00041789675
9	0xbb67b7dd	-0.0035357394
10	0x3a6bf3b4	0.0009000853
11	0xba454cde	-0.0007526408
12	0x3bda5307	0.0066627297
13	0x3948bf29	0.00019144699
14	0xba14e0c6	-0.0005679246
15	0x3acc9698	0.0015608845

linear_sigmoid_stack.2.weight f4 [4, 16]
0	0x209cbb65	2.6551435e-19
1	0x1fd46e98	8.9968454e-20
2	0x203ea9fd	1.614987e-19
3	0x20a2c396	2.7573295e-19
4	0x20151aa0	1.26296e-19
5	0x20a73d71	2.833156e-19
6	0x20130832	1.2454096e-19
7	0x20a8e97a	2.861481e-19
8	0x2093978e	2.500306e-19
9	0x200a9db3	1.1741233e-19
10	0x1ffa0001	1.05879125e-19
11	0x1fe6e561	9.7788265e-20
12	0x2098ee98	2.590769e-19
13	0x20036a7f	1.1131368e-19
14	0x203c28f7	1.5937774e-19
15	0x208c26ea	2.3742674e-19
16	0x20946667	2.513994e-19
17	0x20b6978e	3.093229e-19
18	0x208fcbc7	2.435999e-19
19	0x208cb852	2.3838895e-19
20	0x208c978e	2.3817213e-19
21	0x20742d0e	2.0682511e-19
22	0x208d1063	2.3897173e-19
23	0x20816b85	2.19246e-19
24	0x201bf5c3	1.3210326e-19
25	0x20670e57	1.9571206e-19
26	0x20a89169	2.8556531e-19
27	0x20d751ec	3.6476628e-19
28	0x20c33c6b	3.3074266e-19
29	0x20dc9ba6	3.737245e-19
30	0x20b8fdf5	3.1338867e-19
31	0x20bbb334	3.179762e-19
32	0x20301cad	1.4917268e-19
33	0x1f23a1cb	3.4650425e-20
34	0x1fb78938	7.7730524e-20
35	0x1f8b9fbf	5.913307e-20
36	0x1f80f7d0	5.462008e-20
37	0x20568f5c	1.8173939e-19
38	0x1fabb43a	7.271948e-20
39	0x1fd4b853	9.009043e-20
40	0x203d0c4a	1.6012989e-19
41	0x203ef8d6	1.6175959e-19
42	0x200720c5	1.1445787e-19
43	0x2031051f	1.4994178e-19
44	0x2014ef9e	1.261537e-19
45	0x1fc0c8b4	8.16472e-20
46	0x1ff7395a	1.0470345e-19
47	0x20375c2a	1.5531197e-19
48	0x2085bd71	2.2656438e-19
49	0x20b46f9e	3.0567048e-19
50	0x208cb74c	2.3838218e-19
51	0x20b924de	3.1364616e-19
52	0x20ab9169	2.906475e-19
53	0x20e4cbc7	3.875955e-19
54	0x2076020d	2.0837689e-19
55	0x208b0313	2.354955e-19
56	0x20ae8938	2.956755e-19
57	0x20ce0520	3.490115e-19
58	0x20803127	2.171657e-19
59	0x20a1ea80	2.742964e-19
60	0x205fd0e6	1.8957953e-19
61	0x206e9375	2.0208174e-19
62	0x2100f959	4.3698096e-19
63	0x208fd4ff	2.436609e-19

linear_sigmoid_stack.2.bias f4 [4]
0	0xbce48781	-0.027896645
1	0xbc2baab3	-0.01047771
2	0x3b9069fb	0.004407165
3	0xbcc9a617	-0.02461533

last_fc.weight f4 [1, 4]
0	0xb0602d0f	-8.155476e-10
1	0xb0b9d917	-1.3522222e-09
2	0xb007fdf4	-4.9473603e-10
3	0xb0aa418a	-1.2387755e-09
