Trained_paremeters/nn_checkpoints_CHRNA3_sage.pth (torch, 4695 bytes, 5 tensors)

linear_sigmoid_stack.0.weight f4 [16, 34]
-0.036539998 -0.5139748 0.41235855 0.90191394 0.073249735 -0.9201017 0.94472975 -0.47689387
0.21930537 0.90732086 0.39509663 -0.75362647 -0.21013425 0.15862404 0.6412538 -0.9424403
0.31847453 0.80566025 -0.32764202 -0.01841325 0.6653999 0.6303056 -0.0684525 -0.11198572
0.03179419 -0.91844887 -0.13927065 0.6815988 0.5941858 -0.6447893 -0.7336245 0.05630982
0.43707985 0.5277853 0.8979329 0.36363888 -0.2631722 -0.7979374 0.1513413 0.78251106
-0.7449348 -0.80085224 0.48222053 0.5155608 0.73429024 -0.5114084 -0.4943786 -0.028880956
0.22041784 -0.5272761 -0.14546219 0.33069867 0.77928054 0.22411042 0.05534324 -0.60819477
-0.92904854 -0.3785254 0.38143435 -0.15317558 -0.12993191 -0.5069072 -0.8986894 0.58238155
-0.33209342 -0.68068475 0.3153724 -0.108087294 -0.6303285 0.71361893 -0.94841474 -0.8178035
-0.92398 0.6627531 0.82749355 0.96965307 -0.5056294 0.65388125 0.20631947 0.58044404
-0.5982766 -0.7217071 0.840553 -0.86331505 0.99037445 -0.8522655 0.3427399 0.27639517
-0.59589005 -0.9303799 0.69553113 -0.72809225 0.03654075 -0.8051237 0.53198475 0.55481666
-0.35035548 -0.35500187 -0.06780362 0.91212183 0.4153466 -0.26447392 0.19744685 -0.8184823
0.13890943 0.3541049 0.006453764 0.72730976 0.34699678 0.89373374 -0.56207514 0.8072021
0.20415612 0.10300949 0.6385209 0.2481214 0.772858 0.4843686 -0.41578558 0.3668177
0.5872986 -0.7894541 0.43131387 -0.26633868 -0.87893194 0.7324687 -0.3485022 0.11177175
0.36410365 0.124756515 -0.5227583 0.40431464 0.9735243 -0.4067296 0.16792808 -0.25813824
0.7102574 -0.9169833 0.12662299 -0.59014195 0.44902694 -0.14647673 0.75531393 0.23417601
0.27896273 0.58031756 -0.9150733 -0.7771231 -0.4859496 0.40805393 0.3749449 -0.12891802
-0.3492294 -0.85827184 -0.51932883 -0.36331213 0.31971782 0.9828075 0.8232579 -0.5319643
-0.18280095 -0.25977492 -0.9225581 -0.9253439 -0.88027245 0.28275505 -0.505607 0.12067696
-0.44595477 0.05307236 -0.95234936 0.6535182 -0.3990861 -0.06811498 0.79965633 0.1119431
0.8263265 -0.64268637 0.68482757 -0.3478821 0.45449182 -0.736762 -0.6956906 0.7739371
0.8039344 0.63519007 0.603108 -0.8412305 0.33364722 0.28387803 0.72614235 -0.30058977
0.34781274 0.8785911 0.23594761 0.54591966 -0.013944353 0.94223636 0.8888054 0.25744233
0.28390434 0.5152177 0.31618348 -0.81352574 0.12293335 0.09567665 0.37607366 0.55352104
-0.15728986 0.9131557 0.57499504 -0.7525017 0.47000602 0.5782735 -0.81015056 0.14779873
-0.14713511 -0.25098398 0.9588354 0.778108 -0.7263171 0.89314866 -0.06338052 0.95838314
0.28507555 -0.49673745 0.56658876 -0.9648007 0.09754758 -0.9494144 -0.35921285 0.10081862
0.39688084 -0.86531526 -0.97598517 0.109601445 -0.96106064 -0.7532265 -0.29442874 -0.52048254
-0.050513037 0.30168018 -0.12064921 0.29345977 -0.09443538 0.32972586 -0.32201865 0.7525687
-0.9290932 0.5233909 0.7422135 -0.9175662 0.92664313 -0.24282709 0.44927493 -0.29252654
00000000: f7aa 15bd da93 03bf a920 d33e d5e3 663f
00000010: f503 963d c98b 6bbf cfd9 713f 6f2b f4be
00000020: 9691 603e 2e46 683f 1b4a ca3e aaed 40bf
00000030: 6f2d 57be 576e 223e 3629 243f c443 71bf
00000040: 180f a33e c03f 4e3f b2c0 a7be 62d7 96bc
00000050: a657 2a3f b55b 213f d330 8cbd c558 e5bd
00000060: a03a 023d 771f 6bbf f79c 0ebe 427d 2e3f
00000070: 901c 183f e910 25bf d1ce 3bbf 20a5 663d
00000080: eec8 df3e f01c 073f eede 653f e02e ba3e
00000090: 82be 86be a045 4cbf 37f9 1a3e a552 483f
000000a0: 0cb4 3ebf a704 4dbf 9ce5 f63e cbfb 033f
000000b0: 72fa 3b3f a9eb 02bf 311f fdbe c197 ecbc
000000c0: 37b5 613e 91fb 06bf 0af4 14be 5651 a93e
000000d0: ee7e 473f 347d 653e 98af 623d a7b2 1bbf
000000e0: 20d6 6dbf 15ce c1be 5d4b c33e 0fda 1cbe
000000f0: df0c 05be acc4 01bf 8210 66bf f516 153f
00000100: 2608 aabe 5b41 2ebf 7e78 a13e df5c ddbd
00000110: 355d 21bf bbaf 363f 4fcb 72bf 925b 51bf
00000120: f489 6cbf 30aa 293f 9ed6 533f 2f3b 783f
00000130: ee70 01bf c364 273f 6945 533e fb97 143f
00000140: a828 19bf ccc1 38bf 7b2e 573f 3702 5dbf
00000150: 2e89 7d3f 122e 5abf 9b7b af3e ab83 8d3e
00000160: 408c 18bf 612d 6ebf 540e 323f 4164 3abf
00000170: c1ab 153d 961c 4ebf 2730 083f 7708 0e3f
00000180: cb61 b3be cec2 b5be a0dc 8abd d180 693f
00000190: 4fa8 d43e 2069 87be 822f 4a3e 0e88 51bf
000001a0: 463e 0e3e 3d4d b53e 197a d33b f930 3a3f
000001b0: 90a9 b13e bccb 643f 28e4 0fbf cca4 4e3f
000001c0: 4d0e 513e a4f6 d23d 1b76 233f 8913 7e3e
000001d0: 06da 453f 29ff f73e d9e1 d4be 88cf bb3e
000001e0: 3359 163f aa19 4abf 2cd5 dc3e 8b5d 88be
000001f0: af01 61bf 1283 3b3f e16e b2be 96e8 e43d
00000200: cb6b ba3e 5880 ff3d 7dd3 05bf 5402 cf3e
00000210: e338 793f dd3e d0be 57f5 2b3e b22a 84be
00000220: 6ed3 353f 6bbf 6abf 75a9 013e 8b13 17bf
00000230: dce6 e53e fffd 15be 415c 413f d6cb 6f3e
00000240: 34d4 8e3e b18f 143f 3e42 6abf 8af1 46bf
00000250: 63ce f8be 72ec d03e c7f8 bf3e 1603 04be
00000260: 32ce b2be b4b7 5bbf bcf2 04bf 0c04 babe
00000270: 0eb2 a33e 4699 7b3f 08c1 523f d02e 08bf
00000280: 2c30 3bbe 3801 85be c52c 6cbf 56e3 6cbf
00000290: 8959 61bf 45c5 903e 766f 01bf 7b25 f73d
000002a0: 2f54 e4be 6762 593d 2bcd 73bf f84c 273f
000002b0: 0355 ccbe de7f 8bbd 47b6 4c3f 6d42 e53d
000002c0: 228a 533f 1887 24bf dc50 2f3f 9a1d b2be
000002d0: 27b3 e83e 6f9c 3cbf c718 32bf be20 463f
000002e0: a5ce 4d3f d19b 223f 4965 1a3f e25a 57bf
000002f0: cfd3 aa3e 7658 913e 77e4 393f e7e6 99be
00000300: 8314 b23e 59eb 603f 409c 713e 64c1 0b3f
00000310: db76 64bc 6736 713f c088 633f 7bcf 833e
00000320: e95b 913e 4fe5 033f cde2 a13e 3943 50bf
00000330: 7bc4 fb3d 1ff2 c33d ba8c c03e 8eb3 0d3f
00000340: 9810 21be 92c4 693f e032 133f f4a3 40bf
00000350: a1a4 f03e bb09 143f 0766 4fbf 8d58 173e
00000360: 96aa 16be f980 80be 3d76 753f 1632 473f
00000370: ebef 39bf 64a5 643f a5cd 81bd 9958 753f
00000380: 6cf5 913e 5f54 febe f60b 113f 2efd 76bf
00000390: 07c7 c73d d20c 73bf bfea b7be fe79 ce3d
000003a0: f733 cb3e 4d85 5dbf 2ada 79bf b976 e03d
000003b0: 1208 76bf 74d3 40bf 5dbf 96be 583e 05bf
000003c0: c2e6 4ebd d375 9a3e ef16 f7bd 5c40 963e
000003d0: 5667 c1bd d4d1 a83e a1df a4be 58a8 403f
000003e0: 0dd9 6dbf f2fc 053f b401 3e3f 9ee5 6abf
000003f0: 7c38 6d3f aaa7 78be 5d07 e63e 0ac6 95be

linear_sigmoid_stack.0.bias f4 [16]
-0.0025420105 -0.0027731005 0.0012474102 0.00052000035 -0.0010629285 0.0008646407 -0.00061915256 -0.0008422152
-0.00018205371 -0.0009091027 -0.00443762 -0.0042953007 0.0016100223 0.0014308158 0.0018921293 0.0031331095
00000000: dc97 26bb e8bc 35bb 2480 a33a a250 083a
00000010: f651 8bba 0ea9 623a a04e 22ba 1bc8 5cba
00000020: ace5 3eb9 d950 6eba 7469 91bb 98bf 8cbb
00000030: 6207 d33a 368a bb3a 5301 f83a db54 4d3b

linear_sigmoid_stack.2.weight f4 [4, 16]
-0.053911317 -0.18312307 0.42767867 0.41931254 0.8558445 -0.28124985 0.069970004 -0.32330346
0.22358401 -0.55031383 0.5571588 0.75473166 -0.7888547 -0.6664255 -0.16367802 -0.49290666
-0.8793947 -0.8414585 0.7332542 0.9805127 0.581194 -0.7802669 -0.32087335 -0.43979284
0.75023854 -0.69099104 -0.96715033 -0.8560065 -0.23563948 0.3421837 0.49194133 -0.6672643
0.065270044 -0.7725365 0.56313205 0.5488824 -0.117108285 -0.21874599 0.45341462 -0.6767754
0.5235643 -0.348368 -0.5157877 -0.2149347 0.6577184 -0.12014893 0.17646936 0.71358633
0.40653238 0.22982733 -0.9330766 0.031442996 -0.33541584 -0.8980109 0.8145546 0.024810353
0.66303384 0.6869208 -0.14607683 -0.29137167 -0.12461305 0.14448982 -0.6450255 -0.18501043
00000000: 1dd2 5cbd 9d84 3bbe b3f8 da3e 22b0 d63e
00000010: a018 5b3f fbff 8fbe 6f4c 8f3d 0888 a5be
00000020: 35f3 643e 5ee1 0cbf f6a1 0e3f 1836 413f
00000030: 62f2 49bf dd9a 2abf 369b 27be 435e fcbe
00000040: 0320 61bf d369 57bf 8cb6 3b3f e102 7b3f
00000050: 21c9 143f 92bf 47bf 8349 a4be 872c e1be
00000060: a20f 403f cae4 30bf 2a97 77bf 3e23 5bbf
00000070: 7a4b 71be b432 af3e bcdf fb3e d5d1 2abf
00000080: 4dac 853d f4c4 45bf 6c29 103f 8f83 0c3f
00000090: 78d6 efbd f3fe 5fbe f625 e83e 2741 2dbf
000000a0: 4f08 063f 4a5d b2be aa0a 04bf d817 5cbe
000000b0: 3c60 283f a410 f6bd 62b4 343e 98ad 363f
000000c0: 0325 d03e db57 6b3e 1cde 6ebf 5fca 003d
000000d0: a0bb abbe 0be4 65bf a686 503f 153f cb3c
000000e0: 96bc 293f 0bda 2f3f 2a95 15be ab2e 95be
000000f0: 2035 ffbd 24f5 133e 6420 25bf 6073 3dbe

linear_sigmoid_stack.2.bias f4 [4]
-0.027204083 0.008102671 0.01680145 -0.014724275
00000000: 19db debc 11c1 043c 32a3 893c 163e 71bc

last_fc.weight f4 [1, 4]
0.86979306 -0.4082495 -0.57677627 0.46211773
00000000: c2aa 5e3f 1406 d1be 9ca7 13bf b29a ec3e
