Trained_paremeters/nn_checkpoints_CHRNB4_ukb_y1.pth (torch, 4823 bytes, 5 tensors)

linear_sigmoid_stack.0.weight f4 [16, 36]
0.04965012 -0.9573398 -0.9120141 -0.8168053 -0.15539788 0.24771596 0.15781419 0.3719417
-0.15357178 -0.40104216 0.6754744 -0.026699336 -0.49686608 0.26662636 -0.59034646 0.5583569
0.78792113 0.8208253 -0.26391417 -0.1880973 -0.757504 -0.5448789 0.28061962 -0.24684367
0.9825786 -0.016746249 0.6224216 -0.8469324 0.24007572 0.3255573 0.80599463 -0.7386294
0.099876344 -0.038675323 -0.90618795 0.927676 0.49173978 -0.55025476 0.37497687 -0.8164293
0.43579152 0.37107992 -0.6964013 0.66067886 -0.6675769 -0.6962987 0.74869436 0.30482513
0.7645382 -0.3988252 -0.9451782 -0.30095088 -0.7686265 0.53861326 1.0107116 -0.5786352
-0.9894887 -0.12352951 -0.6954668 -0.11174613 0.659672 -0.26940134 -0.7616408 -0.70804965
-1.0300486 -0.07164282 -0.29194602 0.3805098 0.12542494 -0.42368123 -0.03799695 -0.004904594
0.70080507 0.3188468 0.23934972 -0.28253394 -0.20286672 0.38214374 0.8296691 -0.7987485
0.78963786 -0.63593054 -0.08546276 0.39347088 0.7040423 -0.8816197 0.7513316 -0.40840775
0.885355 0.021094019 -0.96518135 -0.10614545 -0.6037137 0.038079463 -0.08857551 -0.8239226
0.6044402 0.13659199 0.0946423 0.17927286 0.5720297 -0.054969206 0.043284934 -0.14789379
-0.0842205 -0.533946 -0.09086141 -0.93406874 0.637535 0.4493305 -0.3665193 -0.6762912
-0.73258793 0.25704238 -0.514854 -0.81961215 0.3227015 -0.95645976 0.6498431 0.8569789
0.6330521 -0.38253465 0.29643056 -0.3374807 -0.05755362 0.31069627 -0.47886872 -0.28867245
0.88449997 0.67593527 -0.8391746 -0.24977191 0.26902112 -0.37193277 -0.7163957 -0.9217884
-0.37020266 0.6880398 0.06489295 -0.25701123 -0.09093894 0.88938236 -0.7437243 0.6841446
0.7983771 0.4906775 0.45469823 -0.9669393 0.7907785 -0.8685023 0.35642302 0.82057345
-0.18379962 0.9176107 -0.46679896 -0.6335374 0.051646844 -0.63467675 0.49996468 0.87853366
0.33056986 0.036770534 0.07578732 0.22008206 -0.5332537 -0.33504713 0.78982776 0.45538133
0.4477383 -0.08006674 -0.2406592 0.12057528 -0.8044971 0.49014857 0.8188814 0.8723312
-0.5553848 -0.31909803 0.23219237 0.72933245 0.28071102 -0.396624 0.02338462 -0.32534018
-0.58913183 -0.4677362 0.74271846 -0.44671586 -0.7068227 -0.8713003 0.6743316 -0.92275846
0.9176277 -0.78767735 0.33543456 -0.20287897 0.11048733 0.15655874 -0.12740493 -0.08162962
-0.96826637 0.062485605 0.22122537 0.08827999 -0.5907416 0.25787666 0.6895003 -0.44818634
0.69651204 0.2869797 0.12869562 -0.050828572 0.5492606 0.51944214 0.3729146 0.09432733
-0.8696168 -0.8673425 0.45660058 0.42028856 0.22231834 0.0692101 0.4750059 -0.7568276
-0.0034315102 -0.8243319 0.2367376 -0.906098 0.6552342 -0.19694021 0.6603899 0.09610815
0.77572286 0.7617624 0.21834476 0.61323225 0.9217515 -0.90009356 -0.118394926 0.12323244
-0.034332823 0.34230244 -0.74918514 -0.71763486 0.36387494 -0.15424028 -0.75601745 0.42287254
0.8941684 -0.09309312 0.017073737 -0.23616652 0.96226096 0.7445694 -0.021746654 -0.8281982
00000000: ed5d 4b3d 3914 75bf c279 69bf 271a 51bf
00000010: 9f20 1fbe 41a9 7d3e 0b9a 213e 246f be3e
00000020: ec41 1dbe 6655 cdbe e4eb 2c3f 91b8 dabc
00000030: 3b65 febe 4083 883e f220 17bf 7af0 0e3f
00000040: 33b5 493f 9b21 523f c21f 87be 949c 40be
00000050: c8eb 41bf 2f7d 0bbf 60ad 8f3e 96c4 7cbe
00000060: 458a 7b3f 6e2f 89bc 0657 1f3f 90d0 58bf
00000070: 69d6 753e 72af a63e aa55 4e3f d116 3dbf
00000080: f88b cc3d 046a 1ebd effb 67bf 2d7c 6d3f
00000090: 51c5 fb3e 7fdd 0cbf f8fc bf3e 8301 51bf
000000a0: 1120 df3e 30fe bd3e 5b47 32bf 4022 293f
000000b0: 52e6 2abf a240 32bf 6faa 3f3f 0a12 9c3e
000000c0: c7b8 433f d132 ccbe 33f7 71bf 3c16 9abe
000000d0: b5c4 44bf 8fe2 093f ff5e 813f 7021 14bf
000000e0: 224f 7dbf 0afd fcbd 1d0a 32bf 28db e4bd
000000f0: 44e0 283f f9ee 89be e4fa 42bf be42 35bf
00000100: a2d8 83bf 79b9 92bd f379 95be 2ed2 c23e
00000110: 656f 003e bfec d8be b1a2 1bbd b7b6 a0bb
00000120: f667 333f e33f a33e 1818 753e 4aa8 90be
00000130: 4bbc 4fbe 58a8 c33e 3265 543f c87a 4cbf
00000140: b525 4a3f 58cc 22bf 1907 afbd 0475 c93e
00000150: 1e3c 343f d4b1 61bf 4557 403f d21a d1be
00000160: a0a6 623f 5dcd ac3c 2016 77bf c962 d9bd
00000170: fb8c 1abf 36f9 1b3d 1467 b5bd 97ec 52bf
00000180: 98bc 1a3f c5de 0b3e d2d3 c13d 4e93 373e
00000190: 8a70 123f 6427 61bd 8b4b 313d 7871 17be
000001a0: cc7b acbd afb0 08bf 8c15 babd 211f 6fbf
000001b0: 7e35 233f a60e e63e 6ba8 bbbe 6c21 2dbf
000001c0: e28a 3bbf 0f9b 833e 79cd 03bf 1ad2 51bf
000001d0: 2239 a53e 8cda 74bf 1e5c 263f f862 5b3f
000001e0: b40f 223f 95db c3be bfc5 973e 45ca acbe
000001f0: 58bd 6bbd 9513 9f3e 482e f5be e0cc 93be
00000200: 976e 623f 180a 2d3f 26d4 56bf 35c4 7fbe
00000210: 23bd 893e f96d bebe b565 37bf 53fa 6bbf
00000220: 348b bdbe 6023 303f 98e6 843d fa96 83be
00000230: 323e babd 90ae 633f b764 3ebf 1a24 2f3f
00000240: 7162 4c3f 153a fb3e 35ce e83e 5589 77bf
00000250: 7670 4a3f 2b56 5ebf 147d b63e 1a11 523f
00000260: f835 3cbe 89e8 6a3f 4600 efbe 822f 22bf
00000270: a48b 533d 2d7a 22bf 5ffb ff3e 95e7 603f
00000280: 7440 a93e b39c 163d 6236 9b3d 315d 613e
00000290: 5183 08bf 4c8b abbe 2732 4a3f be27 e93e
000002a0: f43d e53e 08fa a3bd 5e6f 76be 2cf0 f63d
000002b0: 86f3 4dbf c1f4 fa3e 36a2 513f 1951 5f3f
000002c0: b32d 0ebf d160 a3be d6c3 6d3e 88b5 3a3f
000002d0: 5bb9 8f3e 4d12 cbbe 1a91 bf3c fd92 a6be
000002e0: 58d1 16bf 1f7b efbe cc22 3e3f f1b7 e4be
000002f0: 55f2 34bf 890d 5fbf ffa0 2c3f e639 6cbf
00000300: a6e9 6a3f 39a5 49bf 14be ab3e 81bf 4fbe
00000310: 2e47 e23d ef50 203e 7076 02be 6e2d a7bd
00000320: 4ee0 77bf e8f0 7f3d e788 623e 24cc b43d
00000330: d73a 17bf 6908 843e 1783 303f ae78 e5be
00000340: 9d4e 323f 01ef 923e c9c8 033e 9f31 50bd
00000350: 589c 0c3f 29fa 043f aaee be3e b02e c13d
00000360: 359f 5ebf 280a 5ebf 8dc7 e93e 1030 d73e
00000370: 6ba7 633e 06be 8d3d f933 f33e 74bf 41bf
00000380: 30e3 60bb 6a07 53bf 576b 723e 0af6 67bf
00000390: 6ebd 273f b2aa 49be 500f 293f 5ad4 c43d
000003a0: c695 463f dc02 433f c595 5f3e cafc 1c3f
000003b0: e8f7 6b3f 886c 66bf 0a79 f2bd 4a61 fc3d
000003c0: 93a0 0cbd 4442 af3e 99ca 3fbf ebb6 37bf
000003d0: d14d ba3e 2af1 1dbe 5c8a 41bf c082 d83e
000003e0: 38e8 643f 9ba7 bebd 39de 8b3c a3d5 71be
000003f0: bc56 763f 1a9c 3e3f 0a26 b2bc cc04 54bf

linear_sigmoid_stack.0.bias f4 [16]
0.03761137 0.020646634 0.08259849 0.04223728 -0.015666008 -0.04481391 0.0028781535 -0.021891145
-0.0041786996 0.025502175 0.01191532 -0.022067916 0.038678568 0.0071951286 -0.035415996 -0.037257936
00000000: 610e 1a3d 2123 a93c 6629 a93d 0001 2d3d
00000010: 0056 80bc ca8e 37bd 679f 3c3b 0f55 b3bc
00000020: 79ed 88bb f0e9 d03c 7938 433c c6c7 b4bc
00000030: 6b6d 1e3d 1dc5 eb3b 5d10 11bd c79b 18bd

linear_sigmoid_stack.2.weight f4 [4, 16]
-0.89408547 -0.7158914 0.6602455 -0.8353506 0.45351872 0.19258845 -0.024285322 -0.31612635
-0.4665441 -0.101282045 -0.4751823 -0.147439 -0.3441849 0.5472576 0.058864884 0.3155896
-0.7403018 -0.54022443 -0.045339618 -0.0976061 0.02631052 -0.85399175 -0.7631523 -0.21501583
-0.12144677 -1.1080682 -0.10597002 -0.2156748 0.44549853 0.20088649 0.18472444 0.9444494
-0.9534523 0.07705339 0.7934788 -0.5586238 0.67916274 0.6882975 0.38349158 0.7614321
0.7376953 0.4370271 -0.1455605 -0.093167216 0.1846019 -0.26915303 0.9426093 -0.5030555
-0.6402197 -0.0581627 -0.5003914 -0.9288535 0.8490663 -0.7736588 -0.24189821 -0.7667541
-0.94771546 0.7334284 -0.3531605 0.7152115 0.29390422 -0.113779716 -0.6558256 -0.036821608
00000000: c9e2 64bf a944 37bf d905 293f 89d9 55bf
00000010: 9b33 e83e e835 453e 03f2 c6bc 50db a1be
00000020: dede eebe f66c cfbd 184b f3be 40fa 16be
00000030: 0139 b0be 1319 0c3f 4e1c 713d f694 a13e
00000040: 6b84 3dbf 264c 0abf 09b6 39bd b5e5 c7bd
00000050: 2989 d73c 349f 5abf f35d 43bf 1c2d 5cbe
00000060: 16b9 f8bd 2ed5 8dbf cf06 d9bd dbd9 5cbe
00000070: 6218 e43e 30b5 4d3e 6728 3d3e 70c7 713f
00000080: 7315 74bf 2bce 9d3d 6d21 4b3f f801 0fbf
00000090: 9cdd 2d3f 4434 303f 0259 c43e 37ed 423f
000000a0: 99d9 3c3f 04c2 df3e d00d 15be 74ce bebd
000000b0: 4808 3d3e 6dce 89be d84e 713f 3fc8 00bf
000000c0: 70e5 23bf 033c 6ebd a719 00bf 58c9 6dbf
000000d0: 695c 593f 810e 46bf 2ab4 77be ff49 44bf
000000e0: 7b9d 72bf f7c1 3b3f 74d1 b4be 1a18 373f
000000f0: 9d7a 963e 5705 e9bd 30e4 27bf 41d2 16bd

linear_sigmoid_stack.2.bias f4 [4]
-0.07914858 -0.20815715 -0.12331888 0.02558521
00000000: a718 a2bd 2627 55be 9c8e fcbd 1398 d13c

last_fc.weight f4 [1, 4]
0.38426346 -0.2893396 -0.099272326 -0.16523051
00000000: 2ebe c43e 5224 94be 4a4f cbbd 3032 29be
