Trained_paremeters/nn_checkpoints_CHRNA5_TL_y1002.pth (torch, 6807 bytes, 6 tensors)

linear_sigmoid_stack.0.weight f8 [16, 31]
-0.821415901184082 -0.037598513066768646 -0.11543697118759155 -0.42059463262557983 0.03747393935918808 -0.7502168416976929 -0.8596614003181458 -0.7449026703834534
-0.6942223310470581 -0.40986621379852295 0.007336942944675684 -0.3346395790576935 -0.8481678366661072 -0.21916550397872925 0.4588245153427124 0.2551758289337158
-0.44525930285453796 0.07474914193153381 -0.059477828443050385 0.17548643052577972 0.837489128112793 0.8240241408348083 0.0870184376835823 0.3507646322250366
-0.7186006307601929 0.4668548107147217 0.6812047362327576 -0.5903138518333435 -0.47816362977027893 -0.231824591755867 -0.5677914619445801 -0.7440023422241211
-0.48498865962028503 0.3483547270298004 -0.4575325548648834 -0.6455172896385193 0.2885324954986572 -0.21011117100715637 -0.16828371584415436 -0.814475953578949
0.3773808181285858 0.44351649284362793 0.07830897718667984 -0.788952112197876 -0.007001352496445179 -0.09492965042591095 0.3278294503688812 -0.830060601234436
0.32224220037460327 -0.4073607921600342 -0.0137795927003026 0.6957852244377136 -0.1388975828886032 -0.21888841688632965 0.8218320608139038 -0.1937853842973709
-0.0203151386231184 0.2895588278770447 -0.0279054157435894 -0.2173524796962738 0.3876509666442871 -0.08541908115148544 0.3964330554008484 -0.3373565971851349
0.04532649368047714 0.4637441039085388 0.7933270335197449 -0.06863090395927429 0.5326305627822876 -0.7045571804046631 0.30558210611343384 0.5661083459854126
0.18142791092395782 -0.2671595513820648 -0.45814213156700134 0.4333191215991974 0.7313214540481567 0.43681207299232483 0.23132207989692688 0.03011833317577839
0.25703713297843933 -0.3775736093521118 0.3012428283691406 0.2087809443473816 0.7517611384391785 0.5393721461296082 0.753701388835907 0.2177302986383438
0.595563530921936 0.31130164861679077 -0.20362915098667145 -0.823662281036377 -0.3416215479373932 -0.7740998268127441 0.8408069014549255 -0.37629029154777527
0.4808948338031769 -0.38773226737976074 0.7781816720962524 -0.6949834823608398 0.7156297564506531 -0.7015579342842102 -0.8820886015892029 0.1494666039943695
0.7490115165710449 0.46317151188850403 -0.25232478976249695 0.12330524623394012 0.2223297655582428 0.07959093898534775 0.2735680043697357 -0.709110677242279
0.056194499135017395 0.5732330679893494 0.37106385827064514 -0.5226845741271973 -0.7320331931114197 -0.7935317754745483 -0.2765129506587982 0.2096427083015442
-0.11486434191465378 0.34096890687942505 -0.2564973533153534 -0.19194544851779938 -0.7188899517059326 0.11461332440376282 -0.08232387900352478 -0.6407200694084167
-0.8327497839927673 -0.7433975338935852 0.14145413041114807 -0.03364232927560806 -0.22128109633922577 0.7711694240570068 -0.339668869972229 -0.38905811309814453
0.3751830756664276 0.6432769894599915 0.007465748582035303 -0.06285436451435089 0.39742520451545715 -0.33127108216285706 -0.17384028434753418 0.00989619456231594
-0.38110899925231934 0.4736260175704956 0.8874959945678711 0.4894765019416809 0.017336765304207802 0.3572520613670349 0.2872530221939087 -0.5253581404685974
0.3953481912612915 -0.5081549286842346 -0.668325662612915 -0.45767834782600403 -0.07012347131967545 0.08483383059501648 0.11427582800388336 0.6734812259674072
-0.26759570837020874 -0.09820395708084106 0.13755230605602264 -0.4468677043914795 0.444046288728714 -0.6251601576805115 0.4196895956993103 0.0058378782123327255
-0.16959135234355927 0.2960836589336395 0.031143927946686745 0.12360422313213348 -0.05624216049909592 -0.13374480605125427 -0.5398318767547607 0.6888670921325684
0.09425044059753418 0.7997087836265564 -0.8052038550376892 0.0012457020347937942 -0.3714463412761688 -0.35548070073127747 0.27482032775878906 -0.1503090262413025
0.16116510331630707 -0.7561511397361755 -0.08896730095148087 -0.6557829976081848 -0.3134566843509674 -0.8438757061958313 -0.6639931201934814 -0.2027864009141922
-0.709827184677124 0.7650827169418335 0.6531171202659607 0.369404673576355 0.1146848127245903 0.7091896533966064 0.3133710026741028 -0.5836523175239563
-0.8408623337745667 -0.054418496787548065 0.5015777349472046 0.37321439385414124 0.22988732159137726 0.4859062135219574 -0.09666109830141068 0.45813772082328796
-0.5911205410957336 -0.8122757077217102 -0.7138272523880005 0.5685386657714844 -0.3720528781414032 -0.7168951034545898 -0.3519020676612854 -0.4188185930252075
-0.6395847797393799 0.30380895733833313 0.7108883261680603 -0.3765919506549835 -0.6441188454627991 0.10829088091850281 0.43633705377578735 0.05205974355340004
-0.4824438989162445 0.0034472874831408262 0.6134464144706726 -0.5057435631752014 -0.7463098764419556 0.7563864588737488 0.6840871572494507 -0.3743835985660553
0.0018502119928598404 0.5301744341850281 -0.766968309879303 -0.6479979753494263 0.7607276439666748 -0.0885670855641365 0.03707175329327583 0.6456477046012878
0.0957232266664505 0.2238515168428421 0.0945526733994484 -0.12004439532756805 0.5638002157211304 -0.03076983243227005 -0.3282364010810852 -0.745988667011261
-0.874923050403595 -0.8360610008239746 -0.7757079005241394 0.5797973275184631 -0.02635933645069599 -0.5460435152053833 0.4824024736881256 -0.08271437883377075
00000000: 0000 0000 0a49 eabf 0000 00c0 1c40 a3bf
00000010: 0000 0000 478d bdbf 0000 00c0 05eb dabf
00000020: 0000 00c0 c82f a33f 0000 00c0 c601 e8bf
00000030: 0000 00a0 5882 ebbf 0000 0020 3ed6 e7bf
00000040: 0000 00c0 1137 e6bf 0000 0080 3f3b dabf
00000050: 0000 00a0 570d 7e3f 0000 0020 bc6a d5bf
00000060: 0000 00e0 3024 ebbf 0000 0080 9d0d ccbf
00000070: 0000 0080 615d dd3f 0000 0000 cd54 d03f
00000080: 0000 00e0 207f dcbf 0000 0080 c222 b33f
00000090: 0000 00c0 e073 aebf 0000 00e0 5676 c63f
000000a0: 0000 0000 b6cc ea3f 0000 00e0 675e ea3f
000000b0: 0000 0020 d746 b63f 0000 0080 ed72 d63f
000000c0: 0000 00c0 c6fe e6bf 0000 0000 f3e0 dd3f
000000d0: 0000 00e0 6dcc e53f 0000 00e0 d9e3 e2bf
000000e0: 0000 00a0 3b9a debf 0000 00a0 6dac cdbf
000000f0: 0000 0000 592b e2bf 0000 0000 dece e7bf
00000100: 0000 00e0 0d0a dfbf 0000 00a0 714b d63f
00000110: 0000 00a0 3648 ddbf 0000 00e0 13a8 e4bf
00000120: 0000 0000 5177 d23f 0000 0040 ece4 cabf
00000130: 0000 0020 528a c5bf 0000 00e0 2f10 eabf
00000140: 0000 00e0 0127 d83f 0000 0000 9362 dc3f
00000150: 0000 00a0 0e0c b43f 0000 0080 183f e9bf
00000160: 0000 0040 73ad 7cbf 0000 0040 4f4d b8bf
00000170: 0000 0060 28fb d43f 0000 0040 db8f eabf
00000180: 0000 00c0 9d9f d43f 0000 0000 3312 dabf
00000190: 0000 00a0 7938 8cbf 0000 0060 df43 e63f
000001a0: 0000 0060 65c7 c1bf 0000 0020 8904 ccbf
000001b0: 0000 00c0 724c ea3f 0000 00a0 f5cd c8bf
000001c0: 0000 00e0 7dcd 94bf 0000 00c0 2188 d23f
000001d0: 0000 00c0 3c93 9cbf 0000 00c0 34d2 cbbf
000001e0: 0000 0000 46cf d83f 0000 0060 06de b5bf
000001f0: 0000 00c0 285f d93f 0000 0020 4097 d5bf
00000200: 0000 00c0 0835 a73f 0000 00c0 fbad dd3f
00000210: 0000 0060 ef62 e93f 0000 0080 cb91 b1bf
00000220: 0000 0040 4f0b e13f 0000 0080 bb8b e6bf
00000230: 0000 0040 a88e d33f 0000 0040 8f1d e23f
00000240: 0000 00a0 0739 c73f 0000 0060 2419 d1bf
00000250: 0000 0060 3352 ddbf 0000 0020 80bb db3f
00000260: 0000 0040 fc66 e73f 0000 00a0 baf4 db3f
00000270: 0000 0040 f69b cd3f 0000 0020 57d7 9e3f
00000280: 0000 00e0 4b73 d03f 0000 0080 2a2a d8bf
00000290: 0000 0000 9047 d33f 0000 0080 55b9 ca3f
000002a0: 0000 0060 6d0e e83f 0000 0060 8942 e13f
000002b0: 0000 0060 521e e83f 0000 0020 96de cb3f
000002c0: 0000 0040 db0e e33f 0000 00c0 5dec d33f
000002d0: 0000 0020 8510 cabf 0000 0000 715b eabf
000002e0: 0000 00a0 20dd d5bf 0000 0000 6dc5 e8bf
000002f0: 0000 00e0 e3e7 ea3f 0000 00e0 2315 d8bf
00000300: 0000 0020 fbc6 de3f 0000 0000 9bd0 d8bf
00000310: 0000 0040 dde6 e83f 0000 0000 4e3d e6bf
00000320: 0000 0060 70e6 e63f 0000 00a0 2973 e6bf
00000330: 0000 00e0 113a ecbf 0000 00c0 b821 c33f
00000340: 0000 0000 e7f7 e73f 0000 0020 9aa4 dd3f
00000350: 0000 00e0 1626 d0bf 0000 00c0 ee90 bf3f
00000360: 0000 0040 4d75 cc3f 0000 0060 1260 b43f
00000370: 0000 0060 2382 d13f 0000 00e0 08b1 e6bf
00000380: 0000 0080 86c5 ac3f 0000 00e0 ec57 e23f
00000390: 0000 00a0 82bf d73f 0000 0000 d5b9 e0bf
000003a0: 0000 00e0 d06c e7bf 0000 00c0 9c64 e9bf
000003b0: 0000 0060 63b2 d1bf 0000 0080 92d5 ca3f
000003c0: 0000 00e0 bf67 bdbf 0000 0040 6fd2 d53f
000003d0: 0000 00e0 736a d0bf 0000 0020 ab91 c8bf
000003e0: 0000 0080 2501 e7bf 0000 0080 4c57 bd3f
000003f0: 0000 0080 2d13 b5bf 0000 0060 c780 e4bf
00000400: 0000 00e0 e2a5 eabf 0000 00a0 e9c9 e7bf
00000410: 0000 0040 2b1b c23f 0000 0040 9139 a1bf
00000420: 0000 0060 f052 ccbf 0000 0080 6bad e83f
00000430: 0000 0080 22bd d5bf 0000 0000 54e6 d8bf
00000440: 0000 00e0 ff02 d83f 0000 00a0 b995 e43f
00000450: 0000 00a0 6794 7e3f 0000 0040 3917 b0bf
00000460: 0000 0020 6a6f d93f 0000 00a0 8b33 d5bf
00000470: 0000 0000 6640 c6bf 0000 00c0 7444 843f
00000480: 0000 0000 1764 d8bf 0000 0080 e34f de3f
00000490: 0000 0000 5e66 ec3f 0000 0040 9553 df3f
000004a0: 0000 00a0 bac0 913f 0000 00c0 37dd d63f
000004b0: 0000 0080 5a62 d23f 0000 00e0 bbcf e0bf
000004c0: 0000 0080 624d d93f 0000 0020 ce42 e0bf
000004d0: 0000 0080 ec62 e5bf 0000 0020 9a4a ddbf
000004e0: 0000 00a0 9cf3 b1bf 0000 0080 abb7 b53f
000004f0: 0000 0040 2e41 bd3f 0000 0080 288d e53f
00000500: 0000 00c0 4920 d1bf 0000 0000 e523 b9bf
00000510: 0000 0060 509b c13f 0000 0000 7b99 dcbf
00000520: 0000 0020 416b dc3f 0000 00e0 4f01 e4bf
00000530: 0000 00c0 31dc da3f 0000 0080 75e9 773f
00000540: 0000 0060 2bb5 c5bf 0000 00e0 08f3 d23f
00000550: 0000 00a0 31e4 9f3f 0000 00c0 86a4 bf3f
00000560: 0000 00c0 c5cb acbf 0000 00c0 8c1e c1bf
00000570: 0000 0080 4d46 e1bf 0000 0000 330b e63f
00000580: 0000 0000 cc20 b83f 0000 00e0 3697 e93f
00000590: 0000 00e0 3ac4 e9bf 0000 0060 da68 543f
000005a0: 0000 00e0 c6c5 d7bf 0000 0020 32c0 d6bf
000005b0: 0000 0000 a896 d13f 0000 0080 533d c3bf
000005c0: 0000 00e0 0ea1 c43f 0000 00e0 6332 e8bf
000005d0: 0000 00a0 8fc6 b6bf 0000 00a0 2cfc e4bf
000005e0: 0000 00a0 ac0f d4bf 0000 00a0 0701 ebbf
000005f0: 0000 0080 6e3f e5bf 0000 00a0 e7f4 c9bf
00000600: 0000 0080 e7b6 e6bf 0000 00c0 8e7b e83f
00000610: 0000 00e0 55e6 e43f 0000 0080 53a4 d73f
00000620: 0000 00e0 fb5b bd3f 0000 0080 aeb1 e63f
00000630: 0000 0040 450e d43f 0000 00a0 47ad e2bf
00000640: 0000 0020 58e8 eabf 0000 00c0 bddc abbf
00000650: 0000 00c0 ec0c e03f 0000 00a0 bee2 d73f
00000660: 0000 00a0 f26c cd3f 0000 0060 1619 df3f
00000670: 0000 0020 c8be b8bf 0000 00e0 2052 dd3f
00000680: 0000 00a0 75ea e2bf 0000 00a0 29fe e9bf
00000690: 0000 0040 acd7 e6bf 0000 0000 7831 e23f
000006a0: 0000 00e0 b6cf d7bf 0000 0000 cef0 e6bf
000006b0: 0000 0040 9085 d6bf 0000 0080 eccd dabf
000006c0: 0000 0080 7a77 e4bf 0000 0020 9b71 d33f
000006d0: 0000 00e0 98bf e63f 0000 0020 151a d8bf
000006e0: 0000 0020 9f9c e4bf 0000 0080 f3b8 bb3f
000006f0: 0000 0040 f2ec db3f 0000 0020 93a7 aa3f
00000700: 0000 0060 5ce0 debf 0000 0060 7c3d 6c3f
00000710: 0000 0060 5aa1 e33f 0000 0020 0d2f e0bf
00000720: 0000 0040 c5e1 e7bf 0000 0060 5134 e83f
00000730: 0000 00c0 0ae4 e53f 0000 00a0 e6f5 d7bf
00000740: 0000 0000 5a50 5e3f 0000 0060 30f7 e03f
00000750: 0000 0020 018b e8bf 0000 0040 66bc e4bf
00000760: 0000 0080 e157 e83f 0000 0020 55ac b6bf
00000770: 0000 00a0 11fb a23f 0000 0060 25a9 e43f
00000780: 0000 0040 5181 b83f 0000 00a0 2aa7 cc3f
00000790: 0000 00a0 9a34 b83f 0000 00c0 3abb bebf
000007a0: 0000 00c0 a60a e23f 0000 0080 2082 9fbf
000007b0: 0000 0040 d301 d5bf 0000 00a0 23df e7bf
000007c0: 0000 00a0 5eff ebbf 0000 0000 03c1 eabf
000007d0: 0000 0060 99d2 e8bf 0000 0020 b38d e23f
000007e0: 0000 0020 f1fd 9abf 0000 0040 3079 e1bf
000007f0: 0000 00a0 aedf de3f 0000 0000 c52c b5bf

linear_sigmoid_stack.0.bias f8 [16]
-0.0008381707593798637 0.00235829409211874 0.005684690084308386 0.012842063792049885 -0.00014687830116599798 -0.006813272833824158 0.005193126853555441 -0.0060055991634726524
-0.001293535577133298 0.003974182531237602 -0.004786244127899408 -0.004381449427455664 0.01277961302548647 -0.008458307012915611 -0.018461104482412338 -0.011942543089389801
00000000: 0000 0000 1677 4bbf 0000 0080 b351 633f
00000010: 0000 0060 d448 773f 0000 00a0 f04c 8a3f
00000020: 0000 0000 6b40 23bf 0000 0000 3ce8 7bbf
00000030: 0000 0060 6345 753f 0000 00c0 5399 78bf
00000040: 0000 0040 7b31 55bf 0000 0080 3b47 703f
00000050: 0000 00a0 bd9a 73bf 0000 0060 48f2 71bf
00000060: 0000 00a0 322c 8a3f 0000 00c0 9652 81bf
00000070: 0000 00c0 77e7 92bf 0000 0000 5575 88bf

linear_sigmoid_stack.2.weight f8 [4, 16]
0.09578162431716919 0.3375847041606903 -0.5714125633239746 0.6316488981246948 0.7425182461738586 -0.5787320137023926 0.7316027283668518 -0.6288341283798218
-0.288093626499176 0.12655913829803467 -0.12314945459365845 -0.0865546464920044 0.6495380401611328 -0.19245021045207977 0.14649537205696106 -0.10960303992033005
0.2806580066680908 -0.49786174297332764 -0.782680869102478 -0.6660307049751282 0.272255539894104 0.3817860782146454 0.2940540015697479 -0.32922038435935974
0.3789270222187042 -0.2943961024284363 0.18433897197246552 -0.5826213359832764 -0.33818331360816956 0.5040414333343506 0.7119506001472473 0.12540359795093536
-0.15893885493278503 -0.2346634566783905 0.5069162845611572 -0.6477006673812866 -0.6077451705932617 0.24680449068546295 0.21417009830474854 -0.5242122411727905
0.38015666604042053 -0.5498068928718567 0.06749365478754044 0.10770096629858017 -0.023665523156523705 -0.7353931069374084 -0.3256085515022278 -0.517301082611084
0.6093594431877136 -0.05625207722187042 -0.004196465946733952 -0.12138345092535019 -0.7299508452415466 -0.6746049523353577 -0.44138339161872864 0.6432263255119324
-0.07630357891321182 0.04846607893705368 0.17705082893371582 0.4411379396915436 -0.7346158027648926 0.630203902721405 -0.473724365234375 -0.2926230728626251
00000000: 0000 0000 2585 b83f 0000 00e0 fc9a d53f
00000010: 0000 0000 0349 e2bf 0000 00c0 7736 e43f
00000020: 0000 00a0 b5c2 e73f 0000 0000 f984 e2bf
00000030: 0000 0020 4a69 e73f 0000 00c0 681f e4bf
00000040: 0000 0040 2070 d2bf 0000 0000 1733 c03f
00000050: 0000 0000 b986 bfbf 0000 0000 7228 b6bf
00000060: 0000 0000 04c9 e43f 0000 0060 35a2 c8bf
00000070: 0000 0040 5cc0 c23f 0000 00e0 f10e bcbf
00000080: 0000 0000 4df6 d13f 0000 0080 f7dc dfbf
00000090: 0000 00c0 b80b e9bf 0000 00a0 1f50 e5bf
000000a0: 0000 0080 a26c d13f 0000 00e0 2e6f d83f
000000b0: 0000 00e0 c7d1 d23f 0000 0060 f211 d5bf
000000c0: 0000 0020 5740 d83f 0000 00c0 62d7 d2bf
000000d0: 0000 0060 6b98 c73f 0000 0080 d5a4 e2bf
000000e0: 0000 00a0 cba4 d5bf 0000 0080 1b21 e03f
000000f0: 0000 00a0 4cc8 e63f 0000 00a0 390d c03f
00000100: 0000 00c0 1b58 c4bf 0000 00c0 7309 cebf
00000110: 0000 0080 a838 e03f 0000 00c0 f6b9 e4bf
00000120: 0000 0000 a672 e3bf 0000 0020 4a97 cf3f
00000130: 0000 0000 ed69 cb3f 0000 00c0 58c6 e0bf
00000140: 0000 00a0 7c54 d83f 0000 00a0 0498 e1bf
00000150: 0000 00a0 4347 b13f 0000 0060 4a92 bb3f
00000160: 0000 0060 c63b 98bf 0000 0020 5788 e7bf
00000170: 0000 0040 c5d6 d4bf 0000 0000 bb8d e0bf
00000180: 0000 0060 df7f e33f 0000 0080 12cd acbf
00000190: 0000 0040 5030 71bf 0000 0060 fc12 bfbf
000001a0: 0000 00e0 c15b e7bf 0000 0020 5d96 e5bf
000001b0: 0000 0020 a03f dcbf 0000 0060 4f95 e43f
000001c0: 0000 00a0 a188 b3bf 0000 00c0 8bd0 a83f
000001d0: 0000 0000 9aa9 c63f 0000 00a0 9a3b dc3f
000001e0: 0000 0000 f981 e7bf 0000 0060 a12a e43f
000001f0: 0000 0000 8051 debf 0000 0020 56ba d2bf

linear_sigmoid_stack.2.bias f8 [4]
0.011615769006311893 0.007726736832410097 -0.011354109272360802 -0.010562279261648655
00000000: 0000 0020 02ca 873f 0000 0020 12a6 7f3f
00000010: 0000 00c0 d240 87bf 0000 0020 ada1 85bf

last_fc.weight f8 [1, 4]
-0.0874105824830475 -0.4013288787662734 0.4120483688223743 -0.43021062928541043
00000000: acc8 1639 8a60 b6bf 9f74 4f52 5faf d9bf
00000010: 6695 1d1f 005f da3f e408 cb29 9288 dbbf

last_fc.bias f8 [1]
0.31604858427824306
00000000: 9104 5bd7 233a d43f
