Trained_paremeters/nn_checkpoints_CHRNB3_sage.pth (torch, 4311 bytes, 5 tensors)

linear_sigmoid_stack.0.weight f4 [16, 28]
0.5407998 -0.041318204 -0.975344 0.3967104 -0.6242026 -0.6701768 -0.696621 0.10754173
-0.96666974 0.60101384 0.6302553 -0.5225324 -0.3991878 0.6240967 -0.74847156 0.61454654
-0.7985632 0.8028767 0.5450365 0.00011869427 -0.12537093 0.6287887 -0.945319 0.7663673
-0.37460518 0.09390097 0.8600261 -0.47801426 -0.45750874 0.3318899 0.8359818 0.7781424
-0.9318014 0.07805884 -0.17631891 0.4238484 -0.25889006 0.9070664 0.071776755 -0.014619731
0.31818405 0.5322015 -0.46175936 -0.23113172 0.47948506 0.56675524 0.85742897 0.12914377
0.9937383 0.525988 -0.3378873 0.8419066 0.7430783 0.37257954 -0.7874092 -0.15388617
-0.5967769 0.58411986 0.8055006 0.23540166 -0.0044448557 -0.16779153 0.5801215 -0.5699653
-0.12629938 0.71393526 0.8889598 0.9745597 -0.25079888 -0.23897015 -0.8373691 0.6059958
0.30378228 -0.34216532 -0.26405695 -0.9583134 0.4531074 -0.056178123 -0.12684685 -0.11064742
0.23624726 -0.07469766 -0.63833004 0.8010939 -0.28934434 0.082211375 -0.7601337 -0.41743332
-0.74321014 0.97158366 0.5810204 -0.0041553667 0.30580202 -0.045576014 0.7554446 -0.101267144
-0.4734239 -0.44924995 -0.26521364 0.51716304 0.23703253 0.45429143 -0.06578446 -0.7028679
0.3796346 -0.5647034 -0.6558703 0.96900254 0.552348 0.80800885 0.5455047 -0.9085284
0.9659766 -0.22617188 -0.39103907 0.44489428 -0.4889818 0.56421524 0.5531433 0.048917323
-0.2694907 0.72365475 0.4452882 0.15486471 -0.75419724 0.70517504 0.5013372 -0.5522517
0.9603399 0.7186915 0.02476036 -0.73993 -0.18772402 -0.8664413 -0.19997627 0.054410808
0.86863154 0.138448 0.8231234 -0.02604136 0.23116167 0.07858834 0.2497332 -0.4295758
-0.32895875 0.6950087 -0.22391735 -0.87326366 -0.39685676 -0.5477745 -0.63792133 0.9525419
-0.38524845 0.3350826 -0.12807703 0.01655152 0.71694887 -0.5599499 -0.19858578 -0.18475911
0.07355634 -0.5603875 -0.6674121 -0.9533303 0.08752682 0.29150268 -0.35832232 0.5114956
-0.7289131 0.43399912 0.08967147 0.4097714 -0.6209928 0.97930515 0.3620489 0.42514208
-0.79503965 0.41820464 -0.7988079 -0.72925663 0.62576663 -0.37539214 0.01830959 -0.3369813
-0.32519624 -0.3310172 -0.11391125 0.34495103 0.4748486 -0.4165685 0.5607454 0.27123705
0.74128896 0.024716428 0.10943356 0.22283326 -0.0105475625 -0.49853846 -0.03706038 0.20150262
0.5250769 -0.14793748 0.038990844 0.2801333 -0.5838078 -0.1267837 -0.5917188 -0.31904054
-0.69610715 -0.4275943 0.3056819 0.41878325 0.7792623 -0.58930826 0.6624917 -0.4928161
-0.1871575 0.20719832 -0.4731508 0.085504234 0.7925615 0.57549036 0.45180708 -0.13329649
0.06752745 0.36972174 -0.1896249 -0.040306482 -0.863327 0.7134197 0.8602622 0.6667279
-0.8366196 0.8067496 -0.921738 0.20258553 -0.8932359 0.93440527 -0.0050933766 0.47103405
-0.046621684 -0.3467942 0.85513335 -0.7204584 0.2939527 -0.8492081 0.96431077 0.32514688
-0.5730859 -0.5550504 0.45292258 0.75242305 -0.7005736 0.6610102 0.4738881 0.6374532
00000000: db71 0a3f 473d 29bd 25b0 79bf a01d cb3e
00000010: becb 1fbf b590 2bbf c155 32bf d73e dc3d
00000020: ab77 77bf 0bdc 193f 6958 213f afc4 05bf
00000030: 5862 ccbe cdc4 1f3f d59b 3fbf ec52 1d3f
00000040: a36e 4cbf 5489 4d3f 8387 0b3f 80eb f838
00000050: 3d61 00be 4cf8 203f 6d00 72bf a630 443f
00000060: 40cc bfbe 274f c03d ac2a 5c3f 49be f4be
00000070: 963e eabe 79ed a93e e702 563f 5734 473f
00000080: 898a 6ebf 50dd 9f3d f28c 34be a802 d93e
00000090: 3d8d 84be 8135 683f b1ff 923d 9987 6fbc
000000a0: 05e9 a23e 5c3e 083f b96b ecbe cbad 6cbe
000000b0: 117f f53e df16 113f 7780 5b3f 443e 043e
000000c0: a265 7e3f 26a7 063f 90ff acbe 3187 573f
000000d0: 613a 3e3f bfc2 be3e a693 49bf 5694 1dbe
000000e0: 5fc6 18bf e188 153f 4a35 4e3f 220d 713e
000000f0: 27a6 91bb 8bd1 2bbe d882 143f 3fe9 11bf
00000100: a054 01be 76c4 363f df92 633f bf7c 793f
00000110: b668 80be 97b4 74be d25d 56bf 8a22 1b3f
00000120: 5a89 9b3e 4b30 afbe 7932 87be 0754 75bf
00000130: b1fd e73e 081b 66bd 24e4 01be 1d9b e2bd
00000140: cdea 713e 16fb 98bd 9969 23bf 7d14 4d3f
00000150: f124 94be 705e a83d 1f98 42bf d2b9 d5be
00000160: 0543 3ebf b5b9 783f c1bd 143f be29 88bb
00000170: 1592 9c3e eaad 3abd d164 413f 2665 cfbd
00000180: 9e64 f2be 1704 e6be 15ca 87be cc64 043f
00000190: a8b8 723e e398 e83e 01ba 86bd 27ef 33bf
000001a0: 775f c23e 6790 10bf 1ee7 27bf 8d10 783f
000001b0: ae66 0d3f abd9 4e3f 32a6 0b3f 5195 68bf
000001c0: 3e4a 773f 9a99 67be 4636 c8be 2fc9 e33e
000001d0: d35b fabe 6970 103f cd9a 0d3f 885d 483d
000001e0: affa 89be 7041 393f d1fc e33e db94 1e3e
000001f0: 1213 41bf 5a86 343f a257 003f 5e60 0dbf
00000200: d6d8 753f 2bfc 373f 3dd6 ca3c 0d6c 3dbf
00000210: ba3a 40be 19cf 5dbf 94c6 4cbe dedd 5e3d
00000220: a35e 5e3f 50c5 0d3e 37b8 523f b154 d5bc
00000230: a5b5 6c3e ecf2 a03d 0fba 7f3e 5cf1 dbbe
00000240: 486d a8be 17ec 313f 974a 65be 358e 5fbf
00000250: cf30 cbbe f33a 0cbf d04e 23bf c9d9 733f
00000260: 493f c5be f28f ab3e a026 03be 0e97 873c
00000270: f689 373f e058 0fbf 125a 4bbe 7e31 3dbe
00000280: b5a4 963d 8e75 0fbf 85db 2abf 740d 74bf
00000290: 4341 b33d d73f 953e 0676 b7be 60f1 023f
000002a0: 0d9a 3abf 2235 de3e ada5 b73d 8fcd d13e
000002b0: 62f9 1ebf beb3 7a3f 795e b93e 39ac d93e
000002c0: b887 4bbf eb1e d63e ad7e 4cbf 90b0 3abf
000002d0: 3e32 203f 6633 c0be fefd 953c d088 acbe
000002e0: 1f80 a6be 167b a9be 4d4a e9bd 6c9d b03e
000002f0: 5b1f f33e 7748 d5be 038d 0f3f 95df 8a3e
00000300: 1dc5 3d3f 1b7a ca3c b41e e03d 672e 643e
00000310: afcf 2cbc 6f40 ffbe a0cc 17bd b456 4e3e
00000320: 716b 063f ec7c 17be ddb4 1f3d a26d 8f3e
00000330: 6e74 15bf 96d3 01be e27a 17bf 4859 a3be
00000340: 1434 32bf a4ed dabe 5782 9c3e c26a d63e
00000350: bc7d 473f e8dc 16bf 0e99 293f 6452 fcbe
00000360: 37a6 3fbe cc2b 543e d240 f2be d81c af3d
00000370: 4fe5 4a3f 5653 133f 4253 e73e e07e 08be
00000380: d54b 8a3d 2b4c bd3e 082d 42be 6918 25bd
00000390: 0003 5dbf aca2 363f 253a 5c3f aeae 2a3f
000003a0: b42c 56bf 2487 4e3f 06f7 6bbf 9572 4f3e
000003b0: 1cab 64bf 2f35 6f3f 57e6 a6bb 602b f13e
000003c0: 61f6 3ebd 028f b1be 05ea 5a3f f66f 38bf
000003d0: f880 963e b465 59bf 12dd 763f a779 a63e
000003e0: c2b5 12bf c817 0ebf 78e5 e73e cc9e 403f
000003f0: cb58 33bf f737 293f 76a1 f23e 2230 233f

linear_sigmoid_stack.0.bias f4 [16]
-0.0011043748 -0.0033208844 0.005196294 -0.0017388588 -0.000980181 -0.002617055 -0.00079299364 0.00057928334
0.00020104152 0.004003314 -0.00026076185 -0.0005106771 -0.00094888057 0.00055213063 -0.0033523568 0.0038266284
00000000: abc0 90ba 32a3 59bb ac45 aa3b 6bea e3ba
00000010: 6b79 80ba e682 2bbb e7e0 4fba 0cdb 173a
00000020: acce 5239 3b2e 833b ddb6 88b9 f6de 05ba
00000030: 4cbe 78ba dcbc 103a 37b3 5bbb 2cc8 7a3b

linear_sigmoid_stack.2.weight f4 [4, 16]
0.2045351 -0.227189 0.5029214 0.3953519 -0.9683925 -0.19092537 -0.3471004 0.20510407
0.1598508 0.5007143 0.270898 -0.22028957 -0.31088686 0.37084904 -0.98086935 0.71792096
0.7463813 0.80209625 -0.74947774 0.89332116 -0.0668818 0.66964835 0.48169422 0.66287774
-0.08359044 -0.741294 -0.42909098 0.047914047 -0.80223227 -0.28533882 -0.24368419 -0.19832885
0.23488991 -0.20073825 0.18907356 -0.16467127 0.58645755 0.040796537 0.62492 0.87196314
-0.22154674 0.30515876 -0.80010796 0.16844954 -0.6538455 -0.46774095 -0.18122582 0.532823
0.91737545 0.78246355 -0.6150733 0.7212019 0.95878375 0.49174982 0.8757127 0.6011425
-0.37372786 -0.26287535 0.67152303 -0.34505993 0.93700147 0.9844882 0.14843215 0.70581836
00000000: a671 513e 3ca4 68be 75bf 003f 906b ca3e
00000010: 92e8 77bf f181 43be 25b7 b1be cd06 523e
00000020: eeaf 233e d02e 003f 25b3 8a3e 9793 61be
00000030: 902c 9fbe eddf bd3e 411a 7bbf abc9 373f
00000040: d812 3f3f 2e56 4d3f c6dd 3fbf b2b0 643f
00000050: 53f9 88bd 136e 2b3f a0a0 f63e 5bb2 293f
00000060: 7731 abbd 72c5 3dbf d0b1 dbbe 8541 443d
00000070: 185f 4dbf ee17 92be 5988 79be b816 4bbe
00000080: fb86 703e 548e 4dbe 809c 413e 969f 28be
00000090: 1522 163f 451a 273d c2fa 1f3f fa38 5f3f
000000a0: 26dd 62be c53d 9c3e e0d3 4cbf 097e 2c3e
000000b0: 6b62 27bf be7b efbe 4393 39be 1767 083f
000000c0: 1ed9 6a3f 884f 483f 7275 1dbf b0a0 383f
000000d0: da72 753f a2c6 fb3e b52e 603f 7ae4 193f
000000e0: 4259 bfbe 9997 86be efe8 2b3f b2ab b0be
000000f0: 54df 6f3f 6b07 7c3f 99fe 173e 83b0 343f

linear_sigmoid_stack.2.bias f4 [4]
0.020501817 -0.016276963 0.016388658 -0.001161503
00000000: 6df3 a73c 4457 85bc 8241 863c 933d 98ba

last_fc.weight f4 [1, 4]
-0.9229578 0.8867956 -0.81402844 0.49404502
00000000: f646 6cbf 0905 633f 2b64 50bf 78f3 fc3e
