Trained_paremeters/nn_checkpoints_CHRNA6_ukb_y1001.pth (torch, 4856 bytes, 5 tensors)

linear_sigmoid_stack.0.weight f4 [16, 21]
000000 d4 9c 82 be 46 95 2d 3e f4 b0 0f bf ab 0b 7d bf
       -0.25510275 0.16951475 -0.56129384 -0.9884593
000010 a9 1a de 3e 0f 73 b6 3e bb a1 86 be 53 74 e5 be
       0.43379715 0.35634658 -0.26295266 -0.4481531
000020 b5 0b 59 bf 67 75 c6 3e cd 43 c0 be ad 2e 2a bf
       -0.8478349 0.38761446 -0.37551728 -0.6647747
000030 c6 74 05 bf 1c d3 02 be e7 8e 3e bf 7b 79 53 bf
       -0.5213131 -0.12775844 -0.744368 -0.8260724
000040 6a 8e 31 bf 7a e6 74 bf 0d b0 5f bf a1 1c 93 3e
       -0.6935793 -0.9566418 -0.8737801 0.2873278
000050 98 7d 63 3f 8c db 8c 3b cf 01 da be 95 ce 36 3f
       0.88863516 0.004298633 -0.42579505 0.7140897
000060 41 0d 02 3f 76 fd e1 be c9 e1 08 3f 0c ac b8 be
       0.50801474 -0.44138688 0.5346952 -0.3606876
000070 1f 58 70 be 2c 20 c8 be 78 d0 5c bf a3 0e 48 bf
       -0.23471116 -0.39087045 -0.862556 -0.78147334
000080 4f f2 c0 bd a1 3b e4 be d6 e2 16 3f 18 3f 51 bf
       -0.09421217 -0.44576743 0.58939874 -0.817369
000090 2e c9 28 bf 4a 1f 91 3e ac 44 4e bb c2 34 2c 3e
       -0.65931976 0.28344184 -0.0031474037 0.16817
0000a0 53 92 40 3f 10 63 d0 3e 29 1f af be 3c 5e 6a 3e
       0.75223273 0.4070058 -0.3420346 0.2288751
0000b0 6e 74 60 bf 9a 04 5b 3f f2 a4 87 bf 88 35 80 be
       -0.8767766 0.85553896 -1.0597212 -0.2504084
0000c0 92 d8 10 3f 70 2a 53 bc 1c 76 41 be 97 0f fc 3e
       0.5658046 -0.012888536 -0.18892711 0.49230644
0000d0 c8 f1 a2 bd 07 43 7e bf e4 27 75 bf 07 26 2f bf
       -0.07956272 -0.99321026 -0.95763993 -0.684174
0000e0 bb b6 33 3f 79 4a 64 bf 37 26 6f 3f 40 78 40 bf
       0.702007 -0.89176136 0.93417686 -0.75183487
0000f0 c6 ec 2f bc 73 43 e7 be 16 e7 d3 3d 51 f5 d6 3e
       -0.0107376035 -0.45168647 0.103468105 0.41984037
000100 81 54 47 3f 34 39 07 3f 1b c5 40 3b 9d 1b 17 3d
       0.7786332 0.5282166 0.002941436 0.03689157
000110 28 f1 13 3e b1 0c ab 3e 88 64 1d 3d 2a 0c 43 bf
       0.14447463 0.3340812 0.038425952 -0.76190436
000120 8c fa af 3d a2 6d 3e bf 6e 58 1d bf 0b 98 e7 3e
       0.0859271 -0.74386036 -0.6146306 0.45233187
000130 41 e3 c2 3e 54 bf f5 be da 2a 76 3f ed fd dd 3e
       0.38064006 -0.47997534 0.96159136 0.43357792
000140 0c a6 89 bd 42 6e ff 3e d6 c4 87 3e 14 9b 18 bf
       -0.06721124 0.49888808 0.2651736 -0.5961163
000150 99 fc 75 3f 24 8c bb bd 48 5c a1 3e 68 1f 5c 3f
       0.9608856 -0.09157589 0.31515718 0.8598542
000160 fd e7 e4 3e 1e 5e dc be a6 af a6 3e 32 bd 5b bf
       0.44708243 -0.43040556 0.32555884 -0.85835564
000170 f6 ef d9 be 3c f9 2b bf c3 51 41 3e 6d e8 9f 3d
       -0.42565888 -0.67177176 0.18878846 0.078080036
000180 66 b9 0c 3f 5a 0a 2d bf f5 ca 0c bf d4 99 35 bf
       0.54970396 -0.6759392 -0.5499719 -0.7093785
000190 1b 17 db 3e 31 a7 3f 3f 29 44 75 3f 29 25 9a be
       0.42791066 0.7486449 0.9580713 -0.30106476
0001a0 75 81 0d 3f 80 2a b3 be f2 e9 d8 be 1a 4a bd be
       0.5527566 -0.34993362 -0.42365986 -0.36970598
0001b0 9f fc 9f 3e 21 2d df bd 09 82 65 3f ae 7b 3f 3f
       0.31247422 -0.108972795 0.8965154 0.74798095
0001c0 01 ba 4c bf 97 2b 08 bf 56 fa ec 3e fa c4 a0 3e
       -0.7997132 -0.5319151 0.4628474 0.3140028
0001d0 61 ca 2a 3f e5 7a 24 be e7 ab 04 bf 6e 92 20 3e
       0.66715056 -0.16062506 -0.518248 0.15680858
0001e0 bc 41 cd be b1 f3 cb 3e b0 d4 0e bf 63 08 3c bf
       -0.40089214 0.3983436 -0.55793285 -0.734503
0001f0 42 4c 37 3f 94 2c 23 3f 2c e4 df be 40 bd 69 3f
       0.71600735 0.63739896 -0.4372877 0.913044
000200 b7 a1 69 bf cd 8d e0 be 6f fb b5 3d c4 0f 3c 3f
       -0.9126238 -0.43858185 0.08885848 0.73461556
000210 43 d0 b3 be 03 e8 38 3e 02 05 bf 3e b5 0a 4a bf
       -0.3511983 0.18057255 0.37308508 -0.7892259
000220 8d a9 5e 3f 70 1d 3a bf f3 26 f4 be ae f7 b4 3e
       0.86977464 -0.7270117 -0.47685966 0.35345215
000230 9c 94 01 3f f0 50 14 3e a6 88 45 bf f7 b3 0f bf
       0.50617385 0.14484 -0.77161634 -0.5613398
000240 e7 0f c6 be df 88 09 bf 3b a3 48 3f d2 1c 43 bf
       -0.38684008 -0.53724474 0.7837407 -0.7621585
000250 1e 20 14 3f bc 3d 07 3f 03 ce 57 bf 01 1c 8e be
       0.57861507 0.52828574 -0.84298724 -0.2775574
000260 d3 42 09 3f e1 cd ab 3d 12 92 03 bf 0d 48 c7 3d
       0.5361759 0.08388878 -0.5139476 0.097305395
000270 ac e7 40 bf 16 f4 ec be 2b 26 df be 03 b3 ad bc
       -0.75353503 -0.46279973 -0.43583807 -0.021203524
000280 fa 73 44 bf 46 e8 e2 3e fc 19 3d be 23 31 d9 be
       -0.76739466 0.44317836 -0.18466944 -0.424203
000290 9d 3d db 3e f5 dc 28 be 1a 43 01 3f e1 a4 55 3f
       0.42820445 -0.16490538 0.50493014 0.8345471
0002a0 bd 9c 40 3f 0e aa 53 3e 48 fe 61 3f fc 19 38 3f
       0.75239164 0.2067034 0.8827863 0.7191465
0002b0 75 bc 65 3f ea a1 1d 3f 0d aa 42 bf 7e 5c 59 3e
       0.8974069 0.61575186 -0.76040727 0.21226689
0002c0 32 b5 7e be 8d 38 3c 3e b2 b8 32 bf bc 2d 59 3f
       -0.24873808 0.18380947 -0.6981307 0.8483541
0002d0 2a 61 fb bd 26 bb 12 3e d0 37 fb 3d 8a f8 5d 3e
       -0.12274392 0.14329204 0.12266505 0.21676841
0002e0 09 47 53 be 1b dc 24 be 9d bc 91 3e 5b c2 1e bf
       -0.20632567 -0.16099589 0.28464213 -0.6201531
0002f0 b9 2a 55 bf 3a 5b e2 3e 56 2d a8 be 3b 9e 2e 3f
       -0.83268315 0.44210225 -0.3284709 0.6821019
000300 e1 f8 b4 3e 30 bc b8 bb 74 69 0b 3f f7 f3 bc be
       0.3534613 -0.005637668 0.54457784 -0.3690488
000310 46 b1 08 3f 96 f4 34 3f 85 a8 82 bf 66 bb 33 3f
       0.533955 0.7068571 -1.0207678 0.7020782
000320 7d ad b8 3e ce 87 9c be a4 c8 73 3f 8d 6e e0 3d
       0.3606986 -0.3057236 0.9522803 0.10958586
000330 c4 61 17 3f 79 9e 08 3f 76 08 18 3f 30 d6 3a 3f
       0.59133554 0.5336681 0.5938791 0.72983074
000340 31 49 a5 3e 6d 40 0a bf 72 96 84 3e 00 06 b6 be
       0.32282403 -0.54004556 0.2589603 -0.35551453
000350 92 60 8e be 96 c0 83 3e 61 a5 66 3f 8b b8 5e 3f
       -0.27808052 0.2573287 0.900961 0.8700034
000360 b8 39 a3 3d 4d 61 00 bf 21 ee 02 3d 53 8b a0 be
       0.07969993 -0.5014847 0.03196538 -0.31356296
000370 9e 53 69 bf d8 74 9a be 26 b3 eb 3e ef 9c 26 bf
       -0.91143215 -0.3016727 0.46035117 -0.6508321
000380 ec e9 2f 3f 83 2d cd bd 9f e7 23 be 4b 3a a4 3e
       0.6871631 -0.10018446 -0.16006325 0.32075724
000390 28 b3 f5 be e4 c0 48 3f 49 55 83 3d ef a7 98 3e
       -0.47988248 0.7841933 0.06412751 0.29815623
0003a0 20 97 be be 12 65 3b 3f c3 96 99 be d6 05 89 bf
       -0.37224674 0.73201096 -0.29997835 -1.0704906
0003b0 d4 ba 45 be b7 b3 0a bf bf 82 47 3f e2 e6 1a 3f
       -0.1930955 -0.54180473 0.7793388 0.6050855
0003c0 83 d5 3e be d4 b5 d8 3e f5 70 18 3f b2 53 77 bf
       -0.18636136 0.42326224 0.5954736 -0.96612084
0003d0 e6 47 0f bf 47 0f 0a 3f 7f d0 5b 3e 43 aa 1d bf
       -0.55969083 0.5392956 0.21466254 -0.61587924
0003e0 d6 63 37 bf 6f 4b 75 be ca 03 e8 be 3c 9e 49 3e
       -0.7163671 -0.23954557 -0.4531539 0.19689268
0003f0 dd 1d 1f be 5f 60 d5 be 86 2f cc 3e 6d 5a 4f 3e
       -0.15538736 -0.41675088 0.39880008 0.20249338

linear_sigmoid_stack.0.bias f4 [16]
000000 5d f6 9f bc ea 7d 1f bd 73 00 ee 3d b6 cd b0 bd
       -0.019526655 -0.03893844 0.116211794 -0.08632986
000010 1b bc 27 3d 06 7e 44 3e 0b 24 80 bd 16 a0 8e bd
       0.040950876 0.19188699 -0.06256875 -0.06964128
000020 c8 31 83 3d 41 0b 1c be 13 18 27 be 5b fd 5a 3e
       0.064059794 -0.15238668 -0.16317777 0.2138571
000030 34 e9 b5 bd 5f 7e 81 3c d6 11 d3 bd b9 fd 8a be
       -0.088823706 0.015807329 -0.10306136 -0.271467

linear_sigmoid_stack.2.weight f4 [4, 16]
000000 21 5e a0 be 6c 14 8d be 56 11 9a bd c3 62 38 3e
       -0.31321815 -0.27554643 -0.07522838 0.18006425
000010 07 9a 8a bf 46 46 a2 bf 21 98 07 bf e6 6c 9e 3d
       -1.0828255 -1.2677696 -0.52966505 0.077356145
000020 67 95 bb 3e d1 4a b1 be 01 fc 09 3f 1a dc e7 be
       0.36637422 -0.34627393 0.5390015 -0.45285112
000030 2e 27 8c 3e 56 bc 4d bf 6f ed 7c bf 2e 47 31 3f
       0.27373642 -0.803655 -0.98799795 0.69249237
000040 71 3c 20 bf 0f c0 ef be c3 c8 92 bd 59 a7 d2 be
       -0.62592226 -0.46826217 -0.071671985 -0.411433
000050 f8 1d 94 bf 53 68 4f bf ca af ca 3e d5 8d e3 bd
       -1.1571646 -0.8101856 0.3958724 -0.11111037
000060 6c 24 bb be 6f 4c b6 3e 29 91 12 bf 1d f5 57 be
       -0.36551225 0.3560519 -0.57252747 -0.21089597
000070 20 66 54 3e 04 93 5f 3d 7e 7d 03 3f cf c4 60 bf
       0.20742083 0.054583564 0.5136336 -0.87800306
000080 e5 ad aa 3d 9b 2d 55 3e c7 fd 6f bf a6 5d 16 3e
       0.08333949 0.20818178 -0.9374661 0.14684162
000090 73 7c 53 3e 06 62 20 bf 62 93 d8 bd 1d 57 5d 3e
       0.20652942 -0.6264957 -0.10574986 0.21615262
0000a0 37 7b 9d be bb 18 af be 88 39 04 3d 8e 3d 8a bf
       -0.30758068 -0.34198555 0.03228143 -1.0800035
0000b0 a0 90 a4 bf df 81 e8 be f1 9f 28 3f 17 93 11 3f
       -1.2856636 -0.45411584 0.6586905 0.56865066
0000c0 a7 ae 08 3e b0 6e 74 be 1f 74 59 bf 60 14 33 bf
       0.13347875 -0.23870349 -0.8494281 -0.69952965
0000d0 9f 90 b7 3e ea 06 93 be f9 ec 17 bf 1f 5e 0e bf
       0.35852525 -0.28716213 -0.59345967 -0.5561237
0000e0 67 a6 93 bf 37 1a 09 3f 78 32 12 3e 24 30 4f bf
       -1.1535157 0.53555626 0.14277065 -0.8093283
0000f0 83 f0 bb bd 46 74 2d bf 9d 6a 6a bc 1e 21 38 3f
       -0.09176733 -0.67755544 -0.014307645 0.7192553

linear_sigmoid_stack.2.bias f4 [4]
000000 fe 09 4a bf 82 b4 3f bf 60 59 22 bf b5 97 27 bf
       -0.78921497 -0.7488481 -0.63417625 -0.6546586

last_fc.weight f4 [1, 4]
000000 91 2a 95 3d e1 b4 68 3e cc f0 b2 3e 40 74 f2 3e
       0.072835095 0.2272525 0.34949338 0.47354317
