Trained_paremeters/nn_checkpoints_CHRNA3_ukb_y1001.pth (torch, 4695 bytes, 5 tensors)

linear_sigmoid_stack.0.weight f4 [16, 34]
0.4262866 0.21226475 -0.67983973 -0.36652985 -0.31188318 -0.66260743 0.8266924 0.5050488
-0.62446254 -0.7234195 -0.48681006 -0.30343828 -0.7610018 -0.2825393 -0.8065675 0.2985678
0.31843412 0.40395907 0.11694322 0.75245214 -0.3547108 -0.22295411 -0.21566732 -0.12550376
-0.1817342 -0.8150082 -0.48833758 -0.40667838 0.2845976 0.11840159 -0.4111986 -0.05346724
0.15741092 0.016623035 -0.11185836 0.541214 0.078131974 -0.050917864 -0.6914437 0.18648751
-0.4668862 -0.24554458 -0.86321694 -0.70132667 -0.84452534 -0.027772166 -0.56208354 -0.61612874
-0.13479419 0.38344574 0.0776291 0.39866415 -0.27101403 0.73682046 -0.75513124 -0.45296043
-0.6919051 0.26118705 -0.8133875 -0.761201 0.60766673 0.49661553 -0.855196 -0.56843156
-0.45413014 0.71792996 -0.5892329 0.06949377 -0.5990212 0.22311974 0.21893011 -0.22876084
-0.14559531 -0.25641066 -0.35731405 0.06726153 0.44700256 0.2849055 -0.054510593 0.70228964
-0.24743026 0.77886415 -0.1570708 -0.046008665 -0.5544557 -0.8237672 -0.3144905 -0.4911343
-0.17039043 0.5656373 -0.31137866 0.107655585 -0.1197638 -0.29576364 0.042467628 -0.28360337
0.32625633 0.79840016 -0.20040579 0.63636446 0.427932 -0.12872224 -0.5437793 0.60230523
-0.33646467 -0.6558312 -0.2567461 0.8213236 -0.3312789 -0.7011446 0.33412758 0.4551968
0.3313178 -0.2923947 -0.05128016 -0.39393225 0.2620687 0.7109386 -0.6893389 0.7187372
-0.87368035 0.610873 -0.16942121 -0.5207422 0.5596991 -0.50782394 0.6506905 0.104859024
-0.43618688 -0.08623258 0.5459877 0.71190155 0.57066375 -0.2654902 -0.084771916 0.09904478
0.30497563 0.46629304 0.11349707 0.49431401 0.03345264 -0.11468036 0.6063988 0.74132115
0.653312 0.44848758 -0.4029446 0.73013204 -0.22453521 -0.56420255 -0.030044127 0.45750228
0.3167426 0.5413727 0.39285004 0.1369194 -0.13590722 0.17670827 -0.301601 -0.46600714
0.44886422 -0.8227371 0.30016434 0.2889666 -0.81972325 -0.3324168 0.29206285 -0.087728195
-0.0069187875 0.6444333 0.19096762 -0.097417116 -0.37313402 0.44205353 0.6524776 -0.09571452
0.76352334 0.34678197 -0.5672957 0.50399256 0.5332585 0.73819447 0.436253 0.68402654
-0.3476659 -0.06696504 0.11253765 0.24454206 -0.76723886 -0.58654255 0.31937364 -0.45336437
-0.4333319 0.11517951 -0.36588502 0.17944469 -0.61024135 -0.095979586 -0.8763329 0.5428544
-0.4699768 -0.00411132 -0.6992786 0.03743157 -0.13433443 -0.8181362 -0.032756694 0.41276905
-0.3590169 0.38070422 0.5026445 0.47009015 -0.140899 0.61933064 0.05572235 0.3794186
-0.16044568 0.041100144 0.03649494 0.7621854 0.43921474 -0.33399993 -0.438393 -0.40426287
0.44028878 0.04977099 0.5582173 -0.6973938 0.51627517 -0.28010762 -0.7035985 -0.8394732
0.78733325 -0.6844181 0.4314778 0.45163268 -0.52257717 -0.8206321 -0.42061204 0.6548064
-0.53735256 0.39378837 0.017016534 -0.87159085 -0.2909017 0.32411748 0.6831336 0.709714
0.017929157 0.22546999 -0.064658135 -0.77982116 0.8376887 -0.23287325 -0.609772 -0.89856344
00000000: 3d42 da3e ee5b 593e fa09 2ebf cda9 bbbe
00000010: 27af 9fbe a4a0 29bf 1da2 533f e14a 013f
00000020: c7dc 1fbf 0532 39bf 2b3f f9be 435c 9bbe
00000030: 04d1 42bf fea8 90be 357b 4ebf e1dd 983e
00000040: cc09 a33e b9d3 ce3e ed7f ef3d b4a0 403f
00000050: a79c b5be 154e 64be e5d7 5cbe 0f84 00be
00000060: 8818 3abe 61a4 50bf 6207 fabe 2638 d0be
00000070: c7b6 913e 887c f23d 9f88 d2be 7700 5bbd
00000080: 5430 213e 082d 883c ff15 e5bd 008d 0a3f
00000090: a803 a03d 408f 50bd 7402 31bf 95f6 3e3e
000000a0: b50b efbe 0a70 7bbe c9fb 5cbf 258a 33bf
000000b0: d032 58bf 7482 e3bc b5e4 0fbf 9dba 1dbf
000000c0: 7d07 0abe 0053 c43e 01fc 9e3d b51d cc3e
000000d0: 5ac2 8abe 44a0 3c3f 4850 41bf 6eea e7be
000000e0: b120 31bf 4fba 853e 2a3a 50bf 12de 42bf
000000f0: 0c90 1b3f 6444 fe3e 20ee 5abf bb84 11bf
00000100: bf83 e8be 42ca 373f f8d7 16bf c052 8e3d
00000110: 7459 19bf 8079 643e 372f 603e 4840 6abe
00000120: f016 15be 4248 83be def1 b6be 6ac0 893d
00000130: 85dd e43e 22df 913e 8046 5fbd 41c9 333f
00000140: 5c5e 7dbe a463 473f 2bd7 20be 9573 3cbd
00000150: cff0 0dbf 68e2 52bf e604 a1be f475 fbbe
00000160: d47a 2ebe 9bcd 103f 066d 9fbe 887a dc3d
00000170: b946 f5bd 556e 97be 89f2 2d3d 7634 91be
00000180: 120b a73e f463 4c3f 2d37 4dbe c8e8 223f
00000190: e719 db3e c3cf 03be 1f35 0bbf ad30 1a3f
000001a0: 1945 acbe 8ee4 27bf 3a74 83be 4342 523f
000001b0: 639d a9be 367e 33bf c512 ab3e 8e0f e93e
000001c0: 7da2 a93e c2b4 95be 250b 52bd 7db1 c9be
000001d0: de2d 863e 1200 363f 8478 30bf 29ff 373f
000001e0: 84a9 5fbf 2c62 1c3f c17c 2dbe 5c4f 05bf
000001f0: 7148 0f3f c000 02bf a793 263f 54c0 d63d
00000200: e353 dfbe b59a b0bd dac5 0b3f 2e3f 363f
00000210: 0517 123f 55ee 87be e69c adbd fdd7 ca3d
00000220: c425 9c3e f6bd ee3e 2771 e83d ba16 fd3e
00000230: a305 093d 89dd eabd f43c 1b3f 39c7 3d3f
00000240: 753f 273f 2aa0 e53e c14e cebe efe9 3a3f
00000250: 8fec 65be 946f 10bf 1a1f f6bc bd3d ea3e
00000260: 162c a23e 6797 0a3f a423 c93e 9934 0c3e
00000270: 432b 0bbe 03f3 343e 726b 9abe 7d98 eebe
00000280: 88d1 e53e e69e 52bf 24af 993e 6ef3 933e
00000290: 62d9 51bf 8932 aabe 4389 953e d7aa b3bd
000002a0: ffb6 e2bb 95f9 243f 048d 433e a082 c7bd
000002b0: 6c0b bfbe d754 e23e c608 273f f905 c4bd
000002c0: 4476 433f 688d b13e 4a3a 11bf a805 013f
000002d0: a183 083f 50fa 3c3f 8e5c df3e 5d1c 2f3f
000002e0: 4401 b2be f824 89bd 247a e63d 3c69 7a3e
000002f0: c469 44bf a727 16bf f184 a33e 601f e8be
00000300: aedd ddbe 3ce3 eb3d 4855 bbbe 59c0 373e
00000310: c738 1cbf f290 c4bd 5a57 60bf 82f8 0a3f
00000320: cda0 f0be 40b8 86bb ec03 33bf d951 193d
00000330: f78e 09be 6071 51bf e22b 06bd 7756 d33e
00000340: 10d1 b7be aaeb c23e 4fad 003f a8af f03e
00000350: d447 10be 748c 1e3f 1e3d 643d 2843 c23e
00000360: df4b 24be a058 283d b87b 153d 951e 433f
00000370: c1e0 e03e 0a02 abbe 0c75 e0be 8bfb cebe
00000380: 886d e13e aadc 4b3d 54e7 0e3f 6688 32bf
00000390: 9c2a 043f 446a 8fbe 081f 34bf b7e7 56bf
000003a0: ac8e 493f 0636 2fbf a8ea dc3e 663c e73e
000003b0: 9ec7 05bf f214 52bf 765a d7be 64a1 273f
000003c0: f08f 09bf a19e c93e 4266 8b3c 9420 5fbf
000003d0: 11f1 94be baf2 a53e d8e1 2e3f d1af 353f
000003e0: 2be0 923c 9be1 663e 7c6b 84bd 5ca2 47bf
000003f0: c472 563f 5376 6ebe 051a 1cbf 4108 66bf

linear_sigmoid_stack.0.bias f4 [16]
0.0045815962 -0.0034100928 0.0039306846 0.002397846 0.007807728 0.0040462012 -0.00190909 0.007342464
0.004245156 0.0036317168 0.0005431129 -0.002995991 0.010579002 0.0017279374 -0.0077328044 0.021656368
00000000: 3721 963b dd7b 5fbb f9cc 803b 2e25 1d3b
00000010: f8d7 ff3b ff95 843b 6e3a faba 0d99 f03b
00000020: f31a 8b3b 1902 6e3b b15f 0e3a 6358 44bb
00000030: 8d53 2d3c f57b e23a 7763 fdbb b268 b13c

linear_sigmoid_stack.2.weight f4 [4, 16]
0.57038677 0.41302258 0.75483763 0.24646871 0.60633177 -0.2837162 -0.5617668 0.2608185
0.62181985 0.32697585 -0.16602673 -0.633345 0.3915403 -0.010268484 -0.23697035 0.55140626
-0.5875205 -0.24128065 0.40597117 -0.2702935 0.23553355 -0.28335464 -0.09342874 -0.73642576
-0.16468553 -0.4220375 -0.55137503 -0.6017085 -0.079969674 0.6368692 0.77857715 -0.2505703
-0.5757781 -0.023415491 -0.7585587 0.19426437 0.35473305 0.76275474 0.55701303 0.41361958
0.16906264 0.054386858 0.42666775 0.10998233 0.44562134 -0.70977724 -0.54839474 0.52435
0.23623107 -0.32996646 0.661446 -0.7349674 -0.6147014 0.5283337 0.23958313 0.54253393
-0.2610092 -0.09024426 -0.0558497 0.29372084 0.31000766 -0.69446945 -0.53694445 -0.37112606
00000000: de04 123f b277 d33e 0a3d 413f 4b62 7c3e
00000010: 8f38 1b3f 4043 91be f3cf 0fbf 018a 853e
00000020: 962f 1f3f 6169 a73e e902 2abe e622 22bf
00000030: f877 c83e 253d 28bc 5ba8 72be f628 0d3f
00000040: be67 16bf 4612 77be 74db cf3e e963 8abe
00000050: b52f 713e dc13 91be 9157 bfbd 6686 3cbf
00000060: 53a3 28be 4d15 d8be ea26 0dbf 9109 1abf
00000070: 24c7 a3bd dc09 233f d550 473f c04a 80be
00000080: 3266 13bf d8d1 bfbc e730 42bf 3ded 463e
00000090: 929f b53e e543 433f 6898 0e3f f2c5 d33e
000000a0: c21e 2d3e c1c4 5e3d 3274 da3e 6a3e e13d
000000b0: 7b28 e43e f6b3 35bf 9963 0cbf cd3b 063f
000000c0: 8fe6 713e 5df1 a8be 8654 293f d326 3cbf
000000d0: 125d 1dbf e140 073f 4855 753e 81e3 0a3f
000000e0: ffa2 85be fcd1 b8bd a8c2 64bd 9462 963e
000000f0: 53b9 9e3e c0c8 31bf 3175 09bf 3c04 bebe

linear_sigmoid_stack.2.bias f4 [4]
0.07022275 -0.0044723325 0.037189294 -0.008190825
00000000: f2d0 8f3d a58c 92bb cd53 183d cf32 06bc

last_fc.weight f4 [1, 4]
-0.30074218 1.6889107e-05 -0.0004314678 0.49487007
00000000: e1fa 99be 15ad 8d37 a136 e2b9 9c5f fd3e
