Trained_paremeters/nn_checkpoints_CHRNB4_sage.pth (torch, 4823 bytes, 5 tensors)

linear_sigmoid_stack.0.weight f4 [16, 36]
0	0xbe185d27	-0.14879285
1	0x3e9df2e7	0.30849382
2	0xbea99cb9	-0.33127382
3	0x3bcf41ce	0.006324983
4	0x3e534ee3	0.20635562
5	0x3f4e00d8	0.8047004
6	0xbf00d76d	-0.50328714
7	0xbdee5996	-0.11638181
8	0xbe7ebdce	-0.24877092
9	0xbf45b892	-0.77234757
10	0xbf229059	-0.6350151
11	0xbdcb98a8	-0.09941226
12	0xbf429fb7	-0.76024956
13	0x3f2df2ec	0.67948794
14	0xbd8ffcd4	-0.07030645
15	0x3e876dc2	0.26450926
16	0x3d97faf4	0.074209124
17	0x3e130f4e	0.14361307
18	0xbf3d107b	-0.7385327
19	0xbeabe2bd	-0.33571425
20	0xbc4198e3	-0.011816236
21	0xbf386003	-0.720215
22	0x3eef384e	0.46722645
23	0xbf21bc99	-0.631784
24	0xbe372528	-0.17885268
25	0x3f247f7d	0.6425703
26	0x3f4e1c0b	0.8051154
27	0x3e9a9d24	0.30198014
28	0xbec27d3e	-0.37986177
29	0xbf4a5992	-0.79042923
30	0x3f2e4a9a	0.6808258
31	0x3da5beb3	0.080930136
32	0x3f4a829d	0.7910555
33	0xbef34121	-0.47510627
34	0xbe9a4a44	-0.30134785
35	0x3f28e209	0.659699
36	0xbf2d84e6	-0.6778091
37	0xbf1c0903	-0.6095125
38	0x3eae3095	0.3402144
39	0xbe12786c	-0.1430375
40	0x3e984c17	0.29745552
41	0x3ecd2ca0	0.4007311
42	0xbefc1b7e	-0.49239725
43	0xbf391477	-0.7229685
44	0xbec14a06	-0.37751788
45	0xbf0ad0ce	-0.5422486
46	0xbdc935c2	-0.098247066
47	0xbe207672	-0.15670183
48	0xbe9e5ed6	-0.3093173
49	0x3e25396f	0.1613519
50	0x3f00fd3c	0.50386405
51	0xbe6b32bf	-0.22968577
52	0x3edb6a1b	0.4285439
53	0x3f1a8d41	0.60371786
54	0x3eaed251	0.34144834
55	0x3f23af9a	0.6393982
56	0x3eb05a2a	0.3444379
57	0xbe4cf56c	-0.20015496
58	0x3edddfb0	0.43334723
59	0xbe5a404e	-0.21313593
60	0xbe4805e0	-0.19533491
61	0x3ed82b13	0.42220363
62	0xbf08f005	-0.5349124
63	0xbf48ed0b	-0.784867
64	0x3bb0d949	0.005396996
65	0x3f04ec1e	0.51922786
66	0x3edcb4b6	0.43106622
67	0xbf408d58	-0.75215673
68	0x3e1e6962	0.15469888
69	0x3f45030e	0.76957786
70	0xbf2fbd69	-0.6864839
71	0xbf0342fb	-0.5127408
72	0x3f2411d2	0.6408969
73	0xbf24532e	-0.6418942
74	0x3e285eb9	0.16442384
75	0x3ec12724	0.37725174
76	0xbef2b691	-0.47404912
77	0xbf19e558	-0.60115576
78	0x3ef24ded	0.47325078
79	0x3ed1d27f	0.40980908
80	0x3e16ba59	0.14719523
81	0xbee8cf73	-0.4547077
82	0xbf2b3851	-0.66882807
83	0x3ecb7afa	0.3974226
84	0x3e323222	0.17401937
85	0xbf235d1d	-0.63813955
86	0xbe809f65	-0.25121608
87	0x3ecddecd	0.40209046
88	0x3ecdf2fd	0.40224448
89	0x3f2405fd	0.6407164
90	0xbeebee94	-0.46080458
91	0xbf28f7b3	-0.6600296
92	0xbea71d64	-0.3263961
93	0xbf1626e0	-0.5865307
94	0xbe9f6b99	-0.31136778
95	0x3f1ba97a	0.60805476
96	0x3ebebc6c	0.3725313
97	0xbeea50f3	-0.45764884
98	0xbf3bb14d	-0.73317415
99	0xbecd299e	-0.40070814
100	0x3f3e44ef	0.74323934
101	0xbeaa7d3b	-0.33298668
102	0x3ea8f850	0.33001947
103	0x3f40274d	0.7505997
104	0x3e95ff03	0.2929612
105	0x3e400995	0.18753655
106	0xbf38761a	-0.7205521
107	0x3f2cc9e7	0.6749558
108	0xbf3accaf	-0.7296857
109	0x3f0edcd4	0.55805707
110	0xbf355423	-0.7083151
111	0xbeb58709	-0.35454586
112	0x3f0d078f	0.5508966
113	0xbf47e5e7	-0.7808518
114	0x3ea50bd1	0.32235578
115	0xbedb45c5	-0.42826667
116	0x3c2f0fe6	0.010684943
117	0xbf03abd0	-0.5143404
118	0xbf21fc0e	-0.6327523
119	0xbf0b7b1a	-0.54484713
120	0xbebb78c1	-0.36615565
121	0x3ead0390	0.3379178
122	0x3f23cc1a	0.6398331
123	0x3ec371c4	0.38172734
124	0x3ea69615	0.32536379
125	0x3ec50d6d	0.38486806
126	0xbbf82b21	-0.0075735007
127	0x3e24d30d	0.16096134
128	0x3ddbf41f	0.10739922
129	0x3e677bda	0.2260584
130	0x3e689fa1	0.22717144
131	0x3f48f0c6	0.7849239
132	0x3ecf7b27	0.40523645
133	0x3ca95eef	0.02067515
134	0xbe12f558	-0.14351404
135	0x3e7c7cbe	0.2465696
136	0x3f2a94f2	0.6663352
137	0x3ec19232	0.3780685
138	0x3e8e0a85	0.277424
139	0x3e67cda5	0.22637041
140	0xbe94af8f	-0.2904019
141	0x3f14af13	0.5807964
142	0x3e5247f8	0.20535266
143	0x3ecea5b7	0.40360805
144	0x3f2e7de1	0.68160826
145	0x3d3c9330	0.046038806
146	0x3f2885d2	0.65829194
147	0xbeb25921	-0.34833625
148	0x3eebf2ec	0.46083772
149	0xbed2af31	-0.41149285
150	0xbd01f273	-0.03172536
151	0x3eb71a46	0.35762233
152	0x3f38d1cd	0.7219513
153	0x3e1ac8f4	0.1511572
154	0xbd841218	-0.064487636
155	0x3efde632	0.49589688
156	0x3eec2c57	0.4612758
157	0xbf4bf8d5	-0.7967656
158	0xbf2d635a	-0.67729723
159	0x3f3f67f3	0.7476799
160	0xbf1d07e2	-0.61340153
161	0x3f47eebc	0.78098655
162	0x3f390a73	0.7228157
163	0x3ea08db2	0.31358105
164	0xbf00feb4	-0.50388646
165	0xbe197770	-0.14986968
166	0xbef1e689	-0.47246197
167	0x3f36e3ae	0.7144116
168	0xbe0b54b2	-0.13606527
169	0x3e8ee070	0.27905607
170	0x3edc55d9	0.43034247
171	0xbe19da2a	-0.15024629
172	0xbf215e67	-0.6303467
173	0xbf4406be	-0.7657279
174	0xbcad39df	-0.02114576
175	0x3ef61eb2	0.48070294
176	0x3f1f6450	0.6226244
177	0x3e8fd601	0.2809296
178	0x3f4a950a	0.79133666
179	0x3c9bd67e	0.019023176
180	0x3eaa50cb	0.33264765
181	0xbda83fa1	-0.08215261
182	0x3ef521a8	0.4787724
183	0x3eef9de7	0.46800157
184	0x3ef05da4	0.46946442
185	0xbf390897	-0.7227873
186	0xbe9597a9	-0.2921727
187	0xbf1784a1	-0.5918675
188	0xbf00fda1	-0.50387007
189	0xbea08031	-0.31347802
190	0x3f39f17c	0.726341
191	0xbe1efcb2	-0.15526083
192	0xbf4b1cab	-0.7934062
193	0x3cbda503	0.023149973
194	0x3ea7d690	0.32780886
195	0x3ec672f0	0.38759565
196	0xbe62c325	-0.22144754
197	0xbedf719d	-0.43641368
198	0xbdd1aeb4	-0.102384
199	0x3c8d2102	0.017227653
200	0xbf222532	-0.63338006
201	0xbf0b876a	-0.545035
202	0xbe85bd53	-0.26121005
203	0x3e93a18c	0.28834188
204	0x3f375dfe	0.71627796
205	0xbbe38f02	-0.006944538
206	0xbf2aa85d	-0.6666315
207	0x3f2f1e08	0.684052
208	0xbedcb664	-0.43107903
209	0xbf22ee63	-0.63645
210	0x3eb429a8	0.3518803
211	0x3e138234	0.14405137
212	0xbec48bfa	-0.38388044
213	0xbf518461	-0.8184262
214	0x3f01b4a2	0.5066625
215	0x3e72f5d2	0.23726586
216	0x3dd856b0	0.10563409
217	0x3e8a6196	0.27027577
218	0xbe92991b	-0.28632435
219	0x3e93ad4d	0.28843156
220	0x3efbc29c	0.49171913
221	0xbf0cad76	-0.5495218
222	0x3c7809c2	0.015139045
223	0xbeaf6499	-0.34256437
224	0x3eb97e1e	0.36229032
225	0x3e8bf211	0.2733312
226	0xbe9d9dee	-0.30784553
227	0xbecdab4a	-0.40169746
228	0x3f3728b5	0.7154649
229	0x3f14a8e7	0.58070225
230	0xbceee27b	-0.029160729
231	0xbd91b542	-0.0711465
232	0x3f3abebe	0.729473
233	0xbeb7582d	-0.3580946
234	0xbe969b2c	-0.29415262
235	0xbf0c0a2d	-0.54703027
236	0x3e83e290	0.2575879
237	0x3f304766	0.68858945
238	0xbe750b85	-0.23930176
239	0x3f4e5010	0.80590916
240	0x3eb14392	0.34621865
241	0xbdeb9ac4	-0.115041286
242	0x3ea8862b	0.32914862
243	0x3f3ca028	0.7368188
244	0x3f2ffeb1	0.68748003
245	0xbf18595a	-0.5951134
246	0x3e9801a1	0.29688743
247	0x3f294a48	0.6612897
248	0xbf07bde8	-0.5302415
249	0xbf135046	-0.5754436
250	0xbde0606f	-0.10955893
251	0x3d48b8e7	0.04900446
252	0x3e464655	0.19362767
253	0x3f2a5bad	0.66546136
254	0xbeb1f570	-0.34757566
255	0xbef8af36	-0.48571175

linear_sigmoid_stack.0.bias f4 [16]
0	0xb9280ae5	-0.00016025787
1	0xb881cf71	-6.189838e-05
2	0x37a53581	1.9694447e-05
3	0xb86934d0	-5.5600714e-05
4	0xb7a18c50	-1.9258034e-05
5	0xb92fb750	-0.0001675759
6	0x38cbd30f	9.719107e-05
7	0xb8c4ea81	-9.389688e-05
8	0x38c8f7b7	9.582884e-05
9	0xb931c818	-0.00016954576
10	0x39393dab	0.00017665948
11	0xb8f79f72	-0.00011807577
12	0x37f05a51	2.8652286e-05
13	0xb920f375	-0.00015349484
14	0x38fd66fc	0.000120831624
15	0x39aa0d6d	0.0003243493

linear_sigmoid_stack.2.weight f4 [4, 16]
0	0xbe86d942	-0.2633763
1	0x3eace8ba	0.33771306
2	0x3d94f2ad	0.07272849
3	0xbec9919c	-0.39368904
4	0xbf1530f9	-0.5827785
5	0xbf23c592	-0.63973343
6	0xbf07fc0c	-0.5311897
7	0x3ec0c46c	0.37649858
8	0xbeec4e68	-0.4615357
9	0xbe153781	-0.14571954
10	0x3f1a92c9	0.60380226
11	0x3ee39785	0.44451538
12	0x3eeae720	0.4587946
13	0x3c96ebda	0.01842301
14	0x3ecbcebe	0.3980617
15	0xbc96523c	-0.01834976
16	0xbd3352c8	-0.04378012
17	0xbed79652	-0.42106873
18	0x3ee0164a	0.43767005
19	0xbec9bfb7	-0.3940408
20	0x3e931111	0.28723958
21	0x3e8b6ee8	0.27233052
22	0xbe903a4e	-0.28169483
23	0x3c597cd3	0.013274389
24	0xbdbbd052	-0.09170593
25	0x3f208a79	0.6271129
26	0x3f09e3f0	0.5386343
27	0x3e83fc8e	0.2577862
28	0x3f205e70	0.626441
29	0x3e1035b3	0.14082985
30	0xbed191c0	-0.4093151
31	0x3e5f2137	0.21790014
32	0x3ea4689b	0.32111058
33	0x3f0dc353	0.55376166
34	0xbd26175d	-0.040549625
35	0x3d6de112	0.058075972
36	0xbe55edcb	-0.20891492
37	0x3f01cf03	0.507065
38	0xbee4a0fd	-0.44654074
39	0x3e6b8ff8	0.23004138
40	0xbe8d4e2a	-0.27598697
41	0x3ee70aaf	0.45125338
42	0xbf3177de	-0.6932353
43	0x3e651d2c	0.2237441
44	0xbe21954d	-0.1577961
45	0x3e8caafe	0.27474207
46	0xbee4bf4b	-0.44677195
47	0xbf1bc756	-0.6085104
48	0xbd27bf4b	-0.040953916
49	0xbea54ba1	-0.32284263
50	0xbe15525a	-0.14582196
51	0x3e372bda	0.17887822
52	0x3f1805df	0.5938396
53	0x3e6dcf85	0.23223694
54	0xbe2ccf00	-0.16875839
55	0x3d73f9eb	0.059564512
56	0xbdd1c8ab	-0.102433525
57	0x3df5521f	0.11978554
58	0x3e8da012	0.27661186
59	0x3e778b5f	0.2417426
60	0xbe40b712	-0.18819836
61	0x3e18a656	0.14907202
62	0x3eaf9417	0.3429267
63	0xbf101ced	-0.5629414

linear_sigmoid_stack.2.bias f4 [4]
0	0x398cedeb	0.00026880144
1	0xb92f9188	-0.00016743515
2	0xbae1c9b8	-0.0017226255
3	0xba16b0b0	-0.00057483744

last_fc.weight f4 [1, 4]
0	0x37ee2439	2.8388678e-05
1	0x381d3472	3.748056e-05
2	0x379b462f	1.8510122e-05
3	0x38001a58	3.0542113e-05
