Trained_paremeters/nn_checkpoints_CHRNA6_sage.pth (torch, 3863 bytes, 5 tensors)

linear_sigmoid_stack.0.weight f4 [16, 21]
00000000: 6e49 ffbe 896d 3abe 11ef 11bf 7bc4 50bd
00000010: d006 f53c 035a ce3e 25df 63bc a26d 283f
00000020: e3d5 82bd ad1c abbe c2bf 253f 9d8d 2f3e
00000030: f2fe 803d 715a b9be d2e7 1a3f 25de cebd
00000040: bfa9 0dbf 2a36 f2be f25a 08bf 166b 80be
00000050: c3dd 3fbf 50a8 aebd db04 373f d973 433e
00000060: fc11 19bd 380a 0bbf 6978 44bf ffbc 383f
00000070: 7e61 5abe 4a71 0d3f 08a6 20bf c982 b9be
00000080: 026a 4f38 06e9 393f acd4 293f 23aa 48bf
00000090: e82d c2be 69e9 b93d 4da3 303e 7013 873e
000000a0: fa2a 223e f487 743e e043 313f 3660 ad3d
000000b0: 2113 d63e 5f7a 643e 934b 253f f1c3 79be
000000c0: 7d91 3cbf 0066 8cbe 5a03 5c3e 421b 1cbe
000000d0: 250c 973d 3802 92be b4c9 ad3e b9a6 1dbf
000000e0: dfd4 2a3f f99a 07bf 12d0 143f 1f7c 20bf
000000f0: 0dfa d3bd 757e 1d3f 5aa2 293f 5305 943e
00000100: 0a1e df3c 2af0 54be 1ec3 293f 9cfc 51bd
00000110: 841d 4fbd 8c16 4ebf dfd3 22bf b4b1 383f
00000120: 7202 6c3e 4164 713e e456 df3e 3bb0 65be
00000130: 7132 5cbe a19d 45bf 1669 343f b747 003f
00000140: 32c5 153f 95d4 563e e2a0 e23e db26 ddbe
00000150: adb4 1bbf 9b81 e93e e606 173d 389a 0f3d
00000160: 8a0a 093f 43bb d83e 9d4d 343f 1766 1b3f
00000170: 4d9e 1d3f 924b 183f 4771 183f 1fc5 b8bc
00000180: b877 0fbf 8a34 29bf bf0e c3be 7eb2 21bf
00000190: a3be adbd 50f5 4d3f 5198 dabe 3579 063e
000001a0: ad52 a53e a29c 06bf df6c 453f a2a1 eb3e
000001b0: 09cb cebe 57e7 6abe 4cbe 3f3f b758 57be
000001c0: 1d3e af3e 4e84 363e 5c73 4a3f 36f9 34bf
000001d0: 399e 30bf b27b 523e 93f1 813e a8b7 38bf
000001e0: ff2e 993e b362 55bd 1f78 82be e1e6 06bf
000001f0: ce1f 013f 2e25 3cbe bb09 bbbe 0af7 993e
00000200: 44ca 363e 1ac3 e43e 3985 453f 6e32 b03d
00000210: d206 66be 3e62 203d 6187 3f3f edb4 c33d
00000220: 61ed 4fbe 9af4 6bbe f7e6 2dbe 1f22 033f
00000230: 5dd8 513e bd2b e9be 31ca 1c3f 5541 473f
00000240: 0392 0e3f 6ac9 4c3f 1515 423f 7fdf b33e
00000250: f9de 5fbd 5aca 7d3e ef5a 553e cfbd b83e
00000260: 415e 83be d1c3 2c3f 1d9c 603d c973 36bf
00000270: b121 12bf 3352 513e f627 813e efce f83d
00000280: 919f a13e 4198 c73e bb2e c83d 617b 23bf
00000290: b274 3d3f 4e7b d83e 1b70 21bf 8039 50be
000002a0: 880d 1bbf b895 233f 9813 293f ad81 15bf
000002b0: add1 4f3f 3aa2 88bd 14b9 2abe bf9d 35bf
000002c0: 7817 57be ae9e 4c3f 7825 213f b1f5 003f
000002d0: e494 a63e 133b 4a3f bb85 b9be d694 37be
000002e0: b7a6 023f b32b ab3e db6d cd3d 9ac1 95be
000002f0: f5c3 cf3d 82a8 b13e 86f0 983e a2d3 3ebf
00000300: c9db 63bb ab63 2b3e 0d7d f1be 9208 5b3e
00000310: 8770 68be 1015 243f b538 0e3f 07cc f7be
00000320: a68b 0c3f af4a 2dbf 66aa e13e 3fb0 5c3d
00000330: 900a acbe 9a4e cdbb 1532 313e 4382 453f
00000340: 7b5e 8a3d 160a 0fbe 7151 bd3d 49db 183f
00000350: ab9d e73c a695 7f3d cd0c 3fbe 98a2 333f
00000360: de3c 083f 9558 d73e 66d1 dabe aa3d 08bf
00000370: b0e3 87be 73b9 16bf bbe6 2e3f d2df 45bf
00000380: 4fdc 4b3f ed31 0c3e d5d8 3bbe ecf0 203f
00000390: 0e86 203e 8d8f debe 4cf3 81be 1d9e 3ebf
000003a0: 7ff7 f53e febd 393f 51a1 923e 4b42 7cbe
000003b0: 52e4 2f3f 50eb 203f 0a6c 793e 0ccc c33e
000003c0: 572b ae3e d475 b5bd ed20 3abf bc3a 28bf
000003d0: 0faf 45bd 61e5 11bf 8f00 3f3f 2531 813d
000003e0: 7ebf d83d 6587 21bc 88b3 24bf d5c8 12bd
000003f0: 3031 1abe 234f 18bd 25f0 d63e e357 0bbf
-0.4986071 -0.18205847 -0.5700541 -0.05096863 0.029910475 0.40303048 -0.013908182 0.65792286
-0.06388452 -0.33420315 0.64745724 0.17143865 0.06298627 -0.36201814 0.6050998 -0.101009645
-0.55337137 -0.4730695 -0.5326377 -0.250817 -0.74947757 -0.08528197 0.71491784 0.19087161
-0.037370667 -0.5431247 -0.7674623 0.72163385 -0.21326253 0.5525099 -0.62753344 -0.36232594
4.9451373e-05 0.7262119 0.66340137 -0.7838461 -0.3792565 0.090777226 0.17249794 0.26382017
0.15836707 0.23879987 0.69244194 0.084656164 0.4181147 0.22312306 0.6456844 -0.24391152
-0.736595 -0.2742157 0.21485654 -0.15244773 0.07375363 -0.28517318 0.3394295 -0.61582524
0.66731066 -0.52970845 0.5812999 -0.62689394 -0.10350428 0.61521083 0.66263354 0.28910312
0.027236003 -0.2079474 0.6631335 -0.051266298 -0.050565258 -0.80503154 -0.6360454 0.72146153
0.23047808 0.235734 0.4362098 -0.22430508 -0.21503617 -0.7719365 0.7047285 0.5010943
0.5850402 0.20979531 0.4426337 -0.43193707 -0.60822564 0.45606694 0.036871813 0.035059184
0.53531706 0.4233037 0.7043093 0.6070265 0.6156967 0.5949031 0.5954785 -0.022554932
-0.5604205 -0.66095793 -0.38097188 -0.6316298 -0.08483627 0.8045244 -0.42694333 0.13132174
0.3228964 -0.5258275 0.7711925 0.46021754 -0.4038928 -0.22939812 0.74899745 -0.21029936
0.34227076 0.17823908 0.79082274 -0.70692766 -0.6899143 0.20554999 0.2537962 -0.7215524
0.29918668 -0.05209608 -0.2548227 -0.52696043 0.50439155 -0.18373558 -0.3653086 0.30071288
0.17850596 0.446801 0.77156407 0.08603369 -0.22463539 0.03915619 0.74815947 0.09555993
-0.20305397 -0.23042527 -0.16982637 0.5122394 0.20492692 -0.45541182 0.6124602 0.77834064
0.55691546 0.79994833 0.7581342 0.3513145 -0.054656003 0.24784222 0.2083547 0.36082312
-0.25657848 0.6748629 0.05483638 -0.71270424 -0.5708266 0.20441513 0.252258 0.121488445
0.31567052 0.38983348 0.09774538 -0.63860136 0.7400619 0.42281574 -0.63061684 -0.20334435
-0.6056752 0.6390033 0.6604552 -0.58400995 0.81179315 -0.06671567 -0.16672164 -0.70943826
-0.21005046 0.79929626 0.629478 0.50374895 0.3253547 0.7899639 -0.3623484 -0.1792787
0.51035637 0.33431777 0.10030719 -0.2924927 0.10144798 0.34698874 0.29871005 -0.74541676
-0.0034768453 0.16737239 -0.4716572 0.21389988 -0.22699176 0.6409464 0.5555528 -0.48397848
0.54900587 -0.67692083 0.44075316 0.05387902 -0.3360181 -0.0062654736 0.17304261 0.7715189
0.06756302 -0.13968691 0.09244049 0.597096 0.028273424 0.062398575 -0.18657227 0.70169973
0.53217876 0.4205977 -0.42737883 -0.5321909 -0.265409 -0.58876723 0.68320817 -0.7729465
0.7963304 0.1369092 -0.18344434 0.6286762 0.15676138 -0.43468896 -0.25380933 -0.7446001
0.48040387 0.7255553 0.286387 -0.24634664 0.68707764 0.6285906 0.2435762 0.38241613
0.3401744 -0.088603646 -0.7270649 -0.6571462 -0.048262652 -0.5699063 0.7461023 0.06308202
0.10583399 -0.009858941 -0.6433644 -0.03583606 -0.15057826 -0.037184846 0.4198009 -0.5443098

linear_sigmoid_stack.0.bias f4 [16]
00000000: b2a1 0d3c 10fd 123b 6840 a2ba 521e 89bb
00000010: 7704 daba d4e5 43bb a4af 1ebb f89e b33b
00000020: cbbb 573b 1089 f43a 22b8 11b9 35d6 76b9
00000030: 06da e9b9 2050 f2bb c3f5 8c3b 5340 54bb
0.008644508 0.002242867 -0.0012378814 -0.0041845227 -0.0016633411 -0.0029891627 -0.0024213577 0.005481597
0.003291833 0.001865657 -0.00013896872 -0.00023540187 -0.00044603663 -0.0073948056 0.004301758 -0.0032386973

linear_sigmoid_stack.2.weight f4 [4, 16]
00000000: b7fd 42be 876c b6be dba1 ba3c cf43 f9bc
00000010: a964 b53e a930 4b3e c6c8 343f 97f3 f1be
00000020: 2dd8 0fbe c525 29bf 1ea6 b5be f29b d3be
00000030: c5c3 bebd bb0d 023f dbcc 09bf 2194 e53e
00000040: 2462 263f 1255 edbd 595e 6cbe cbab d5be
00000050: 9fc2 b8bd 7f2b f0be b891 0ebf 75f1 c03e
00000060: 51d0 cf3d 1a88 aabe 83fe 16be 5a32 1dbf
00000070: 3589 a63e 9e13 00bf 60d4 74bc be89 5b3e
00000080: 1d5a 2bbf 88e1 003f c732 3fbe 09f4 f03e
00000090: 71d8 b83e 31fe c8bd 1b25 153f d898 b6be
000000a0: 6adf cd3a a15a 92be 15ea 6c3e 800b 813e
000000b0: d39c 8d3e 66ff bc3e ec6c debe eee1 8f3e
000000c0: f45b d93e 4a86 1b3f 3b72 ddbe 76e6 1ebd
000000d0: 36b9 0d3f 2b90 99be 190c 1e3f c026 bd3d
000000e0: df11 223e 30e0 00bf c9f9 5cbe 0843 cc3d
000000f0: 6c96 a9be 887e 66bd 8577 44be e937 133e
-0.19042097 -0.35629675 0.022782257 -0.030427841 0.3542836 0.19842781 0.70618856 -0.47256157
-0.14047308 -0.66073257 -0.354783 -0.41329914 -0.09314684 0.508022 -0.5382821 0.44839576
0.649935 -0.115884915 -0.23082866 -0.4173263 -0.09021496 -0.46908185 -0.556911 0.37684217
0.10147155 -0.33306962 -0.14745526 -0.61404955 0.32526556 -0.50029933 -0.014943212 0.21439263
-0.66934377 0.50344133 -0.18671714 0.47061184 0.36102632 -0.09814108 0.58259743 -0.35663486
0.0015706841 -0.2858477 0.2313617 0.25204086 0.2765871 0.36913604 -0.43442476 0.28102058
0.42452967 0.60751784 -0.43251213 -0.038794003 0.55360734 -0.29992804 0.6173721 0.092359066
0.1582713 -0.5034208 -0.2157966 0.09973723 -0.33122575 -0.056273013 -0.19186218 0.14376797

linear_sigmoid_stack.2.bias f4 [4]
00000000: 1043 aebc ebe3 493c e85c 5abc e54a 443c
-0.021272212 0.012322406 -0.013327815 0.011980747

last_fc.weight f4 [1, 4]
00000000: ffc6 b5be 04ba b63e 92c7 5abe f32b ea3d
-0.35503384 0.35688794 -0.21365193 0.11434164
