Trained_paremeters/nn_checkpoints_CHRNB3_ukb_y1002.pth (torch, 4311 bytes, 5 tensors)

linear_sigmoid_stack.0.weight f4 [16, 28]
00000000: 7add 4a18 4bd1 4c19 f940 7119 d3a5 a519
00000010: 0fbb f919 3c2e c019 fc77 6d99 757d 1a99
00000020: 5f75 d399 e638 4e19 40b8 be19 0f7d b319
00000030: 2452 4818 5806 c219 a14b ab19 e314 7c99
00000040: 9588 d999 7346 1698 ad6a e298 72cf 3899
00000050: d213 3499 56fa 8019 f1d4 3419 e6b8 2898
00000060: 821e b199 3723 bd19 5da7 f999 7e20 e999
00000070: 9637 f819 ae76 8f19 94ba b499 0e0b 4519
00000080: 7c2a a817 0312 ab19 99c7 fd18 c114 c119
00000090: 0461 5517 c752 d319 3439 3318 2daf 8319
000000a0: 089a 1718 79fb ec19 06fe ed98 c843 c219
000000b0: c221 cd19 7c95 a199 efc1 b719 f28a 3a99
000000c0: d17d 4219 c37a e919 8b6f 5519 eff9 f419
000000d0: 35cd 8599 853c 6e99 e2bd ac99 e3dc c219
000000e0: 55a9 a799 c164 2619 cf40 8799 f789 e398
000000f0: 62fe 5719 fa55 a419 6fc2 de99 87e4 f098
00000100: b1e4 c198 c10e 8b99 f26b 0718 ad08 9999
00000110: ced5 b619 d1ba be19 ce1c 5999 f774 ed98
00000120: 1e5c 5f99 afc7 2a18 77c6 0919 ee95 4a19
00000130: 9314 ef99 20ea de19 a8aa 7499 85a3 c019
00000140: ece2 b899 5260 dc19 195c 6d19 a67c 7599
00000150: 85a4 d097 a33b 0e98 2b1c 2819 7901 0f99
00000160: 3055 e096 6415 b198 3e97 b299 d1d0 f819
00000170: dbb0 d619 abc2 dc19 d7f7 7e99 b030 2399
00000180: 385f d998 f707 1819 18e8 9619 194e a599
00000190: 1116 6c99 8473 a819 ef68 c299 8aab 1118
000001a0: 7725 ce18 1633 e898 0d6a 9599 32e2 1819
000001b0: e603 b798 affc d098 aca0 7d99 9ad2 8619
000001c0: 19d5 db99 10f9 f699 53c4 8819 10cf fa99
000001d0: 3663 ef18 df49 c599 17ca 4718 5a09 4819
000001e0: e7c2 b119 6ab8 9699 9a17 8417 97e4 c419
000001f0: efd1 ed99 a661 e899 3955 cb99 a04c 8f99
00000200: 78ea f799 7431 b018 8046 6019 b80c d119
00000210: d74f f319 e74a 9819 dd3d dc19 3ef3 b618
00000220: bf84 4a99 57a3 fa99 a4e8 c898 27c2 ce99
00000230: 08e5 3119 0d63 4817 b9d6 4219 8bdb 2199
00000240: 1bcd 2219 ba96 9419 2e0a ce19 e80f be99
00000250: 233f d399 318c 4b99 00ac b099 d76b a119
00000260: f76f 1219 7d9d 3099 edde 2a19 b9cb 3499
00000270: 388d 4899 c468 9099 c643 c999 d783 c499
00000280: 25b6 c296 acc6 5c99 c567 df19 b5ee a017
00000290: 1d34 cc18 552a ee19 0763 6399 0388 6d99
000002a0: 21c5 cf19 9853 2099 33c4 8e99 4cd7 fe99
000002b0: 6c83 ca98 6a32 cb98 2c63 f119 b9b2 ef99
000002c0: f07e b016 5a02 fd19 f86b 8019 e580 2f17
000002d0: 9c65 2c99 2566 d399 e9f6 9f99 254e 6419
000002e0: 3afc 7719 80e9 fe19 55da 8499 71fc d298
000002f0: bc2c 4719 237a 8d19 dcbb b619 0d1c cc17
00000300: 033c dd98 fb1b c399 2055 6999 b5e3 8d18
00000310: af91 3b19 35f5 9199 b1bf 2b19 9431 ae99
00000320: f89c aa99 e05e d816 b3d4 f999 0a9a c619
00000330: 9322 ea19 0c6a 2218 2c6a 7818 fe98 5499
00000340: 1d25 c399 0d47 fa99 c670 4118 e902 8b19
00000350: 5596 6c18 a23d b219 49b1 a999 1f91 4718
00000360: 1f89 9119 7a0f e819 9cd9 7819 6380 7d99
00000370: 71a7 8919 c2bf 6999 1ef4 5199 107b dd19
00000380: 4362 a499 16b4 5f18 0573 c018 71f5 8e18
00000390: 3355 6f99 68b3 9419 36dc 0819 76fb 4919
000003a0: 49b0 db99 1a23 8119 601a d619 689b dc99
000003b0: 8ceb 2718 84db 8e99 4c7e e719 a3a8 b798
000003c0: 26c6 a819 ab5e e798 eb43 c899 b163 2418
000003d0: 6c76 a418 3be8 1819 77a9 bb19 f13b 1299
000003e0: e8c2 a599 14c5 9098 5bb2 d119 4884 ce99
000003f0: dae3 6899 8398 8119 aa1c 6098 61d1 4d99
2.6219705e-24 1.0588819e-23 1.2472529e-23 1.7127576e-23 2.5821549e-23 1.9871009e-23 -1.22768435e-23 -7.986949e-24
-2.1864294e-23 1.0661441e-23 1.9719958e-23 1.8558677e-23 2.5890865e-24 2.0061692e-23 1.7711532e-23 -1.3032313e-23
-2.2492439e-23 -1.9422613e-24 -5.8527346e-24 -9.55447e-24 -9.3097846e-24 1.3336e-23 9.348785e-24 -2.180684e-24
-1.8313693e-23 1.9556365e-23 -2.5813594e-23 -2.4104759e-23 2.566505e-23 1.4833788e-23 -1.8686922e-23 1.0186894e-23
1.086747e-24 1.768826e-23 6.560051e-24 1.9964115e-23 6.8946463e-25 2.1850322e-23 2.3164088e-24 1.3615835e-23
1.9594058e-24 2.4503397e-23 -6.1519562e-24 2.0086506e-23 2.1210138e-23 -1.6707386e-23 1.9000086e-23 -9.6440344e-24
1.0054973e-23 2.4141218e-23 1.1034368e-23 2.5329956e-23 -1.383476e-23 -1.23165334e-23 -1.7861076e-23 2.0148345e-23
-1.7335788e-23 8.602346e-24 -1.3984849e-23 -5.8817434e-24 1.1166612e-23 1.6991928e-23 -2.3032793e-23 -6.22693e-24
-5.012025e-24 -1.4378222e-23 1.750284e-24 -1.5823333e-23 1.8904714e-23 1.9720994e-23 -1.1224454e-23 -6.138117e-24
-1.1547433e-23 2.20728e-24 7.122814e-24 1.0473433e-23 -2.472033e-23 2.3048824e-23 -1.2648968e-23 1.991838e-23
-1.9116807e-23 2.278637e-23 1.2271212e-23 -1.2691376e-23 -1.3483216e-24 -1.8383179e-24 8.691085e-24 -7.393224e-24
-3.6242913e-25 -4.5775027e-24 -1.8465855e-23 2.572694e-23 2.2198513e-23 2.2826093e-23 -1.3181543e-23 -8.436735e-24
-5.618933e-24 7.859824e-24 1.5603378e-23 -1.7092144e-23 -1.220537e-23 1.741745e-23 -2.0101512e-23 1.8827416e-24
5.328758e-24 -6.0022178e-24 -1.5449072e-23 7.9038956e-24 -4.7308328e-24 -5.4021885e-24 -1.3112241e-23 1.3940337e-23
-2.2730139e-23 -2.55364e-23 1.4141365e-23 -2.5933026e-23 6.188023e-24 -2.0399159e-23 2.5822176e-24 1.0341646e-23
1.8380091e-23 -1.558412e-23 8.536258e-25 2.0358252e-23 -2.4590017e-23 -2.4027678e-23 -2.1024129e-23 -1.4816802e-23
-2.5633903e-23 4.554487e-24 1.1594766e-23 2.161523e-23 2.5157858e-23 1.5746684e-23 2.2772453e-23 4.729151e-24
-1.0469963e-23 -2.5915367e-23 -5.1933695e-24 -2.1378318e-23 9.196938e-24 6.4748505e-25 1.0072928e-23 -8.367841e-24
8.4166244e-24 1.536372e-23 2.1304012e-23 -1.9651964e-23 -2.184239e-23 -1.05231655e-23 -1.8267444e-23 1.6690566e-23
7.570634e-24 -9.130791e-24 8.8338135e-24 -9.346923e-24 -1.03682766e-23 -1.4931566e-23 -2.0810286e-23 -2.0319175e-23
-3.145734e-25 -1.1413855e-23 2.3099572e-23 1.0400016e-24 5.2785385e-24 2.4625721e-23 -1.1755623e-23 -1.228008e-23
2.1482918e-23 -8.288688e-24 -1.47617e-23 -2.6349942e-23 -5.234848e-24 -5.2525175e-24 2.4958871e-23 -2.4784206e-23
2.8514442e-25 2.6160537e-23 1.3278498e-23 5.6708237e-25 -8.9127114e-24 -2.1858145e-23 -1.6539941e-23 1.1803105e-23
1.28205375e-23 2.6357294e-23 -1.3736664e-23 -5.453863e-24 1.0297093e-23 1.4628389e-23 1.8894235e-23 1.3190272e-24
-5.7187757e-24 -2.0173829e-23 -1.20630085e-23 3.667757e-24 9.697094e-24 -1.5091687e-23 8.8792046e-24 -1.8011203e-23
-1.7640987e-23 3.4956557e-25 -2.5831905e-23 2.0534936e-23 2.4208997e-23 2.099155e-24 3.2106852e-24 -1.099104e-23
-2.0177517e-23 -2.5878091e-23 2.5001601e-24 1.4373439e-23 3.0578183e-24 1.8429662e-23 -1.7545795e-23 2.5793415e-24
1.5048031e-23 2.3994489e-23 1.2865245e-23 -1.3105721e-23 1.4233097e-23 -1.2084543e-23 -1.0854346e-23 2.2900569e-23
-1.699689e-23 2.8912995e-24 4.9746977e-24 3.6953972e-24 -1.2373216e-23 1.5375303e-23 7.0755065e-24 1.04422386e-23
-2.271527e-23 1.3352465e-23 2.2137734e-23 -2.2810235e-23 2.1703165e-24 -1.4771118e-23 2.3935851e-23 -4.747467e-24
1.7450824e-23 -5.980769e-24 -2.0706947e-23 2.1246834e-24 4.251258e-24 7.905114e-24 1.9403793e-23 -7.560128e-24
-1.7139322e-23 -3.7422126e-24 2.168213e-23 -2.1353329e-23 -1.2040133e-23 1.3399886e-23 -2.8965793e-24 -1.0640535e-23

linear_sigmoid_stack.0.bias f4 [16]
00000000: 38e9 543a a3c6 8f3a a009 c03a 79e3 1e3a
00000010: d7f6 63b8 c864 40ba 1a5d 02bb 97b9 d5ba
00000020: 265a 17b9 40e8 083a 2155 6a39 2628 e7ba
00000030: 498d 1b3a f4d8 943a 95c9 293a 798d 123b
0.00081219105 0.0010969233 0.0014651306 0.0006061118 -5.4350905e-05 -0.00073392363 -0.0019891919 -0.001630592
-0.00014434065 0.0005222596 0.00022347692 -0.0017635867 0.0005933834 0.0011356161 0.00064768764 0.0022362156

linear_sigmoid_stack.2.weight f4 [4, 16]
00000000: 9970 9e21 663d 9b21 8f59 9222 8ed9 cb22
00000010: d8cc f521 af70 8722 f751 fc20 a4d9 a622
00000020: 5be6 2522 d6fa 1622 ea68 e122 28b3 8322
00000030: b775 04a2 653d c220 1385 cfa0 ea28 d721
00000040: 46b8 2622 a3c7 95a2 1e5c 8fa0 b947 819f
00000050: 28b3 91a2 8e99 1423 eb28 1122 15d7 1ca2
00000060: 1385 ad21 0129 e522 b7f5 6ca2 ed7a 3420
00000070: a347 1da2 0c00 b0a1 ba47 7222 7266 2722
00000080: b7f5 4c22 ec7a 6b22 5b66 1122 a247 2c22
00000090: 98f0 0623 65bd 8122 0c00 de21 7094 1423
000000a0: b7f5 7322 7c3d 06a1 5b66 9e22 a599 4921
000000b0: 09ae 4da2 84c2 3f22 7cbd cd22 9830 0c23
000000c0: a2c7 4122 ae1e b621 a2c7 4222 ec7a 82a1
000000d0: 65bd 1f22 7014 9e21 0129 8c20 518f ca21
000000e0: b7f5 c221 ea28 0622 8e99 c421 7266 8e21
000000f0: cef5 b621 b7f5 5a21 84c2 35a1 b7f5 1222
1.0736301e-18 1.0519461e-18 3.9668203e-18 5.5253605e-18 1.6656067e-18 3.671113e-18 4.27447e-19 4.5224826e-18
2.248362e-18 2.0461582e-18 6.1097454e-18 3.569731e-18 -1.7951654e-18 3.2905506e-19 -3.5155225e-19 1.4579797e-18
2.2594749e-18 -4.0597905e-18 -2.42861e-19 -5.475228e-20 -3.9492018e-18 8.0556125e-18 1.9672826e-18 -2.1255806e-18
1.175816e-18 6.211399e-18 -3.2114044e-18 1.5287266e-19 -2.1315392e-18 -1.1926236e-18 3.2835087e-18 2.2686954e-18
2.7777236e-18 3.1913513e-18 1.970535e-18 2.3348269e-18 7.315102e-18 3.516605e-18 1.5043318e-18 8.054529e-18
3.3062721e-18 -4.548234e-19 4.293436e-18 6.8304796e-19 -2.7874814e-18 2.5988303e-18 5.5765986e-18 7.599705e-18
2.6262062e-18 1.2340921e-18 2.6397587e-18 -8.84168e-19 2.1648783e-18 1.0711906e-18 2.3744057e-19 1.3725988e-18
1.3210992e-18 1.8182046e-18 1.3322122e-18 9.649411e-19 1.2397864e-18 7.4186474e-19 -6.1582625e-19 1.991677e-18

linear_sigmoid_stack.2.bias f4 [4]
00000000: 089e 81bb 9839 d1bb d535 8cbb 430c e23b
-0.0039556064 -0.0063850395 -0.004278878 0.0068984344

last_fc.weight f4 [1, 4]
00000000: ecfa 7fb1 3ef3 b8b1 5cf8 aab1 1f2e 2ab1
-3.7250016e-09 -5.3827582e-09 -4.9758864e-09 -2.4764473e-09
