Trained_paremeters/nn_checkpoints_CHRNB4_ukb_y1002.pth (torch, 4823 bytes, 5 tensors)

linear_sigmoid_stack.0.weight f4 [16, 36]
0	0x39cd7bbc	0.00039192836
1	0xba566bf5	-0.0008179539
2	0xb9891290	-0.00026144506
3	0xba450237	-0.00075152837
4	0xba83f718	-0.0010068147
5	0xb9acf0c6	-0.00032985787
6	0x394d0ea5	0.00019555779
7	0x38e172a0	0.000107501866
8	0xba6ef75a	-0.0009115838
9	0x38607919	5.3518543e-05
10	0x39a7a6b2	0.0003197692
11	0xb9d8aede	-0.00041329017
12	0xba3d6175	-0.00072243
13	0xb984bc49	-0.00025317285
14	0xb982d2e9	-0.00024952673
15	0x39ae683d	0.0003326553
16	0xba027880	-0.00049770623
17	0xb9aba5e4	-0.0003273926
18	0xb8e63630	-0.00010977348
19	0xba28d31d	-0.000644015
20	0xb92106f2	-0.00015356744
21	0x396da0eb	0.00022662028
22	0x3997158f	0.00028817027
23	0x3a4594e2	0.0007537139
24	0xb7417697	-1.1531308e-05
25	0x3902e402	0.00012482706
26	0xb737c1d9	-1.0952784e-05
27	0xb9db7ff4	-0.00041866268
28	0x39fd0a3d	0.00048263549
29	0xba6b5720	-0.0008977521
30	0x39128805	0.00013974316
31	0xba056422	-0.00050884683
32	0xb8731e90	-5.796418e-05
33	0xb8811b92	-6.156335e-05
34	0xb72bb3be	-1.0234244e-05
35	0x39843e93	0.00025223623
36	0xba838cf7	-0.0010036518
37	0xba071ec5	-0.00051544263
38	0x39a71612	0.00031869166
39	0x3a6e3c48	0.0009087962
40	0xbaa2b63d	-0.001241393
41	0x38c0cb04	9.193088e-05
42	0x398a43d1	0.00026371938
43	0x39d21df2	0.00040076632
44	0xb9657ee0	-0.00021886406
45	0xba082c98	-0.0005194633
46	0x3a596757	0.0008293292
47	0x392be034	0.00016391353
48	0x399ee117	0.00030303813
49	0xb8692894	-5.558932e-05
50	0xb9ac7f11	-0.00032901068
51	0x395cc06d	0.00021052519
52	0xba31885e	-0.00067723345
53	0xba87657f	-0.0010329931
54	0x38d8c1a7	0.00010335753
55	0x3a028635	0.0004979105
56	0x3932ff8d	0.00017070603
57	0xb9c43e79	-0.0003743058
58	0x39a93e82	0.00032280764
59	0x3a88b885	0.0010430968
60	0x39aba782	0.00032740465
61	0x3937680f	0.00017491005
62	0x39b6194c	0.00034732593
63	0xb998ab88	-0.000291195
64	0xb94e5a0e	-0.00019679239
65	0xba70d8f6	-0.0009187603
66	0xb9d1a8dd	-0.000399894
67	0x37feb3a0	3.0362804e-05
68	0x38febc80	0.00012146775
69	0x39940d72	0.00028238777
70	0x39d461c5	0.00040508635
71	0x390ba3ba	0.00013317066
72	0x396e7cac	0.00022743893
73	0x3a4c3cb7	0.00077910296
74	0xb9453dbf	-0.00018810386
75	0xba69d16f	-0.00089194527
76	0xbaa61634	-0.0012671412
77	0x381d4a05	3.7500653e-05
78	0x38bcae52	8.997008e-05
79	0x3970adba	0.00022952902
80	0xba194a24	-0.00058475346
81	0x38f3d67c	0.00011627094
82	0xba70b15b	-0.00091817015
83	0xb9cc2c1f	-0.00038942785
84	0xb973bdc3	-0.00023244978
85	0x399679e3	0.00028701042
86	0xb947870c	-0.00019028428
87	0x3a306e43	0.00067302975
88	0x3a0da37c	0.0005403084
89	0xb95f7fb7	-0.00021314515
90	0x39751d9e	0.00023376054
91	0x3a9fa94f	0.0012181195
92	0x399b68a7	0.00029641876
93	0xb85c9160	-5.258748e-05
94	0x39406287	0.00018347251
95	0x3a273784	0.0006378817
96	0x379311da	1.7532078e-05
97	0xb955864a	-0.0002036329
98	0x391ac496	0.00014759818
99	0x385345ba	5.0371258e-05
100	0x3580b523	9.589461e-07
101	0x391292e0	0.0001397836
102	0xb9c11c62	-0.00036832975
103	0x39454a4e	0.00018815065
104	0x38684649	5.537857e-05
105	0x39a6a0ba	0.00031781738
106	0x39f3a427	0.00046470875
107	0xb966cda4	-0.00022011116
108	0xb9aa55fd	-0.00032488993
109	0x3a918c0d	0.001110436
110	0x39792b52	0.00023762629
111	0x3a8d0686	0.001075939
112	0x3a8722ae	0.0010310018
113	0xb9f523b2	-0.00046756637
114	0x3913b84e	0.00014087671
115	0x39c01a29	0.00036640585
116	0x39e8bb03	0.00044389823
117	0xb9525e4d	-0.0002006229
118	0x3a471189	0.00075938605
119	0x38208a91	3.8276023e-05
120	0x3a8c6ed8	0.0010714186
121	0xb9a2e86f	-0.00031072224
122	0xb9da4e7b	-0.00041638673
123	0x398c5837	0.00026768606
124	0xba9b4c37	-0.0011848275
125	0x39df8cfb	0.00042638913
126	0x38de8cf8	0.000106120424
127	0x3aa5a57c	0.0012637819
128	0x3a501bb1	0.00079386967
129	0x39aeaaf1	0.00033315227
130	0xb9aeedd8	-0.00033365074
131	0xbaaa74c5	-0.0013004771
132	0x393da33d	0.00018085256
133	0x39f27bcb	0.0004625007
134	0x392d5670	0.00016530766
135	0xb999c1ad	-0.00029326734
136	0xb8f4f6e1	-0.000116808114
137	0x3a49f74b	0.0007704391
138	0x3888737d	6.506497e-05
139	0xba980876	-0.0011599201
140	0x3683795d	3.918233e-06
141	0xb8aa30d8	-8.1153295e-05
142	0xb8489533	-4.782267e-05
143	0x39877448	0.00025835843
144	0xb93a5722	-0.00017770802
145	0xba7435df	-0.0009315889
146	0xb9bfbed5	-0.0003657254
147	0x3a4457d9	0.0007489897
148	0x3a5d14b4	0.0008433566
149	0x399c963f	0.0002986658
150	0xb9c3aa25	-0.00037320066
151	0xba1e5064	-0.0006039201
152	0x3a6145c1	0.0008593463
153	0x3ace1804	0.001572371
154	0xbaa25555	-0.001238505
155	0x39e28fed	0.00043213312
156	0xba68e79a	-0.0008884609
157	0xb7f0d1a0	-2.8707844e-05
158	0x394ff711	0.00019833098
159	0xba2bed3f	-0.0006558485
160	0x39b956e1	0.0003535068
161	0xba217f4b	-0.0006160631
162	0x38ec0722	0.000112546855
163	0x39d17905	0.00039953753
164	0xba2fa472	-0.00067002245
165	0x3985eaa1	0.0002554255
166	0xb7ada52b	-2.070012e-05
167	0xb9db0e96	-0.00041781802
168	0x39a5eb6b	0.00031646652
169	0x3a1f6fb9	0.00060820166
170	0x39440d5f	0.00018696998
171	0x389d0f73	7.489221e-05
172	0xb9de07ec	-0.00042349042
173	0xba6ed090	-0.0009110058
174	0xb94aab9b	-0.00019328149
175	0xb984cac3	-0.0002532807
176	0xb9a805c8	-0.00032047764
177	0x399b7547	0.00029651282
178	0x397b0eb1	0.00023942698
179	0x39c5d607	0.0003773423
180	0xba7a5861	-0.00095499126
181	0x3860b3af	5.3573105e-05
182	0x39aeca49	0.0003333858
183	0x3a98642b	0.0011626532
184	0xba037d3b	-0.0005015914
185	0x39e4c389	0.00043633234
186	0x39a8d260	0.000322002
187	0x398f0ef7	0.00027286235
188	0xba5f3890	-0.00085152034
189	0x399b1aae	0.00029583782
190	0x3a4b6646	0.00077590754
191	0xb98a1e6d	-0.0002634408
192	0x39b4e1f0	0.00034500612
193	0xb9c8b8eb	-0.00038284747
194	0xb8a434a2	-7.829933e-05
195	0xb96236df	-0.0002157348
196	0x3a48aed1	0.0007655444
197	0xba2bc98e	-0.00065531663
198	0xb9ccb44e	-0.0003904425
199	0xba9b9a3b	-0.0011871526
200	0x39e45521	0.00043550975
201	0x397c7db8	0.00024079427
202	0x39ba6ad4	0.00035556278
203	0x39ba6abe	0.00035556214
204	0x392acc53	0.0001628858
205	0xb9078505	-0.00012924157
206	0x38bec3e9	9.096397e-05
207	0xb9ca7f89	-0.00038623463
208	0x393c9f6a	0.00017988464
209	0x3a8afe24	0.0010604304
210	0xb9bd3426	-0.00036087743
211	0x39feb3a0	0.00048580486
212	0xb9947bef	-0.00028321097
213	0xb9884cf0	-0.00025997264
214	0x392904af	0.0001611884
215	0x3943bfca	0.00018668096
216	0xba83b1bd	-0.0010047477
217	0x3a27a2ad	0.0006394785
218	0x3981a286	0.00024725887
219	0x3a7829f1	0.0009466699
220	0x3a02b166	0.0004985541
221	0xb9a1eddc	-0.00030885532
222	0xb9d685e9	-0.00040917032
223	0x3a0ddbdf	0.00054114865
224	0xba723470	-0.0009239381
225	0x3a686c8d	0.0008866273
226	0x399f6e80	0.00030409172
227	0xb92ffae5	-0.00016782766
228	0xba8e057d	-0.0010835376
229	0xb93ea00b	-0.00018179433
230	0x39436d97	0.00018637475
231	0x37107c59	8.612021e-06
232	0x38e3952d	0.0001085199
233	0xb87f614c	-6.0887352e-05
234	0xb97a9d2b	-0.00023900408
235	0x3a44ff4b	0.0007514848
236	0xb94ca733	-0.00019517243
237	0x396172b3	0.00021500401
238	0xb9a780fc	-0.00031948823
239	0x3a216b2e	0.00061576336
240	0xb8efe936	-0.00011439847
241	0xb96de1ee	-0.00022686247
242	0x39b64f48	0.00034772814
243	0xb8a07e24	-7.65289e-05
244	0xb92ffa2f	-0.00016782501
245	0xb9bdf8c2	-0.00036234228
246	0xb8eb4520	-0.00011218549
247	0x37d3f792	2.5268444e-05
248	0xb8f61294	-0.000117336545
249	0xb7377aa7	-1.0936207e-05
250	0xb9ba3ffe	-0.00035524362
251	0xb897ef43	-7.244807e-05
252	0xba67f610	-0.0008848617
253	0x397ea585	0.00024284988
254	0xb9ad552d	-0.00033060592
255	0xb9cf313b	-0.00039518796

linear_sigmoid_stack.0.bias f4 [16]
0	0x391836fb	0.00014516331
1	0xb92fa761	-0.00016751654
2	0x38e4517f	0.00010887067
3	0x391d16ed	0.00014981227
4	0x389fe902	7.625112e-05
5	0xb841ea27	-4.6232857e-05
6	0xb99a9725	-0.0002948578
7	0x375427b9	1.2645433e-05
8	0x39f20d30	0.00046167662
9	0x38433e50	4.6549656e-05
10	0xb945850d	-0.0001883695
11	0xb98d2c5d	-0.0002692667
12	0x3916a044	0.00014364818
13	0xb7ceac7e	-2.4637437e-05
14	0x38dc8243	0.000105146806
15	0xb93fa313	-0.0001827593

linear_sigmoid_stack.2.weight f4 [4, 16]
0	0xbac2e79b	-0.0014870049
1	0xba07f7b2	-0.0005186751
2	0x3a11a572	0.00055559643
3	0x3acb6500	0.0015517771
4	0xb9ec8547	-0.00045112727
5	0xbadabca2	-0.0016688297
6	0xbaaa39af	-0.0012987162
7	0x3a0815ca	0.0005191235
8	0x3ad7d44e	0.001646647
9	0xbac8c453	-0.0015317298
10	0xb9723ab0	-0.00023100781
11	0x3aaea3e9	0.0013323996
12	0xba85362f	-0.0010163243
13	0xbad7cc37	-0.0016464059
14	0x3ad9b062	0.0016608352
15	0x3aa5990a	0.001263411
16	0xbac7987c	-0.0015227939
17	0x380d6eb9	3.3720138e-05
18	0xb9f745fe	-0.0004716366
19	0xba218bee	-0.0006162514
20	0x3a12f10c	0.0005605377
21	0xbb0a0036	-0.0021057255
22	0xbb14e3d6	-0.0022718809
23	0x3a3258ea	0.00068034104
24	0x3a550d28	0.00081272656
25	0xbab3d2b1	-0.0013719407
26	0x39656a07	0.0002187864
27	0x39e170de	0.00042999437
28	0x3b0c6a24	0.002142557
29	0x3ad29926	0.001606737
30	0xba743cc1	-0.00093169144
31	0x3b2443f7	0.0025064924
32	0xbad3e371	-0.0016165805
33	0x3a07fc4a	0.00051874353
34	0x3a1962ab	0.00058511895
35	0xbafba4bc	-0.0019198875
36	0x3944e204	0.00018776214
37	0xbaad4383	-0.0013218973
38	0x3abf2866	0.0014584183
39	0x3aad1ace	0.0013206841
40	0xbaa3c3d8	-0.0012494279
41	0x37a8fe41	2.0145557e-05
42	0xba748b97	-0.0009328662
43	0xbaacec97	-0.0013193068
44	0x3ac74e4a	0.0015205827
45	0xba364060	-0.00069523416
46	0xba627dfd	-0.00086399895
47	0xba4bd5ac	-0.0007775675
48	0x3ab165b4	0.0013534338
49	0x3a31f024	0.0006787798
50	0xb9ba7ad7	-0.00035568207
51	0xbacf4d77	-0.0015815933
52	0x3a2f4539	0.0006686035
53	0xb8c3d111	-9.337266e-05
54	0x3720d068	9.5852665e-06
55	0xbb191785	-0.0023359966
56	0x3abb5210	0.0014291424
57	0xbb0ec709	-0.0021786115
58	0x39311ad5	0.00016890031
59	0x3a4e23a6	0.00078635884
60	0xba85a3c1	-0.0010195897
61	0x3aea743a	0.0017887421
62	0xbb0c97e7	-0.0021452846
63	0xba37d978	-0.00070133014

linear_sigmoid_stack.2.bias f4 [4]
0	0x3a3fdbcd	0.00073188246
1	0x394c4889	0.00019481978
2	0xbb42efaa	-0.0029744902
3	0xb99fed9f	-0.00030503885

last_fc.weight f4 [1, 4]
0	0x3b447106	0.0029974594
1	0x3b44710d	0.002997461
2	0x3b4470c9	0.0029974452
3	0xba83125c	-0.0009999978
