Trained_paremeters/nn_checkpoints_CHRNA3_ukb_y1002.pth (torch, 4695 bytes, 5 tensors)

linear_sigmoid_stack.0.weight f4 [16, 34]
00000000: 0f0e 68be 2353 bdbe 7645 45bf c35b 25bf
00000010: 115f 71bf 62b3 36bf 587a c03e a790 6b3f
00000020: 05e2 5b3f b47b 683f 8cac 71bf e7c4 2b3f
00000030: fa88 3fbf 3af5 1cbf ef62 16be ebae 0c3f
00000040: 0207 1dbf 42a6 bc3b 9d5f 073e 66bd 46bf
00000050: 8b4c 9b3b 71f3 6c3e 7f2c 433f 4d22 a83e
00000060: ca40 78bf 2c09 143e 95d9 273f 3878 383f
00000070: 2c26 5b3f 03e8 423f 1de8 38bf 8fb6 623c
00000080: 9e35 f7be 79bd 3dbf b0b0 d2be 5f91 3fbf
00000090: d722 f2be 0a52 d2be 52fa a83e b5ad 82bf
000000a0: 0019 3a3d d64a e93e 9c6a c8be 4479 20bf
000000b0: a83a a03e 19b4 5fbf 46fb 1e3f 44f1 05bf
000000c0: f7a2 b03e 881b e63e d3f9 f8be 880d 22be
000000d0: e370 063f 008d 783e a590 4cbf 0c4a 89be
000000e0: 2da2 103f c484 103f 9fff 47bf a724 eabe
000000f0: 96c4 3bbf b26b 213f 35f4 06be c11e 9bbc
00000100: 2230 443f 3cde 0ebf bc6f c03e 605f 2bbf
00000110: 8510 693b 6418 46bf 0631 363f 7e74 4d3d
00000120: 83d1 4c3d cbe6 69bd e7f7 ce3e 15e5 b7be
00000130: f0ee f2be 23fe 0abf 0e6c 50bf 0f84 43bf
00000140: 66c6 cfbd b111 b93d 9f3f 8f3e a5ab 3cbf
00000150: 52d6 c3bc eee5 8ebe dc5b 513f b49d 18bf
00000160: a268 65be a286 49be 7af3 89be 4ded 5bbf
00000170: a5d7 d4be 2eac a5be 261d a5bd c3e2 bbbd
00000180: bf1e 90bb f0f4 0cbe f514 b5bc d290 12bf
00000190: 37db 513e 1ce9 153f 3d92 1a3e 3b09 483f
000001a0: c51e 9bbd 3a63 9b3e 8edc b13e 7567 cc3e
000001b0: b45f da3e 0922 10bf 254a 1d3f 0fd8 25bf
000001c0: 3585 103f b58c 5d3f 916c efbe db34 5c3f
000001d0: bf02 8dbe dea8 043d ce9e c2be 68dd 4e3f
000001e0: b30d 2abf 1de8 4a3f 21fd d7be a0f6 46bf
000001f0: 71b3 d2be b9d2 eb3e fd5f 54bf ddd7 33bf
00000200: 5e9d e93d f805 073e 6c54 5c3f 791c dabe
00000210: dcc3 c33e c90d 0f3e 17a2 5c3f a9b4 c73e
00000220: f863 55bf 09fb 433f b92f e83b 7fbb 6dbf
00000230: 29d6 583f 1cee 40bf ac14 7b3e a0bf c6be
00000240: b895 1dbe def6 b6bd 34b0 bdbd 70e0 8abe
00000250: 97bc 2abf 0250 14bf b03e 163f 2397 8f3e
00000260: 0241 1d3f c92d 463f 48ff 36be 9046 4ebf
00000270: d73b 2f3f 2569 93be 5efe f4be 0db9 c03d
00000280: a3c8 42bf cee1 713e 29be 033f b379 a03e
00000290: 1601 2c3f a6e4 1c3f e3a0 ec3e e9bf 1e3f
000002a0: 36f2 65bd d74c 2e3f fb95 cd3d 307a ecbe
000002b0: fcda 613f f5d3 c6be 038d 493f 41ee 973e
000002c0: be05 093f 29e9 f4bc ce2c 1dbf 8b0d 463f
000002d0: bc65 67bf c099 33bf 3036 1abf 0014 c93e
000002e0: 35ba 33bf 6b0c 693f 4aad dc3d a9d0 e53d
000002f0: 8beb 56bf 49e3 3bbf 7912 5abe 1412 2bbe
00000300: 8729 6ebf c5d4 15bf ca5f 58bc a278 613f
00000310: e925 ca3e 2083 583f 2279 a83e 4425 c33e
00000320: f961 6fbe 82d1 0abf d807 15bf 9e35 203f
00000330: 7cef 293f 9f54 413f efa8 fbbc 1d96 663f
00000340: 2664 54bf fc39 473e a4d5 58bf fb7c 2b3f
00000350: 886a 223f 3a12 143e ffab 4b3f 05e9 5cbf
00000360: cbbb a0be 9d72 883e 44d0 5abf 8239 493f
00000370: 04c7 293e f7a5 603f 1723 c63d 139f 883e
00000380: eefc ef3e 9456 04bf 0263 013c 0a7e 26bb
00000390: 77b1 ff3d e30a 1d3f f123 5fbe d598 71bf
000003a0: e418 9e3e b615 d7be 9806 6e3f 6a33 363d
000003b0: 165b 51bf 80cc 4ebe 6480 6f3f 11a6 95bd
000003c0: f775 243f 54c3 ae3e 53a7 45bf 89cd 0f3e
000003d0: da29 723e 35aa e83d 80a3 0dbf 4089 b93d
000003e0: d155 1bbf aa64 6a3f a8ee 1cbe 2e01 7b3f
000003f0: ca1c 313f 7028 4bbe 8bff 6abe 11eb 023d
-0.22661613 -0.3697749 -0.77059114 -0.6459314 -0.94285685 -0.71367466 0.3759334 0.92017597
0.85891753 0.90813756 -0.9440391 0.67097324 -0.74818385 -0.61311686 -0.14686178 0.54954404
-0.6133882 0.005757124 0.13220067 -0.7763275 0.0047393492 0.2313974 0.7623977 0.3283867
-0.9697386 0.14456624 0.6556638 0.7205844 0.8560512 0.7613527 -0.72229177 0.013837471
-0.48283094 -0.7411724 -0.41150427 -0.74831194 -0.47292206 -0.41078216 0.3300348 -1.0209261
0.045433998 0.45564908 -0.39143836 -0.62685037 0.3129475 -0.8738418 0.6210216 -0.5232127
0.34499332 0.4494288 -0.486281 -0.15825474 0.52516 0.24272537 -0.7990821 -0.26814306
0.5649746 0.56452584 -0.7812442 -0.4573109 -0.7334684 0.63054955 -0.13179095 -0.018935563
0.76635945 -0.5580785 0.37585247 -0.66942406 0.0035562825 -0.7738097 0.71168554 0.050159924
0.050004493 -0.057104867 0.4042351 -0.35916963 -0.4744792 -0.5429403 -0.8141488 -0.7637338
-0.101452634 0.090365775 0.27978227 -0.7369941 -0.023905907 -0.27909797 0.8178079 -0.59615636
-0.22403196 -0.19680265 -0.2694357 -0.8590897 -0.41570774 -0.32357925 -0.080622 -0.09174111
-0.0043981965 -0.13765311 -0.02210472 -0.5725223 0.2049378 0.5855882 0.15094848 0.78139085
-0.07574228 0.3034914 0.34738582 0.3992268 0.4265114 -0.56301934 0.6144126 -0.64782804
0.5645326 0.86542827 -0.46762517 0.8601815 -0.27541158 0.032387607 -0.38011783 0.8080659
-0.66427153 0.79260427 -0.4218531 -0.7772007 -0.41152528 0.46059206 -0.82958966 -0.70251256
0.114069685 0.1318587 0.8606632 -0.42599848 0.38235366 0.13970102 0.8618483 0.3900502
-0.83355665 0.76554924 0.007085767 -0.9286422 0.8470178 -0.75363326 0.24519604 -0.38818073
-0.15389144 -0.08933805 -0.09262124 -0.27124357 -0.66694015 -0.5793458 0.58689404 0.28044996
0.6142732 0.7741361 -0.1787082 -0.8057642 0.68450683 -0.28791156 -0.47850317 0.09410296
-0.760874 0.23621294 0.51462036 0.3134285 0.67189157 0.6128639 0.46216497 0.6201158
-0.056139193 0.68086 0.10038372 -0.46186972 0.8822477 -0.38833585 0.7873079 0.2967396
0.53524387 -0.029896336 -0.6139649 0.77364415 -0.9038961 -0.7015648 -0.60238934 0.3927307
-0.70206004 0.91034573 0.1077524 0.112214394 -0.8395316 -0.73393685 -0.2129611 -0.16706115
-0.93032116 -0.58527786 -0.013206432 0.88074696 0.39482048 0.8457508 0.32904917 0.3811437
-0.23377217 -0.54225934 -0.58215094 0.62581813 0.6638105 0.75519747 -0.030720202 0.90072805
-0.82965314 0.19455713 -0.8470099 0.6698758 0.63443804 0.14460078 0.7955932 -0.8629306
-0.31393275 0.26649943 -0.8547404 0.78603375 0.16579825 0.8775324 0.096746616 0.26683864
0.46872658 -0.5169461 0.00789714 -0.0025404715 0.124850206 0.61344737 -0.21791054 -0.9437383
0.30878365 -0.42008752 0.9297881 0.044482626 -0.8177961 -0.20195198 0.93555284 -0.07307065
0.642425 0.341334 -0.7720844 0.14043249 0.23648778 0.113605894 -0.55327606 0.090593815
-0.6067782 0.9155985 -0.15325415 0.98048675 0.69184554 -0.19839644 -0.22949044 0.031962458

linear_sigmoid_stack.0.bias f4 [16]
00000000: c538 00bb bc10 f5bc 00cb e9ba c978 87bb
00000010: c93f 1abd 1bfd 8a3c 11a8 75bc e3c7 ee3c
00000020: 7a6c 983b 27e1 203d 2cae 533c 8cb3 d13b
00000030: 8196 893b ca4c d9bc bf44 023c ced8 d9bb
-0.0019565087 -0.029915206 -0.0017836988 -0.0041342718 -0.037658487 0.016966393 -0.014993683 0.029148048
0.0046516033 0.039277222 0.012919944 0.0063995775 0.0041988497 -0.026525874 0.007950961 -0.0066481596

linear_sigmoid_stack.2.weight f4 [4, 16]
00000000: 079a 62bd 5c0c 55bf 68d7 bebe 5d28 a5be
00000010: 79c2 42bf 7825 183e 8a18 013f c224 693f
00000020: c405 243f 14f1 3d3f 96b8 163f fd97 03be
00000030: 1a0d 3bbf 999d e7be 3fae 2c3f e042 20bf
00000040: 9ca8 51bd 9a0a 243e 7ff5 13be 14ed 61bf
00000050: b61c 20be 75c2 14bf ed0d 383f df68 c13e
00000060: 264d 9f3e 04d3 22bf a970 1cbf eba1 24bf
00000070: 577c 22bf 60f7 5c3f 5153 09bf 2e7c 1c3f
00000080: bf36 cc3c acac 37bf 2399 eb3d b93a 0f3f
00000090: 76aa 15bf 6c78 fcbe 378b dfbe b595 0e3f
000000a0: c9f1 d7be e516 73be 81c2 37be 4c9f 3cbd
000000b0: 4d7b 403f 6514 5fbc d84e 73be 83ed 6fbe
000000c0: 635d b3be fc4c 533f b668 4b3f 425f c8be
000000d0: e639 573f 44ba 1abf 36a0 5d3f 3391 103f
000000e0: 821d 273d 6476 c53e dd62 a53e e55e 1f3e
000000f0: 1d20 70be 7eb2 1c3e 5fbe 66bc b3cf 253f
-0.055322673 -0.83221984 -0.37273717 -0.32257357 -0.7607799 0.14858043 0.5042807 0.9107171
0.640713 0.7419598 0.58875406 -0.12850948 -0.73066866 -0.45237425 0.6745338 -0.62602043
-0.05118619 0.16019669 -0.14449118 -0.8825238 -0.15635952 -0.5810922 0.7189625 0.37775323
0.31113547 -0.63603234 -0.61109406 -0.6430957 -0.6347098 0.86314964 -0.53642756 0.61126983
0.024928449 -0.7174785 0.11503818 0.5594898 -0.5846323 -0.49310625 -0.436609 0.55697185
-0.42176655 -0.23739202 -0.17945291 -0.046050355 0.7518814 -0.013615702 -0.23760545 -0.23430447
-0.35032186 0.82539344 0.7945665 -0.39135176 0.8407272 -0.6044047 0.8657259 0.56471556
0.040799625 0.38566887 0.3230199 0.15563543 -0.2344975 0.15302464 -0.014083474 0.6477005

linear_sigmoid_stack.2.bias f4 [4]
00000000: e0ac 783c e8c8 a2bd f1c2 2dbc bd1f a7bb
0.015177935 -0.07948476 -0.01060556 -0.005100219

last_fc.weight f4 [1, 4]
00000000: 4724 58be fc7c 613e b6b8 c4be b9a5 013c
-0.21107589 0.22020334 -0.38422173 0.0079130465
