Trained_paremeters/nn_checkpoints_CHRNB3_TL_ukb_y1002.pth (torch, 6423 bytes, 6 tensors)

linear_sigmoid_stack.0.weight f8 [16, 28]
0	0xbfe62314e0000000	-0.6917824149131775
1	0xbfa1e16b20000000	-0.03492293134331703
2	0x3fe2dd4d20000000	0.5895143151283264
3	0xbfddd4fb40000000	-0.46612435579299927
4	0xbfd4081280000000	-0.3129926919937134
5	0xbfe7170200000000	-0.7215585708618164
6	0x3facada440000000	0.05601228028535843
7	0xbfe5829060000000	-0.6721879839897156
8	0xbfe36af180000000	-0.606804609298706
9	0xbfd22ac560000000	-0.28386053442955017
10	0x3fe5881bc0000000	0.6728647947311401
11	0x3fe1c6d480000000	0.5555212497711182
12	0xbfd93442a0000000	-0.39381471276283264
13	0x3fe0058b80000000	0.5006768703460693
14	0x3fd1f59500000000	0.28061413764953613
15	0x3fdad07520000000	0.41897323727607727
16	0x3fddfac0c0000000	0.4684297442436218
17	0x3fea72c0e0000000	0.8265079855918884
18	0xbfda466940000000	-0.41054755449295044
19	0x3f8a061ca0000000	0.012706969864666462
20	0xbfee7172c0000000	-0.9513486623764038
21	0xbfd5f83580000000	-0.34327447414398193
22	0xbfe8c85f60000000	-0.7744595408439636
23	0x3fe8830c40000000	0.765997052192688
24	0x3fe9db3880000000	0.8080103397369385
25	0x3fe8d53780000000	0.7760274410247803
26	0xbfc77854c0000000	-0.18335971236228943
27	0x3fd37d89c0000000	0.30453723669052124
28	0x3fe0153ee0000000	0.502593457698822
29	0x3fd4989260000000	0.321812242269516
30	0x3fd2ba5060000000	0.2926217019557953
31	0x3febde42e0000000	0.8708814978599548
32	0x3fe8ee97c0000000	0.7791250944137573
33	0xbff01d3e20000000	-1.0071393251419067
34	0x3fd881e7e0000000	0.3829288184642792
35	0x3fcfec9900000000	0.24940788745880127
36	0xbfcbe2c220000000	-0.21785761415958405
37	0x3fe0bb59e0000000	0.5228700041770935
38	0xbfe6ffb600000000	-0.718714714050293
39	0x3feda238e0000000	0.9260525107383728
40	0xbfac563220000000	-0.05534512177109718
41	0xbfdfa07440000000	-0.49416834115982056
42	0xbfe1491c00000000	-0.5401744842529297
43	0x3fc4bcee00000000	0.16201567649841309
44	0xbfd8e83400000000	-0.3891725540161133
45	0xbfdb42de20000000	-0.42595627903938293
46	0xbfcbd53ba0000000	-0.21744485199451447
47	0x3fec83ba60000000	0.8910800814628601
48	0xbfcf3a7920000000	-0.24397195875644684
49	0xbf9f83f380000000	-0.030776791274547577
50	0xbf954631a0000000	-0.020775580778717995
51	0x3fe733af60000000	0.7250592112541199
52	0xbfeda5c8c0000000	-0.9264873266220093
53	0xbfa48bf0c0000000	-0.04013016074895859
54	0x3fe4bfbc60000000	0.6484052538871765
55	0xbfdc91b980000000	-0.44639432430267334
56	0x3fc7a263a0000000	0.1846432238817215
57	0x3fdf2dfda0000000	0.48718205094337463
58	0x3fbf021c20000000	0.12112594395875931
59	0x3fe578fd00000000	0.6710190773010254
60	0x3fe979d920000000	0.7961240410804749
61	0x3fdd03a220000000	0.45334675908088684
62	0x3fe732ef40000000	0.7249675989151001
63	0xbfe59636c0000000	-0.6745866537094116
64	0xbfe6a928c0000000	-0.7081493139266968
65	0xbfcbbb10e0000000	-0.21664629876613617
66	0xbfe9fad960000000	-0.8118712306022644
67	0x3f7e10eb20000000	0.007340353447943926
68	0x3fcefc4e20000000	0.24207474291324615
69	0x3fed275a40000000	0.9110537767410278
70	0x3fe6ce3660000000	0.7126724123954773
71	0xbfabd524e0000000	-0.054360534995794296
72	0x3fd58d0ca0000000	0.33673396706581116
73	0x3f94747540000000	0.01997550204396248
74	0xbfb6e05540000000	-0.0893605500459671
75	0x3fe6393d60000000	0.6944872736930847
76	0x3f7b0f66e0000000	0.006606485228985548
77	0xbfef42b9e0000000	-0.976895272731781
78	0x3fc23892a0000000	0.14235146343708038
79	0x3fe96731a0000000	0.7938469052314758
80	0x3fe5fb57a0000000	0.6869314312934875
81	0xbfe54a3ee0000000	-0.665313184261322
82	0xbfc031fb00000000	-0.12652528285980225
83	0xbfeaee9b00000000	-0.8416266441345215
84	0xbfe922e2e0000000	-0.7855085730552673
85	0x3f8b946da0000000	0.013466698117554188
86	0x3f8c3d5760000000	0.013788874261081219
87	0xbfc04a2c20000000	-0.12726356089115143
88	0xbfbc459980000000	-0.11043700575828552
89	0xbfe407ea40000000	-0.6259661912918091
90	0xbfd10ce280000000	-0.2664114236831665
91	0xbfc62f4de0000000	-0.17331860959529877
92	0xbfdfdf1ea0000000	-0.497993141412735
93	0xbfe18bd6c0000000	-0.5483201742172241
94	0x3fe1256060000000	0.5358125567436218
95	0xbfdca48da0000000	-0.44754353165626526
96	0x3fb2ce1480000000	0.0734570324420929
97	0x3fe5fa43a0000000	0.6867998242378235
98	0x3fa65ef540000000	0.04369322210550308
99	0x3fdd75da40000000	0.4603181481361389
100	0x3fc00fc520000000	0.1254812628030777
101	0x3fe34ae740000000	0.6028934717178345
102	0xbfc0208f00000000	-0.12599360942840576
103	0x3fe6f1bc80000000	0.7170088291168213
104	0x3fdf2b7f00000000	0.4870297908782959
105	0xbff078b580000000	-1.0294699668884277
106	0x3fb0d958c0000000	0.06581644713878632
107	0x3fe1d46640000000	0.5571776628494263
108	0x3fe10890c0000000	0.5322955846786499
109	0x3fb2b63d40000000	0.07309325039386749
110	0xbfd61167c0000000	-0.3448123335838318
111	0x3fd68c1680000000	0.3523002862930298
112	0x3fdd84bbe0000000	0.4612264335155487
113	0xbfef7728c0000000	-0.9832957983016968
114	0x3fec1f9580000000	0.8788554668426514
115	0xbfe9372de0000000	-0.7879857420921326
116	0xbfe9599e40000000	-0.7921897172927856
117	0x3fc3ae41e0000000	0.15375541150569916
118	0xbfd55cfaa0000000	-0.33379998803138733
119	0x3fe9273120000000	0.7860341668128967
120	0x3fae7e3b40000000	0.05955681949853897
121	0x3fcf8ff5a0000000	0.2465807944536209
122	0x3fe9360780000000	0.7878453731536865
123	0xbfecbcbb80000000	-0.8980386257171631
124	0x3fe05743a0000000	0.5106523633003235
125	0xbfdf8cd4c0000000	-0.49297064542770386
126	0x3fe7ead960000000	0.7474181056022644
127	0xbfe6df85c0000000	-0.7147854566574097
128	0x3fa25afe40000000	0.03585047274827957
129	0xbfedbe4fa0000000	-0.9294813275337219
130	0xbfda4c5560000000	-0.4109090268611908
131	0xbfb89bab60000000	-0.09612532705068588
132	0xbfe7037be0000000	-0.7191752791404724
133	0x3fb0ed0140000000	0.06611640751361847
134	0x3fcad89ba0000000	0.20973534882068634
135	0x3fdf29f7c0000000	0.4869365096092224
136	0xbfe4e9fb00000000	-0.653562068939209
137	0x3fba590c40000000	0.102921262383461
138	0xbfe21c0280000000	-0.5659191608428955
139	0x3fe816b960000000	0.7527739405632019
140	0xbfef1d2f40000000	-0.9723125696182251
141	0xbfea4ec180000000	-0.8221137523651123
142	0x3fd60bbd80000000	0.34446656703948975
143	0x3febb0e2c0000000	0.8653424978256226
144	0x3fe179afc0000000	0.5461043119430542
145	0xbfcaef5860000000	-0.21042923629283905
146	0xbfe08a0de0000000	-0.5168523192405701
147	0xbfee846140000000	-0.9536596536636353
148	0xbfd7c6b120000000	-0.37150219082832336
149	0x3fecae3be0000000	0.8962687849998474
150	0xbfe75d6d00000000	-0.7301545143127441
151	0x3fe58fa720000000	0.6737857460975647
152	0x3fcc8bd360000000	0.2230171412229538
153	0x3fd1e0cf00000000	0.279346227645874
154	0x3fe214a360000000	0.5650193095207214
155	0xbfef533ea0000000	-0.9789116978645325
156	0x3fec71a420000000	0.8888722062110901
157	0xbfc4903960000000	-0.16065137088298798
158	0xbfef66ad60000000	-0.9812838435173035
159	0x3fe0e5db80000000	0.5280587673187256
160	0x3fd2b502a0000000	0.29229798913002014
161	0xbfb45c0720000000	-0.07952923327684402
162	0xbfe521c660000000	-0.6603729128837585
163	0xbfcaebf500000000	-0.21032583713531494
164	0xbfc978f900000000	-0.19900429248809814
165	0x3feba387e0000000	0.8637122511863708
166	0xbfe1fd52c0000000	-0.5621732473373413
167	0x3fdeaa3a40000000	0.47913986444473267
168	0x3febcd5ea0000000	0.868819534778595
169	0xbf98fb9b40000000	-0.02439730241894722
170	0x3feafe6fe0000000	0.843559205532074
171	0x3fb3da6880000000	0.07755139470100403
172	0x3fc3b101c0000000	0.1538393199443817
173	0xbfdb6c96a0000000	-0.4285027086734772
174	0x3fe2118fe0000000	0.5646438002586365
175	0xbfb4f48b20000000	-0.08185643702745438
176	0x3fb4e41580000000	0.08160528540611267
177	0x3fe9660ce0000000	0.7937073111534119
178	0x3fd53a4e20000000	0.3316836655139923
179	0xbfefa65ac0000000	-0.9890569448471069
180	0xbfec22cca0000000	-0.8792479634284973
181	0x3fcabfecc0000000	0.20898208022117615
182	0x3fd8902b20000000	0.38379934430122375
183	0xbfe9d01f40000000	-0.8066555261611938
184	0x3fa1394b60000000	0.03364024683833122
185	0xbfe4fbc300000000	-0.6557326316833496
186	0xbfe783e5a0000000	-0.7348507046699524
187	0x3f7938bc20000000	0.006157622206956148
188	0x3fe78573c0000000	0.735040545463562
189	0xbfe2c55540000000	-0.5865885019302368
190	0x3fe7a06580000000	0.7383296489715576
191	0xbfdfac2f60000000	-0.49488434195518494
192	0x3febcea4a0000000	0.8689749836921692
193	0x3fe62a3c60000000	0.6926557421684265
194	0x3fea73c8c0000000	0.8266338109970093
195	0xbfdbb062a0000000	-0.4326407015323639
196	0x3fd8b89820000000	0.3862667381763458
197	0x3fd2364b60000000	0.2845638692378998
198	0xbfeaa613c0000000	-0.8327730894088745
199	0xbfc5a24260000000	-0.16901426017284393
200	0x3fa9844e20000000	0.04983753338456154
201	0x3fd5e18980000000	0.34189069271087646
202	0x3fdc71f0a0000000	0.4444543421268463
203	0x3fee9e8020000000	0.9568482041358948
204	0x3fea547920000000	0.8228116631507874
205	0xbfa46a3740000000	-0.03987286239862442
206	0x3fdb7ecaa0000000	0.42961373925209045
207	0x3fdd870a80000000	0.46136724948883057
208	0x3feab36ac0000000	0.8344014883041382
209	0xbfc698d240000000	-0.17653873562812805
210	0xbfe9c1ea80000000	-0.8049213886260986
211	0xbfe570c300000000	-0.6700148582458496
212	0xbfe78de1c0000000	-0.7360695600509644
213	0xbfe359c3e0000000	-0.604707658290863
214	0x3fe0516020000000	0.5099335312843323
215	0xbfdb4e0b60000000	-0.4266384541988373
216	0xbfd539fb80000000	-0.33166396617889404
217	0xbfed6120a0000000	-0.9181063771247864
218	0x3fdf8364e0000000	0.49239465594291687
219	0x3fe736ace0000000	0.7254242300987244
220	0xbfc2f9fcc0000000	-0.14825400710105896
221	0xbfe2771340000000	-0.5770355463027954
222	0x3fe2dbac80000000	0.58931565284729
223	0x3fe14784a0000000	0.5399802327156067
224	0xbfe81c5ec0000000	-0.7534631490707397
225	0x3fe5e3f7a0000000	0.6840780377388
226	0xbfc6ad2860000000	-0.1771593540906906
227	0x3fded2e6a0000000	0.4816223680973053
228	0x3fe0270020000000	0.5047608017921448
229	0x3fdb4e2940000000	0.42664557695388794
230	0xbfd5e9f580000000	-0.34240472316741943
231	0xbfea97b200000000	-0.8310174942016602
232	0x3fe613c200000000	0.6899118423461914
233	0x3fcfa49420000000	0.2472100406885147
234	0x3fee786920000000	0.9521985650062561
235	0xbfc18bc6a0000000	-0.13707812130451202
236	0x3fe0ea0340000000	0.5285660028457642
237	0xbfe6bb38a0000000	-0.7103541493415833
238	0xbfe5e02d00000000	-0.6836152076721191
239	0x3fefd95980000000	0.9952819347381592
240	0x3fee715e60000000	0.9513389468193054
241	0xbfceaa9d60000000	-0.23958174884319305
242	0xbfb02bf340000000	-0.06317062675952911
243	0xbfd5046860000000	-0.3283940255641937
244	0x3fd0d179c0000000	0.2627853751182556
245	0x3fe4e84600000000	0.6533536911010742
246	0x3febc17360000000	0.8673645853996277
247	0x3fe82dce20000000	0.7555914521217346
248	0x3fe0acf540000000	0.5211130380630493
249	0x3fe87b0920000000	0.7650189995765686
250	0x3febdb5620000000	0.8705244660377502
251	0x3fd76b0340000000	0.3659065365791321
252	0xbfe6168a60000000	-0.6902515292167664
253	0xbfeb05d380000000	-0.84446120262146
254	0x3fc0cc94c0000000	0.13124331831932068
255	0xbfd8d01120000000	-0.3876993954181671

linear_sigmoid_stack.0.bias f8 [16]
0	0x3f89b25d60000000	0.012547235004603863
1	0x3f9df0a900000000	0.02923835813999176
2	0xbf7c75be40000000	-0.006948226131498814
3	0xbf7bf13340000000	-0.006821823306381702
4	0x3f8b6ebf00000000	0.013394825160503387
5	0xbf84358600000000	-0.00986771285533905
6	0xbf85d6f920000000	-0.010663934983313084
7	0x3f6a1ae9a0000000	0.0031866610515862703
8	0x3f8cdb7180000000	0.014090429991483688
9	0xbf7aed3540000000	-0.006573875434696674
10	0x3f79755500000000	0.0062154121696949005
11	0x3f4e8e2a80000000	0.0009324748534709215
12	0x3f9bfa9fc0000000	0.027323242276906967
13	0xbf7e253f20000000	-0.007359739858657122
14	0x3f9dea7920000000	0.029214756563305855
15	0x3f830f3320000000	0.009306334890425205

linear_sigmoid_stack.2.weight f8 [4, 16]
0	0x3fef276400000000	0.9735584259033203
1	0xbfd74c2180000000	-0.3640216588973999
2	0xbfecc55dc0000000	-0.8990925550460815
3	0x3fca28c8e0000000	0.2043696492910385
4	0x3fc08c4140000000	0.1292802393436432
5	0x3fad743220000000	0.05752712860703468
6	0xbf8eafaa00000000	-0.014983490109443665
7	0x3fc5431d20000000	0.16611064970493317
8	0xbfa5d31c80000000	-0.0426262766122818
9	0x3fe7a7a160000000	0.739212691783905
10	0x3fe7ffde00000000	0.7499837875366211
11	0xbfe8bd41a0000000	-0.7731025815010071
12	0xbfe6d18000000000	-0.71307373046875
13	0x3fdcf357c0000000	0.45235246419906616
14	0x3fdf23a080000000	0.4865494966506958
15	0x3fe12e34c0000000	0.5368903875350952
16	0x3fcf6efe00000000	0.2455747127532959
17	0xbfeb185de0000000	-0.8467244505882263
18	0x3fe927c140000000	0.7861028909683228
19	0xbfc2aa04c0000000	-0.14581355452537537
20	0x3fd2ffb280000000	0.29685652256011963
21	0x3fca5431e0000000	0.20569442212581635
22	0xbfe07eeac0000000	-0.5154927968978882
23	0xbfe51d3ba0000000	-0.6598184704780579
24	0x3fdf890aa0000000	0.49273934960365295
25	0xbfdd1f9180000000	-0.4550517797470093
26	0x3fe849b8a0000000	0.7589991688728333
27	0x3fee432fe0000000	0.945701539516449
28	0x3fe9ba3740000000	0.8039814233779907
29	0x3fa737e8c0000000	0.045348428189754486
30	0xbfded845c0000000	-0.48195022344589233
31	0xbfef50de00000000	-0.9786214828491211
32	0x3fc145c520000000	0.1349417120218277
33	0x3fe1b12b00000000	0.5528769493103027
34	0xbfbcf013c0000000	-0.11303828656673431
35	0x3fc8aca740000000	0.19276896119117737
36	0x3fc6868ae0000000	0.17598091065883636
37	0xbfe5e0ee80000000	-0.6837074756622314
38	0xbfd00abc60000000	-0.25065526366233826
39	0x3fe6bef2c0000000	0.7108091115951538
40	0xbfe9fdbb00000000	-0.812222957611084
41	0xbfd1f3dda0000000	-0.2805093824863434
42	0xbfdc4b3e20000000	-0.4420924484729767
43	0xbfed7b8700000000	-0.9213290214538574
44	0xbfccf6b080000000	-0.2262783646583557
45	0xbfc47b3400000000	-0.16000986099243164
46	0xbfc0eca360000000	-0.13222162425518036
47	0xbf7d8e7de0000000	-0.007215968798846006
48	0x3fdbd8ae40000000	0.43510013818740845
49	0x3fe8fa2da0000000	0.780539333820343
50	0x3fd7929580000000	0.3683217763900757
51	0x3fcdd12b80000000	0.23294585943222046
52	0x3fd4d8d540000000	0.3257344365119934
53	0xbfe178eb40000000	-0.5460106134414673
54	0xbfe1f91a40000000	-0.5616580247879028
55	0xbfd8005d40000000	-0.3750222325325012
56	0x3fd7715220000000	0.3662915527820587
57	0xbfe6517a80000000	-0.6974461078643799
58	0x3fef525ca0000000	0.9788039326667786
59	0x3fe65f7900000000	0.6991543769836426
60	0x3fb279e0a0000000	0.07217220216989517
61	0xbf613eb520000000	-0.002105096587911248
62	0x3fe5f417a0000000	0.6860464215278625
63	0xbfeb84ec80000000	-0.859976053237915

linear_sigmoid_stack.2.bias f8 [4]
0	0xbf6e676e00000000	-0.0037114284932613373
1	0x3fbc10d200000000	0.10963165760040283
2	0x3f78195400000000	0.005883529782295227
3	0x3f994cff40000000	0.02470778301358223

last_fc.weight f8 [1, 4]
0	0xbfb3bd60a25477f7	-0.07710842097409897
1	0xbf9ddd3f6e902a89	-0.029164305804480626
2	0xbf8d7b91bb0cc231	-0.014395845909889267
3	0x3faf25b6fde740b5	0.060834616178568814

last_fc.bias f8 [1]
0	0x3f956f89f5380496	0.020933299629181855
