Trained_paremeters/nn_checkpoints_CHRNA5_ukb_y1.pth (torch, 4503 bytes, 5 tensors)

linear_sigmoid_stack.0.weight f4 [16, 31]
00000000: 6f19 da3e 4127 aabe 7472 3bbe 16b8 1cbf
00000010: 9ab2 b53e 8bf0 bdbe a666 62bf 3ecd 323f
00000020: 71c0 15bf b89f 75bd 1d33 2dbc 5435 e0be
00000030: fb5b a53a 5bf2 debe b0da f73d cea8 fa3e
00000040: a831 323f d023 33bf e9e6 2bbf 51c9 3fbf
00000050: 9a0c 0f3f 6e2c 51bf c222 c13e 810a 633f
00000060: cf02 6dbf 4a13 eebe a622 05bf 945c 5abf
00000070: 0f89 503f 337c 93be cd67 2a3f d96a 0e3f
00000080: 98b9 14bf 7abd 73bd 701c 7abf 5ad4 9cbd
00000090: 4d79 4fbf 96de ba3e 0de0 9dbe 68b1 073c
000000a0: 61ca 5c3f 42e3 bebe 9fae 873d 96b0 e4be
000000b0: f2b6 563f fc8c a0be f496 26bf ac16 babe
000000c0: c626 71bf 5ff9 733d 8672 3bbe fd0d 37bf
000000d0: a1c4 9abe 3374 dcbe 5c44 523f 0ab9 6cbf
000000e0: b10e c7bd 39a8 0cbf 5111 723f af3c 313f
000000f0: e89f 58bf 12f6 ba3e abd4 5dbf 00c4 8abe
00000100: 642b 513f 75e9 4d3f d86c 54be 856b 2e3f
00000110: 8546 eebe bf02 6dbd ab9a 323f f607 67be
00000120: e19e 083e c8fe 313f 0f15 233f 1af7 3cbf
00000130: 8bd9 303f 79cf 213f 583d 5bbf d250 d4bd
00000140: 0740 1d3f b048 da3d 1b5a 25be 064a f8be
00000150: 6eb4 ebbe ffbc 9fbe f61c 05bf 433c 7dbe
00000160: f1e8 6f3f 487e 3cbf bc2c 23be 152e 283f
00000170: 5ba2 a2be f7b4 383f 58af 53bf cc60 6f3d
00000180: 1b80 273e 09a6 56bf 25cd 083f b9cb edbd
00000190: 48a2 e0be 0088 01bf 50c2 6c3c e658 413f
000001a0: f978 38bf 7406 b7be 88d5 30bf 75d9 14bf
000001b0: ce0a 813e 4493 053f 7b93 c53e 67b9 533f
000001c0: 91af a23d c1f6 9d3e 96e6 2ebf 6b8e a53d
000001d0: 5fe6 6d3f 03f9 b5be 6a6f 43bf 4795 22bf
000001e0: 49b6 f8be 6e11 f6bd 2fcc 2c3e 123a 90be
000001f0: f2ab fbbe 56c0 a43d b6e2 34bf e4be a4bd
00000200: cb82 223f 8fd2 debd 0617 213f 412d 2cbf
00000210: a3f3 883d ab08 babd ab1c 6a3f 00c4 bdbe
00000220: 19a8 6abe f211 f7be f0ff c6be 16b7 e3be
00000230: e184 4a3f 45ab 28bf 39d0 9c3e 1026 f13e
00000240: 6fad 1b3e 6480 77bf fcfd b4ba 11ef e4be
00000250: efd9 1dbf 535f a3be be5d 05bf 2791 5b3f
00000260: fa01 4d3e a42e 1fbf 7dbf 4c3f 01ef e33e
00000270: fd0b 2ebe 819a 1ebf 2822 f53e cb41 1e3f
00000280: d8ea 0fbf 3f1f 8f3d 9a7c 583f 03d0 613f
00000290: 948d 40bf b80a 103e f088 3f3e 6081 c13e
000002a0: 59bc 3a3f a2ad 6abf 57be 813f b156 85bf
000002b0: 82de ad3e 8010 983e a416 4a3f f72b 02bf
000002c0: f151 b73e fbe6 cbbd afac 5b3f 2b41 8abd
000002d0: 9544 1c3f 8894 d53d b167 273f 4d8b 12bf
000002e0: 3343 cbbd 7cda 1bbe 620c 94be 6a29 0f3f
000002f0: cde0 ff3d 520b 79bf 8d27 353e 9d0d 923e
00000300: cacf 13bf 5b49 e4be 3716 7d3f 4dea a8be
00000310: 378f 3e3f ccc6 ebbe d314 16bf 037f 83be
00000320: b5cc bf3e 3842 6bbf db97 52bf 7518 783d
00000330: 0079 1d3f 13cc 0b3e fe88 883e b642 15bf
00000340: a95f 80be af62 1c3f 1d32 093f 2fee edbe
00000350: ed97 473e e6d7 053f 0cb3 2e3f 2858 61bf
00000360: 72a5 46bf c132 9b3d f032 7fbe d39c d2be
00000370: 8155 77bf e7c6 99be 0b4d 203f b020 e5be
00000380: 7763 3d3d fdf2 573e f1ae 1b3f 1331 32be
00000390: 1539 5fbe 5961 4a3c d223 02bf 1b36 2fbe
000003a0: 5474 1cbf 02dd 67bd 3ce8 31bf 4401 e8be
000003b0: 9414 aebe c143 d9be ee09 abbe 727c 873e
000003c0: 5e74 a0be f852 873e bfa0 db3e 64ed c33e
000003d0: c6ff 7ebe b455 483f ff14 57bf 207f 433f
000003e0: 3afb 763f 3995 16bf cc5e df3c 82a5 98bd
000003f0: abf6 583e 3b29 05bd cc82 e93e 8dcd 803e
0.4259753 -0.33233073 -0.18305379 -0.6121839 0.35487825 -0.37097582 -0.8843788 0.69844425
-0.5849677 -0.059966773 -0.010571268 -0.43790686 0.0012615913 -0.43544278 0.12102258 0.48956913
0.6960702 -0.6997652 -0.67149216 -0.7491656 0.55878603 -0.8170842 0.3772183 0.886879
-0.9258241 -0.4649909 -0.52005994 -0.85297513 0.81459135 -0.28805694 0.6656464 0.55631787
-0.58095694 -0.05950687 -0.9769964 -0.0765769 -0.81044465 0.36497945 -0.30835 0.008282043
0.86246306 -0.3728276 0.06625103 -0.44665974 0.838729 -0.31357563 -0.65074086 -0.36345422
-0.9419979 0.05956399 -0.18305406 -0.7150572 -0.3022814 -0.43057403 0.8213556 -0.9246985
-0.09719599 -0.5494419 0.9455767 0.6923322 -0.84619 0.36515862 -0.8665263 -0.2710266
0.81706834 0.8043435 -0.20744646 0.6813281 -0.46538177 -0.057863947 0.69767255 -0.2256163
0.13341857 0.6952939 0.6370401 -0.7381455 0.69081944 0.63207203 -0.8564048 -0.10366978
0.6142582 0.10658395 -0.16147654 -0.48493975 -0.46036094 -0.3119888 -0.51997316 -0.2473002
0.93714815 -0.7363019 -0.15935034 0.65695316 -0.31764492 0.7215113 -0.8268943 0.058441922
0.16357462 -0.838471 0.53438026 -0.11611123 -0.4387381 -0.50598145 0.014450625 0.75526273
-0.7205959 -0.3574711 -0.6907582 -0.58144313 0.25203556 0.52177835 0.3858908 0.82704777
0.07943643 0.3085232 -0.68320596 0.08083805 0.92929643 -0.35541543 -0.7634188 -0.6350903
-0.48576573 -0.12015043 0.16874765 -0.28169304 -0.4915462 0.08044498 -0.70658433 -0.08044222
0.63480824 -0.108800046 0.62925756 -0.6725655 0.06687095 -0.090836845 0.91449994 -0.370636
-0.22915687 -0.4825588 -0.3886714 -0.4447562 0.7910901 -0.65886337 0.3062761 0.47099352
0.15202878 -0.96680284 -0.0013808603 -0.44713643 -0.61660665 -0.31908664 -0.52096164 0.8576836
0.20020285 -0.6218054 0.7997969 0.44518283 -0.1699676 -0.61954504 0.47877622 0.6181914
-0.5621772 0.069883816 0.84565127 0.88208026 -0.7521603 0.14066589 0.18704581 0.37794018
0.72943646 -0.9167119 1.0136212 -1.0417081 0.33958822 0.29700089 0.78940797 -0.50848335
0.35804704 -0.099561654 0.8581037 -0.06750711 0.6104215 0.10428721 0.65392596 -0.57243806
-0.099249266 -0.15220064 -0.28915697 0.5592257 0.12494049 -0.972829 0.17690869 0.2852601
-0.57738936 -0.44587216 0.9886202 -0.32991257 0.7443728 -0.46050107 -0.58625525 -0.2568284
0.37460867 -0.91897917 -0.82262963 0.0605702 0.61512756 0.13652067 0.26667017 -0.5830492
-0.25072983 0.6108808 0.5359209 -0.46470782 0.19491549 0.5228256 0.68241954 -0.8802514
-0.775962 0.0757804 -0.24921775 -0.41135272 -0.96614844 -0.30034563 0.6261756 -0.447515
0.046237435 0.21088786 0.60813814 -0.17401533 -0.21799119 0.012352311 -0.5083591 -0.17110483
-0.61115 -0.056607254 -0.69494987 -0.45313466 -0.34000075 -0.42434505 -0.33406013 0.26462132
-0.3133878 0.26430488 0.42896077 0.38267052 -0.24902257 0.7825577 -0.8401641 0.7636585
0.9647709 -0.58821446 0.027266882 -0.07453443 0.21187846 -0.032510024 0.45607603 0.25156823

linear_sigmoid_stack.0.bias f4 [16]
00000000: 2613 32bb eefc bcbc c20c df3c ae8d 03bd
00000010: 4c6b 41bd 338f b73d cbed 87bc cfcf 33bb
00000020: fa15 523d b7f3 9cbd e482 483c 524f 8fbd
00000030: 40cb 1f3c 89b1 7a3d 2207 afbc 2908 c93b
-0.0027172058 -0.023069825 0.027227763 -0.03211754 -0.047221467 0.0896286 -0.01659288 -0.0027437096
0.05129049 -0.076636724 0.012238238 -0.06997551 0.009753048 0.061204467 -0.021365706 0.006135006

linear_sigmoid_stack.2.weight f4 [4, 16]
00000000: d097 17be 78c6 32bf 8f96 76bf e22f e73e
00000010: 8173 073f e60a 453e c6fe 60bf 4d3e a93e
00000020: 1771 75bf 92c5 9c3e f1a4 443f 5d9a fc3e
00000030: 9650 6cbf e5d0 bcbd 1b02 8abf 1e34 41bf
00000040: d9dc 3e3e 9d3c c23e 51e8 283e 98f2 32bf
00000050: 2348 18be 4d24 a4be 018c 533e 217f f3bb
00000060: 6ca8 e53e 9667 e23d c6e6 52bf fcc6 a1bd
00000070: ec35 813e a840 9b3d eafa ecbe 2915 5dbf
00000080: 92a5 b4be 6162 85be ce41 bdbe 8a1c 193f
00000090: 3cbf ab3e 2613 9cbf 8f6a cabc 8bab 31bf
000000a0: 879a 86bf 91a1 603e 2ba3 4f3f 7116 cc3e
000000b0: 13c4 4f3e abd2 4fbf f496 123f 820e 433f
000000c0: 61da 233f 753d 86bc 1ff3 c8be 39fd 5fbd
000000d0: b78d 97bc db7b 2dbf f5bf edbe ca34 47bd
000000e0: a0c5 aa3d 8a5b b7be 86e0 943e 40f5 a13e
000000f0: 97b5 46bf 2224 6ebf 267d a9be 426b 42bf
-0.14804006 -0.6983409 -0.96323484 0.4515372 0.5291062 0.19242439 -0.87888753 0.33055344
-0.95875686 0.30619484 0.7681418 0.4933652 -0.92310464 -0.09219531 -1.0781893 -0.7547015
0.18638934 0.3793687 0.16494872 -0.6990142 -0.14871268 -0.32058945 0.20658876 -0.0074309264
0.44855058 0.11054914 -0.8238338 -0.078992814 0.25236452 0.075806916 -0.46285182 -0.8636041
-0.3528257 -0.2605162 -0.36964267 0.5980917 0.33544338 -1.2193344 -0.024709014 -0.6940238
-1.0515908 0.21936633 0.8110835 0.3986087 0.2028964 -0.8118083 0.57261586 0.7619401
0.64005095 -0.016386727 -0.39247987 -0.05468485 -0.018500192 -0.67767113 -0.46435514 -0.048634328
0.08338475 -0.35812026 0.29077548 0.31632423 -0.77620834 -0.93023884 -0.33103293 -0.7594491

linear_sigmoid_stack.2.bias f4 [4]
00000000: bf10 a6be 694f 03bf 55ff ecbe baaa 95bd
-0.3243465 -0.51293045 -0.46288553 -0.07307954

last_fc.weight f4 [1, 4]
00000000: 4bbf fc3e 83c1 d83d d3ae 383e c849 84be
0.49364695 0.105837844 0.1803544 -0.2583754
