Trained_paremeters/nn_checkpoints_CHRNA5_ukb_y1002.pth (torch, 4503 bytes, 5 tensors)

linear_sigmoid_stack.0.weight f4 [16, 31]
00000000: 7f77 883d a148 bbbe 6c24 11bf 1287 4dbe
00000010: 886c e43e be30 bcbe 3534 8bbe a743 34be
00000020: 3445 c3be def6 3b3e e418 de3e b926 41bd
00000030: 5263 763e 8265 083e d6ab 3e3e 5f6e 5ebe
00000040: e0f7 a0be b515 063f abbc a33e 4efa 1abe
00000050: 22bc a63e 852c 15bf a7f1 62bc 0511 a23e
00000060: bed5 c83d fc0b 6dbe f292 c03e 2320 a4bd
00000070: cdc9 903e 2823 e33e ffcf b3be f8bd 99be
00000080: ca0e 063f 8e4f 03be 4880 66be 477a febe
00000090: ea96 a4be 0634 d7be e18f d6be 02c8 9bbc
000000a0: fa27 0dbf d6fe fb3e 4cc3 0a3c f4e1 1e3f
000000b0: 4326 5bbe f083 6a3e ae41 473c ae49 f33e
000000c0: 9020 e93e 24a2 de3e 397d 89be 58e4 b4be
000000d0: b370 9b3e 6d15 593e f4cf 17be f6e1 883e
000000e0: 5815 e63e f1ca 483d e103 26bf 180e 4bbe
000000f0: a5c0 c5be 023f 91be 49cc 073f 7e65 d53e
00000100: 54bb 21bf 7204 9b3d f60d d13e 5128 a03e
00000110: d55a 053f 28f1 11bf 2e14 be3e 6545 d03e
00000120: 5772 f63d 7ebe 5dbe 62f2 103f 5719 25bf
00000130: 2114 91be 60c5 abbe e9ed 8e3e ffd3 053e
00000140: 5208 133e f3de 0bbf a067 12bf f9fc 1c3f
00000150: 4e9f fa3e c261 653e 7069 5c3e 71e0 143f
00000160: 831d 723e 14a1 293f b066 92be 7767 b7be
00000170: e8ae c6bd fa17 fbbb ea15 6bbc 584c 2abd
00000180: cc20 a03e 14ef 19bf 35d4 5b3e dd80 243e
00000190: 385a d5be 21b0 11bf f5d2 95be 0d0b f4be
000001a0: a717 9d3e 9e3a fc3e 1870 e0be ff8d 473e
000001b0: 8e38 09bf 8ac2 00bf bdbd e83e ced9 9ebc
000001c0: 326a 8abd 1046 dd3e a97a d13e 70fb fc3e
000001d0: f1a0 6bbe 05ee efbe 886d eebe 3e58 733e
000001e0: ddd6 bc3e aa52 abbd 7988 8f3d 4504 cb3d
000001f0: 6844 adbd e2f9 b8bd 1ffc 02be 4f66 19bf
00000200: e33b 0dbf c6b0 b53e 42ee 8e3e a7c0 b33e
00000210: 0129 a73e 300e 97bd 963b bb3e ef81 923e
00000220: 0046 0f3f 76d0 1dbd 559c 9dbc 918a a13d
00000230: 2d82 10bf e95d b9bd aefe 313c 4c25 c93e
00000240: 9f4c 25bf 722f 3abe d7bd 043f c397 cfbd
00000250: e4f3 f7be 9d28 6abe bcf6 ff3e 1522 74be
00000260: 3623 00bf b60d 083f e8a7 093d 9b28 af3e
00000270: 19e7 b9bb 9b10 26bf c8c1 0abf 874a 1a3c
00000280: 39da 7d3d fa3f 7dbe 544f 173f 9e22 6a3e
00000290: 846e e53e d7e7 1e3e b159 6e3e 3257 ad3e
000002a0: 208c e9be 085d 33be 5c6e 71bc 6c95 263f
000002b0: 6d9b a2be 6b95 91be 16b6 2fbc bd80 ea3e
000002c0: 75b0 78bd d4cc 343e 9e9a 6fbe 55f3 f53e
000002d0: 8daa 89be 4c41 a5bd 98d5 27bc 6289 7d3e
000002e0: d7e1 583e 9ced 6fbd da8f 80b9 6a60 893c
000002f0: 2358 03bf 8b80 873e d69a e8be 15ce bcbe
00000300: 54e5 013f 9a59 fcbe 1eb0 f73e dfc6 27be
00000310: 19b9 643e 05ec 5f3e 2cdf 8c3e f438 31be
00000320: ef8c b1be 93ee 173f c729 d43e ad2e 033f
00000330: 330b 87bc c66e 02bf af25 50bd 0bba 14be
00000340: 8d89 893e 4b50 053f 6cec 8f3e 14cb cb3d
00000350: e190 bebc 21b5 123f 90a7 9fbc e0a0 a7bd
00000360: 1904 fd3d c35a 0ebd c6cd 8ebe 02a1 073f
00000370: 786e 423e 5376 af3e 39d9 5e3d ff63 a83e
00000380: e6fa b03e 6967 65be 5c1b 8dbe bca7 a23e
00000390: d1cf 943e 2cfa 2a3e 247e acbd 82b1 b5be
000003a0: d033 ac3e 62c8 d6be 40a6 31bd d7a2 d93e
000003b0: 2a5b 7ebe 68f4 b239 d96c 87be 7be3 bbbe
000003c0: 45b6 6f3e 25e4 b73e f931 dcbe 29db e2be
000003d0: 900e 2f3f 1df4 813e 45d7 a63e 7779 013d
000003e0: 5eb0 ee3e 405d abbe 57cc e83e 480a d13e
000003f0: f6c5 da3e 631f 5bbe 5ac3 ed3e 51d1 1ebf
0.06663417 -0.3657885 -0.566962 -0.20071056 0.44614053 -0.36755937 -0.27188268 -0.17603932
-0.38138735 0.18355891 0.43378365 -0.04715607 0.24061325 0.13319972 0.18620238 -0.2172179
-0.31439114 0.5237687 0.3197988 -0.15134546 0.3256541 -0.58271056 -0.01385156 0.3165361
0.09806393 -0.23149103 0.3761211 -0.08013942 0.28278962 0.4436276 -0.35119626 -0.30027747
0.52366316 -0.12823316 -0.22509873 -0.49702665 -0.32146388 -0.42031878 -0.41906646 -0.01901627
-0.55139124 0.49217862 0.008469414 0.6206353 -0.21401314 0.22901893 0.012161655 0.4751715
0.45532656 0.43483078 -0.2685335 -0.35330462 0.3035942 0.2119958 -0.14825422 0.26734895
0.4493816 0.049021665 -0.6484967 -0.19829595 -0.3862354 -0.28368384 0.5304609 0.41678995
-0.63176465 0.07569207 0.40830964 0.3128076 0.52091724 -0.570086 0.3712477 0.40677944
0.12033527 -0.21654698 0.56619847 -0.6449179 -0.2833567 -0.33549023 0.27915886 0.13069151
0.14358643 -0.5463707 -0.5718937 0.61323506 0.48949665 0.22400573 0.21524596 0.5815497
0.2364407 0.6626141 -0.2859397 -0.35821125 -0.097013295 -0.0076627703 -0.014348486 -0.041576713
0.31275022 -0.6013043 0.2146767 0.16064782 -0.41670394 -0.56909376 -0.2926251 -0.4766468
0.30682108 0.4926347 -0.4383552 0.19487761 -0.5360192 -0.50296843 0.4545726 -0.019390967
-0.067585364 0.43217516 0.40913895 0.49410582 -0.23010613 -0.46861282 -0.4656794 0.2376413
0.36882678 -0.08365376 0.07008452 0.09912924 -0.08460313 -0.09032036 -0.12791489 -0.59921736
-0.55169505 0.3548643 0.2791615 0.3510792 0.3264847 -0.07375753 0.36568898 0.28614756
0.55966187 -0.038528882 -0.019239584 0.078877576 -0.5644863 -0.09051115 0.010863943 0.39286268
-0.6457004 -0.18182161 0.5185217 -0.10136368 -0.4842826 -0.22867055 0.4999293 -0.23841126
-0.5005373 0.5314592 0.033607394 0.34210667 -0.005673301 -0.6486909 -0.54201937 0.009417183
0.06197569 -0.24731436 0.5910542 0.22864768 0.4481088 0.15518127 0.23276402 0.33855587
-0.4561472 -0.17515957 -0.014735784 0.6507175 -0.31759205 -0.2843431 -0.010724565 0.45801345
-0.060715158 0.1765626 -0.23398826 0.4803721 -0.26887932 -0.08069095 -0.010243796 0.24759439
0.21179901 -0.05857621 -0.0002452124 0.016769607 -0.5130636 0.26465258 -0.4543063 -0.36875978
0.5074055 -0.4928711 0.48376554 -0.16384457 0.22336234 0.21867378 0.27514017 -0.17306882
-0.34677836 0.5934841 0.41438124 0.51243097 -0.016484832 -0.50950277 -0.050817188 -0.14524095
0.26862755 0.5207564 0.28110063 0.099508435 -0.023262443 0.5730763 -0.01948908 -0.08184981
0.12354297 -0.034754526 -0.27891368 0.52980053 0.18987453 0.34269962 0.05440638 0.3288879
0.3456642 -0.22402729 -0.27559936 0.31768596 0.290648 0.16696995 -0.08422497 -0.3548699
0.3363328 -0.41949755 -0.04337144 0.4250705 -0.24839464 0.00034132903 -0.26450232 -0.3669699
0.23409374 0.35916248 -0.43006876 -0.4430783 0.68381596 0.25381556 0.32586113 0.03160998
0.46618932 -0.33469582 0.454684 0.40828156 0.42729157 -0.21398692 0.46438104 -0.6203814

linear_sigmoid_stack.0.bias f4 [16]
00000000: 6208 0eba 996d 20ba d818 9ab9 126a 9a3a
00000010: 3316 3eba 84a6 8e39 f40e edba 7b48 c43b
00000020: f472 e7ba c443 78ba 150e 6739 bb31 e039
00000030: 125d 04b9 4f96 2ab8 06de a83a 4860 4a3b
-0.0005418119 -0.0006119847 -0.0002939168 0.0011780879 -0.0007251233 0.00027208414 -0.0018086121 0.0059900857
-0.001765816 -0.0009470547 0.00022035123 0.00042761661 -0.00012623172 -4.0671144e-05 0.0012883551 0.0030880142

linear_sigmoid_stack.2.weight f4 [4, 16]
00000000: 685d 533d 5d1c bcba fdc9 1a3e 68d1 febd
00000010: c7fb a33e c690 653a d43c 213e e762 b8bd
00000020: 9faa 3ebd d0e0 c2bd cbad be3c b79a 8cb3
00000030: fdc7 edb2 23eb 61b3 36cf d83e c126 3dbe
00000040: d6d0 813d d6e4 d0bc 7a61 043e ee16 c63d
00000050: 2904 383e 3a22 813b 1ef2 fc3d 8db7 51bd
00000060: c802 4c3e ac31 ae3d 046c ba3d 21d2 6eb2
00000070: 7676 c4b1 4158 42b2 88d4 703e 153c 2bbd
00000080: 8aeb b6bd 20e3 debc da46 3ebe 7169 993d
00000090: 4d74 b6be 2c26 ffba 6590 d83a 0174 95bd
000000a0: 3e75 b7bc 74d0 2fbd 7ec3 ebbd df51 a030
000000b0: 3eca 0230 3ad9 8130 04ce 0d3e 6754 9bbd
000000c0: 35ab 8c3c 402d 1fbd 76b8 0cbe a9c5 07bd
000000d0: 3e83 8e3e 710d 073b aa5a 833d 44c0 ce3d
000000e0: ac62 dfbd 1861 cf3b 3679 aabc 5413 3532
000000f0: 4d49 8b31 07e6 0e32 c54d c7be d805 2a3e
0.05160275 -0.0014351715 0.15116115 -0.12442285 0.32028028 0.00087572297 0.1574586 -0.09003239
-0.046549436 -0.09515536 0.02327623 -6.5474005e-08 -2.7681375e-08 -5.260075e-08 0.4234559 -0.18471815
0.063386604 -0.025499742 0.1292781 0.09672342 0.17970337 0.0039408477 0.12350868 -0.05120044
0.19922936 0.08505568 0.091026336 -1.3901201e-08 -5.717818e-09 -1.1312353e-08 0.23518574 -0.041805346
-0.08931644 -0.027207911 -0.18581715 0.074908145 -0.35635605 -0.0019466332 0.0016522525 -0.072975166
-0.022394773 -0.042923406 -0.115118966 1.1664801e-09 4.758113e-10 9.447725e-10 0.1384812 -0.07584458
0.017171482 -0.038861513 -0.13742241 -0.033147488 0.27834505 0.0020607377 0.06413777 0.100952655
-0.10907492 0.006328713 -0.020809751 1.0539981e-08 4.0537658e-09 8.31779e-09 -0.3892652 0.16603792

linear_sigmoid_stack.2.bias f4 [4]
00000000: 3457 233c 8fb4 823a 6743 98bb bb83 783a
0.009969521 0.0009972024 -0.004646707 0.00094800786

last_fc.weight f4 [1, 4]
00000000: 052f 7f39 f866 6d38 0278 aeb6 f1b1 2db8
0.00024336211 5.66011e-05 -5.199575e-06 -4.1412135e-05
