Trained_paremeters/nn_checkpoints_CHRNA3_ukb_y4.pth (torch, 4695 bytes, 5 tensors)

linear_sigmoid_stack.0.weight f4 [16, 34]
-0.41927347 -0.3251581 0.88915884 0.009570686 -0.14965707 -0.12225333 0.9542089 0.8724486
0.8330558 0.7989015 -0.63328713 0.9042929 -0.5776357 -0.28143418 -0.12730792 0.392257
-0.5131695 0.6644743 -0.45034716 -0.49906385 0.39553437 0.5499451 0.46085933 -0.19829977
0.30964988 0.9614987 0.37852496 0.58846235 -0.0741238 0.65181345 -0.9653421 0.8370188
-0.54057026 0.8258094 -0.72808737 0.55778825 0.46879765 0.9324386 0.54270786 -0.15965034
-0.5616842 0.48092064 -0.37583414 -0.28939408 0.34391624 0.7385664 -0.3747797 -0.6679654
0.21431082 -0.6314758 0.41082567 -0.49581054 -0.45561618 -0.34128553 0.9057622 -0.08435459
0.1746733 0.66488653 -0.73167306 -0.37924612 0.8193835 -0.83825046 0.8281571 -0.7081187
-0.6302551 0.4295366 -0.3457524 0.24998862 -0.24365838 -0.62724596 0.13429286 0.96031755
0.7437088 0.21742357 0.8428784 0.64297205 -0.7701661 -0.8518426 0.96584326 0.2119867
0.049000002 0.68174905 -0.27180064 0.6328429 0.36533517 -0.36127785 -0.9425948 0.9024303
0.07170372 -0.40109214 0.0928764 0.4961332 0.5299707 -0.96200967 0.95541835 -0.2834584
-0.6651889 0.74674 -0.8420703 0.6482015 -0.1588378 0.84543586 -0.46647313 0.9579174
0.8071373 -0.9659251 0.96573025 0.83241296 0.40323514 0.83438027 -0.35591337 -0.71946865
0.8377944 -0.5310564 -0.5557647 -0.6736727 -0.6681498 -0.42963645 -0.06767203 0.9018852
-0.62096924 -0.14885181 -0.050209995 0.37428483 0.733023 -0.87996566 0.2330007 0.7702179
0.79030645 -0.85660154 0.21354266 0.4313926 -0.788174 0.059742194 -0.24136245 0.8273215
0.26778737 0.6275149 0.41359818 0.6059918 -0.0214095 0.9176023 0.20862155 0.67942417
-0.47910208 0.08469707 0.30552265 -0.8792198 0.076401114 0.22581369 0.46440917 0.8104632
0.646704 -0.82304806 0.3643297 -0.7913592 -0.025455892 0.6387367 -0.31498516 -0.8639975
-0.5501318 -0.41126522 0.6232954 0.9364252 0.878699 -0.07185224 -0.14835823 0.37737402
0.07354915 -0.25773364 0.52565825 0.96668565 0.5448281 -0.99173397 0.19331123 -0.349722
-0.1846977 -0.94181395 0.2792399 -0.5663463 -0.44174826 -0.04968964 0.10750583 0.22048607
-0.47554678 0.21271011 -0.4795839 0.090534784 0.851168 0.110501796 -0.66844785 -0.116506316
-0.194632 0.5109285 0.7447238 0.5399784 0.70801693 -0.6434244 -0.27896369 -0.77736807
-0.38270622 0.71548206 -0.6776319 0.35273772 -0.4721477 -0.50894314 -0.15687247 -0.16323538
0.8274004 -0.82450855 -0.5166188 -0.06956807 -0.63930297 0.7109581 -0.10091149 -0.9921681
0.41924164 0.83574 -0.033505965 -0.40816993 0.24373612 0.6207267 0.5026462 -0.42622083
0.86480725 -0.29618677 -0.21201546 0.24850783 0.73363864 -0.45713484 0.7279553 -0.73934996
0.059806276 -0.88658005 -0.37353492 0.4448729 0.36150953 -0.61052436 0.4408011 -0.006124787
0.38744316 -0.9274055 0.40252876 0.25387183 -0.80360216 0.75196606 0.49055067 -0.71809703
-0.29771206 -0.89342344 -0.2059827 0.95514864 0.84378624 0.36059648 -0.24224198 0.93059796
00000000: 03ab d6be 1f7b a6be ea9f 633f 5ece 1c3c
00000010: b43f 19be f45f fabd 0947 743f cb58 5f3f
00000020: 2543 553f cf84 4c3f 1b1f 22bf bd7f 673f
00000030: efdf 13bf 2418 90be 025d 02be e9d5 c83e
00000040: 145f 03bf fd1a 2a3f e793 e6be 4c85 ffbe
00000050: 7b83 ca3e 34c9 0c3f c1f5 eb3e 180f 4bbe
00000060: 6e8a 9e3e c724 763f 06ce c13e 78a5 163f
00000070: 38ce 97bd 3fdd 263f a920 77bf dd46 563f
00000080: d062 0abf 3f68 533f ef63 3abf 36cb 0e3f
00000090: 3f06 f03e 4cb4 6e3f e7ee 0a3f 617b 23be
000000a0: 89ca 0fbf 3b3b f63e 556d c0be 762b 94be
000000b0: ca15 b03e b012 3d3f 20e3 bfbe c8ff 2abf
000000c0: 4c74 5b3e 66a8 21bf be57 d23e e1da fdbe
000000d0: 8646 e9be fabc aebe 08e0 673f 19c2 acbd
000000e0: 8fdd 323e 0136 2a3f ed4e 3bbf 8c2c c2be
000000f0: 1ec3 513f 9597 56bf 1b02 543f 4447 35bf
00000100: 6658 21bf 39ec db3e 7506 b1be 04fd 7f3e
00000110: 9581 79be 3193 20bf 1184 093e 5fd7 753f
00000120: b363 3e3f 49a4 5e3e e1c6 573f d199 243f
00000130: 9b29 45bf 5b12 5abf 8141 773f 0b13 593e
00000140: 3ab4 483d 1b87 2e3f 7429 8bbe fe01 223f
00000150: 360d bb3e 69f9 b8be e54d 71bf ac05 673f
00000160: 66d9 923d f35b cdbe fb35 be3d 2c05 fe3e
00000170: 29ac 073f 4446 76bf 4c96 743f 7621 91be
00000180: d249 2abf 5a2a 3f3f eb91 57bf 89f0 253f
00000190: 60a6 22be 7c6e 583f 91d5 eebe 133a 753f
000001a0: 8da0 4e3f de46 77bf 193a 773f 0419 553f
000001b0: d674 ce3e f299 553f 473a b6be 192f 38bf
000001c0: b279 563f 50f3 07bf 9846 0ebf d075 2cbf
000001d0: de0b 2bbf 4ff9 dbbe a297 8abd f3e1 663f
000001e0: d7f7 1ebf 9c6c 18be ffa8 4dbd 43a2 bf3e
000001f0: 65a7 3b3f 6e45 61bf bc97 6e3e 002d 453f
00000200: 8651 4a3f 3d4a 5bbf edaa 5a3e 7edf dc3e
00000210: c5c5 49bf 3bb4 743d b827 77be 58cb 533f
00000220: 6d1b 893e d1a4 203f 24c3 d33e 4722 1b3f
00000230: fa62 afbc fce7 6a3f e3a0 553e beee 2d3f
00000240: de4c f5be a875 ad3d 776d 9c3e 8c14 61bf
00000250: 3078 9c3d b43b 673e 0ac7 ed3e 847a 4f3f
00000260: 658e 253f 47b3 52bf 6c89 ba3e 8496 4abf
00000270: e088 d0bc 4084 233f bc45 a1be f12e 5dbf
00000280: 70d5 0cbf 5b91 d2be 4a90 1f3f 90b9 6f3f
00000290: 6bf2 603f 4427 93bd 38eb 17be 2b37 c13e
000002a0: f0a0 963d aaf5 83be 8a91 063f b678 773f
000002b0: db79 0b3f 47e2 7dbf 61f3 453e c30e b3be
000002c0: 6521 3dbe b81a 71bf 88f8 8e3e 12fc 10bf
000002d0: d42c e2be 5d87 4bbd 042c dc3d 1ac7 613e
000002e0: de7a f3be aed0 593e 058c f5be 4d6a b93d
000002f0: 25e6 593f c44e e23d 661f 2bbf dd9a eebd
00000300: 9c4d 47be 36cc 023f 38a6 3e3f 063c 0a3f
00000310: 9940 353f 76b7 24bf 54d4 8ebe 9801 47bf
00000320: 12f2 c3be d529 373f 4979 2dbf 0a9a b43e
00000330: 58bd f1be 194a 02bf 2da3 20be 2d27 27be
00000340: 83d0 533f fe12 53bf 2141 04bf b479 8ebd
00000350: 5ca9 23bf 5a01 363f afaa cebd bbfe 7dbf
00000360: d7a6 d63e 0ef3 553f 8d3d 09bd a6fb d0be
00000370: f695 793e f2e7 1e3f 6cad 003f 9e39 dabe
00000380: 0264 5d3f cba5 97be 951a 59be d678 7e3e
00000390: becf 3b3f 940d eabe 475b 3a3f 0a46 3dbf
000003a0: 6df7 743d e9f6 62bf f83f bfbe 61c6 e33e
000003b0: c717 b93e 534b 1cbf afb0 e13e 70b2 c8bb
000003c0: f35e c63e 726a 6dbf 4018 ce3e 7dfb 813e
000003d0: dfb8 4dbf d980 403f 7529 fb3e 35d5 37bf
000003e0: b76d 98be 66b7 64bf 21ed 52be 9f84 743f
000003f0: 6002 583f 1aa0 b83e 480e 78be ab3b 6e3f

linear_sigmoid_stack.0.bias f4 [16]
-0.0021611357 0.03637414 -0.0055031586 -0.002038671 -0.01688265 -0.01714338 -0.025997909 -0.008290235
0.0059129344 0.026545938 0.0038657698 -0.05586251 -0.009900489 0.0032866856 0.0075609726 0.019810474
00000000: d7a1 0dbb 0dfd 143d d753 b4bb 399b 05bb
00000010: 7c4d 8abc 4670 8cbc 91f9 d4bc c4d3 07bc
00000020: 4ac1 c13b de76 d93c db58 7d3b 16d0 64bd
00000030: a935 22bc 6f65 573b 09c2 f73b 9349 a23c

linear_sigmoid_stack.2.weight f4 [4, 16]
-0.5982261 -0.13135192 0.3616843 0.54392576 0.22098976 0.7743034 0.6940886 -0.49226066
0.37393254 0.79362166 -0.44097954 0.44988903 0.63636404 -0.11477844 0.83155954 -0.18493102
0.5267218 0.7727244 0.68435484 0.10294323 0.83021575 -0.426346 -0.4048378 0.76043725
0.1973653 -0.7615175 0.6516539 0.38954303 0.37532267 -0.5509826 -0.62693727 -0.21311788
0.16919667 0.42871904 -0.694142 -0.6273258 -0.38017088 0.2867886 -0.627985 -0.93665546
-0.44886336 0.6431884 -0.3231669 0.8764263 -0.882416 -0.10492793 -0.10212492 -0.24025394
0.43275613 0.27858713 0.8882929 0.7428286 -0.031718772 -0.16738732 0.21932343 -0.51114464
0.8861552 0.7199406 -0.6774736 0.41011778 0.7310237 0.57504517 0.5727656 0.96639
00000000: 5825 19bf 1e81 06be af2e b93e b83e 0b3f
00000010: 244b 623e bf38 463f caaf 313f 9709 fcbe
00000020: 1674 bf3e ca2a 4b3f 12c8 e1be db57 e63e
00000030: c1e8 223f f510 ebbd 16e1 543f 8f5e 3dbe
00000040: 3dd7 063f 44d1 453f e131 2f3f e6d3 d23d
00000050: 0589 543f 064a dabe e646 cfbe 04ac 423f
00000060: 211a 4a3e d0f2 42bf cad2 263f 2f72 c73e
00000070: 4b2a c03e 320d 0dbf f67e 20bf 933b 5abe
00000080: e441 2d3e 1081 db3e 4ab3 31bf 6c98 20bf
00000090: c2a5 c2be f5d5 923e a0c3 20bf a7c8 6fbf
000000a0: 6bd1 e5be ffa7 243f 2276 a5be 795d 603f
000000b0: 04e6 61bf 74e4 d6bd df26 d1bd 2105 76be
000000c0: 3692 dd3e f9a2 8e3e 2a67 633f 042a 3e3f
000000d0: 8beb 01bd 9567 2bbe 5296 603e 60da 02bf
000000e0: 11db 623f 074e 383f e96e 2dbf f5fa d13e
000000f0: 5f24 3b3f 2936 133f c4a0 123f 5665 773f

linear_sigmoid_stack.2.bias f4 [4]
-0.09639683 -0.092234746 -0.039897513 0.04590422
00000000: b46b c5bd 92e5 bcbd 936b 23bd 1006 3c3d

last_fc.weight f4 [1, 4]
-0.54488283 -0.46102202 -0.63319325 0.3982219
00000000: 717d 0bbf 140b ecbe f418 22bf bee3 cb3e
