Trained_paremeters/nn_checkpoints_CHRNB4_TL_ukb_y4.pth (torch, 7447 bytes, 6 tensors)

linear_sigmoid_stack.0.weight f8 [16, 36]
000000 00 00 00 00 d9 73 bb bf 00 00 00 40 66 20 e4 3f
       -0.10723644495010376 0.6289550065994263
000010 00 00 00 60 83 e0 d3 3f 00 00 00 20 cd 18 e4 3f
       0.31057819724082947 0.6280274987220764
000020 00 00 00 e0 0e 0a ae bf 00 00 00 e0 72 9a df 3f
       -0.05867048725485802 0.4938018023967743
000030 00 00 00 00 88 c3 e5 3f 00 00 00 e0 36 91 eb bf
       0.6801185607910156 -0.8614763617515564
000040 00 00 00 a0 21 21 de bf 00 00 00 e0 51 91 e2 bf
       -0.4707721769809723 -0.5802392363548279
000050 00 00 00 40 f4 a1 a3 3f 00 00 00 20 0c 60 e1 3f
       0.038344986736774445 0.5429745316505432
000060 00 00 00 80 71 b8 e6 bf 00 00 00 20 22 62 c1 3f
       -0.710015058517456 0.13580729067325592
000070 00 00 00 20 ab 97 d2 3f 00 00 00 40 c1 9c de 3f
       0.29050710797309875 0.4783175587654114
000080 00 00 00 00 5a 1f dd 3f 00 00 00 80 01 f4 e2 3f
       0.45503854751586914 0.5922858715057373
000090 00 00 00 a0 51 0d e7 bf 00 00 00 40 fe cb e4 3f
       -0.7203758358955383 0.6499015092849731
0000a0 00 00 00 20 db 21 da bf 00 00 00 00 92 1b dc 3f
       -0.40831640362739563 0.43918275833129883
0000b0 00 00 00 a0 c0 0c e8 bf 00 00 00 60 9f 30 db bf
       -0.7515566945075989 -0.4248426854610443
0000c0 00 00 00 80 8a 1d e4 bf 00 00 00 20 15 6a da bf
       -0.6286060810089111 -0.4127247631549835
0000d0 00 00 00 e0 e0 de e7 bf 00 00 00 60 72 e5 e7 3f
       -0.7459568381309509 0.7467586398124695
0000e0 00 00 00 00 82 e6 c7 3f 00 00 00 c0 fa a8 e9 bf
       0.1867220401763916 -0.8018773794174194
0000f0 00 00 00 a0 f2 f0 d4 3f 00 00 00 a0 61 86 e3 bf
       0.3272062838077545 -0.6101539731025696
000100 00 00 00 20 a6 95 a3 3f 00 00 00 40 9f f4 d7 bf
       0.038251105695962906 -0.3743055462837219
000110 00 00 00 20 92 82 e4 3f 00 00 00 60 b4 6c cc bf
       0.6409388184547424 -0.22206740081310272
000120 00 00 00 60 a3 36 b5 bf 00 00 00 00 a1 59 e1 bf
       -0.08286496251821518 -0.5421910285949707
000130 00 00 00 e0 d5 a5 a7 3f 00 00 00 c0 12 eb e1 bf
       0.04618709906935692 -0.5599454641342163
000140 00 00 00 c0 2c 3c bc bf 00 00 00 00 64 fe d6 3f
       -0.1102931946516037 0.35927677154541016
000150 00 00 00 00 8d d9 d2 3f 00 00 00 c0 a0 36 d3 bf
       0.2945282459259033 -0.3002092242240906
000160 00 00 00 a0 ff 52 c5 bf 00 00 00 60 3c e7 e3 bf
       -0.16659541428089142 -0.6219770312309265
000170 00 00 00 80 c2 10 e5 bf 00 00 00 e0 5f 69 d3 3f
       -0.6582958698272705 0.30330654978752136
000180 00 00 00 e0 62 ca e4 bf 00 00 00 00 4e 85 ea bf
       -0.6497053503990173 -0.8287725448608398
000190 00 00 00 80 a3 f9 e9 bf 00 00 00 20 78 b7 e5 bf
       -0.8117234706878662 -0.6786461472511292
0001a0 00 00 00 80 dc 94 c7 bf 00 00 00 a0 3e be ca bf
       -0.18423038721084595 -0.20893080532550812
0001b0 00 00 00 40 92 41 d6 bf 00 00 00 80 8e 07 de bf
       -0.3477521538734436 -0.469211220741272
0001c0 00 00 00 80 ce f1 e6 3f 00 00 00 e0 c7 dc c7 bf
       0.717017412185669 -0.18642519414424896
0001d0 00 00 00 40 71 94 ba 3f 00 00 00 a0 5d 11 e4 bf
       0.10382755100727081 -0.6271198391914368
0001e0 00 00 00 60 a9 62 e5 bf 00 00 00 e0 f2 3b c8 3f
       -0.6682936549186707 0.18932949006557465
0001f0 00 00 00 20 3b 0c e8 3f 00 00 00 e0 27 d7 e4 bf
       0.7514930367469788 -0.6512641310691833
000200 00 00 00 a0 95 e8 e6 bf 00 00 00 20 8c da a6 bf
       -0.7158916592597961 -0.044636134058237076
000210 00 00 00 80 a2 38 e1 bf 00 00 00 00 79 12 eb bf
       -0.538163423538208 -0.8460049629211426
000220 00 00 00 a0 46 0c e0 bf 00 00 00 40 aa 2d e3 bf
       -0.5014985203742981 -0.5993243455886841
000230 00 00 00 c0 3f 30 e5 3f 00 00 00 60 3e 40 d9 3f
       0.6621397733688354 0.39454612135887146
000240 00 00 00 40 b2 6a eb 3f 00 00 00 40 f0 54 e2 bf
       0.8567744493484497 -0.5728684663772583
000250 00 00 00 00 1f a3 ea 3f 00 00 00 80 31 6b ce bf
       0.8324122428894043 -0.23764628171920776
000260 00 00 00 c0 24 dd ea bf 00 00 00 80 18 02 e4 3f
       -0.839495062828064 0.625255823135376
000270 00 00 00 80 5e b0 d2 3f 00 00 00 80 40 15 d1 bf
       0.2920147180557251 -0.26692211627960205
000280 00 00 00 00 2a 04 c6 bf 00 00 00 c0 7b 55 e6 bf
       -0.17200207710266113 -0.6979349851608276
000290 00 00 00 e0 e7 be de bf 00 00 00 e0 34 46 ce 3f
       -0.4804019629955292 0.236517533659935
0002a0 00 00 00 60 81 fd dc 3f 00 00 00 e0 5e a2 e7 3f
       0.45297273993492126 0.7385706305503845
0002b0 00 00 00 e0 c8 09 e1 bf 00 00 00 60 48 12 e8 3f
       -0.532444417476654 0.752231776714325
0002c0 00 00 00 e0 94 09 e4 bf 00 00 00 a0 de ff de 3f
       -0.6261696219444275 0.4843670427799225
0002d0 00 00 00 c0 06 56 dd bf 00 00 00 e0 26 90 e1 3f
       -0.45837563276290894 0.5488466620445251
0002e0 00 00 00 40 d2 0d d1 bf 00 00 00 c0 c3 cd e3 bf
       -0.2664685845375061 -0.6188677549362183
0002f0 00 00 00 e0 db 86 e6 bf 00 00 00 e0 73 17 e5 bf
       -0.7039622664451599 -0.6591128706932068
000300 00 00 00 c0 62 f1 ca bf 00 00 00 c0 3f 3e c8 bf
       -0.21049150824546814 -0.18939968943595886
000310 00 00 00 60 5a 53 e9 3f 00 00 00 a0 a7 f5 d0 bf
       0.7914249300956726 -0.2649935781955719
000320 00 00 00 e0 c8 23 ea 3f 00 00 00 40 b4 e5 e6 bf
       0.816868245601654 -0.7155400514602661
000330 00 00 00 40 1c 1a e7 3f 00 00 00 40 06 1f c7 3f
       0.7219372987747192 0.1806342899799347
000340 00 00 00 20 22 10 e1 bf 00 00 00 40 82 fe 98 bf
       -0.5332193970680237 -0.02440837398171425
000350 00 00 00 e0 87 13 b4 bf 00 00 00 00 9b 38 c6 bf
       -0.07842301577329636 -0.17360246181488037
000360 00 00 00 a0 aa 18 ea 3f 00 00 00 c0 b1 d6 a5 3f
       0.8155110478401184 0.04265361279249191
000370 00 00 00 40 6b 0e e4 3f 00 00 00 40 fd d4 e5 bf
       0.6267601251602173 -0.6822496652603149
000380 00 00 00 80 80 a7 cf 3f 00 00 00 20 c3 84 e2 bf
       0.24729925394058228 -0.5787063241004944
000390 00 00 00 60 19 f6 d1 bf 00 00 00 60 47 55 c1 3f
       -0.2806456983089447 0.1354150027036667
0003a0 00 00 00 00 0c 29 c2 bf 00 00 00 e0 0c 9f c0 3f
       -0.1418776512145996 0.12985382974147797
0003b0 00 00 00 20 56 9d df bf 00 00 00 60 11 1c d3 3f
       -0.4939780533313751 0.2985881268978119
0003c0 00 00 00 40 9d 9a e2 3f 00 00 00 80 0e c4 d0 3f
       0.5813738107681274 0.261966347694397
0003d0 00 00 00 80 d8 b6 d6 3f 00 00 00 20 6f be c1 bf
       0.3549100160598755 -0.13862408697605133
0003e0 00 00 00 00 d1 9d 9c bf 00 00 00 80 48 b6 af 3f
       -0.02794577181339264 0.06193758547306061
0003f0 00 00 00 80 aa ae e6 3f 00 00 00 c0 fb 55 d8 3f
       0.7088215351104736 0.3802480101585388
000400 00 00 00 a0 a7 4b e0 bf 00 00 00 80 9f fe af bf
       -0.5092352032661438 -0.06248949468135834
000410 00 00 00 c0 47 47 c3 3f 00 00 00 c0 5d f1 e3 bf
       0.15061280131340027 -0.6232136487960815
000420 00 00 00 80 89 b0 bf bf 00 00 00 20 12 86 e4 3f
       -0.12378749251365662 0.6413660645484924
000430 00 00 00 a0 66 97 dd 3f 00 00 00 20 65 76 e6 bf
       0.4623657763004303 -0.7019525170326233
000440 00 00 00 20 8d 81 e3 3f 00 00 00 80 f4 84 c2 bf
       0.6095643639564514 -0.14468246698379517
000450 00 00 00 a0 78 9d e0 3f 00 00 00 a0 50 13 db 3f
       0.5192225575447083 0.42305389046669006
000460 00 00 00 80 7f ad bb 3f 00 00 00 00 6e 4d e3 3f
       0.10811612010002136 0.6032018661499023
000470 00 00 00 00 d2 91 e4 3f 00 00 00 e0 52 1a c7 bf
       0.6428003311157227 -0.18049083650112152
000480 00 00 00 60 45 46 cb 3f 00 00 00 60 c2 83 e1 3f
       0.21308200061321259 0.5473338961601257
000490 00 00 00 00 f7 00 e6 bf 00 00 00 e0 65 8d d2 3f
       -0.6876177787780762 0.28988024592399597
0004a0 00 00 00 20 72 79 e1 bf 00 00 00 80 83 d0 e2 bf
       -0.5460749268531799 -0.5879533290863037
0004b0 00 00 00 c0 51 ce e3 3f 00 00 00 00 91 94 df 3f
       0.6189354658126831 0.4934427738189697
0004c0 00 00 00 e0 ed 54 cd bf 00 00 00 e0 a6 3a c6 3f
       -0.2291543334722519 0.1736649125814438
0004d0 00 00 00 00 f4 05 e0 bf 00 00 00 c0 1f 8a ea 3f
       -0.5007266998291016 0.829360842704773
0004e0 00 00 00 e0 02 c7 eb 3f 00 00 00 00 67 ab cd 3f
       0.8680433630943298 0.23179328441619873
0004f0 00 00 00 80 0e ed ce bf 00 00 00 20 6f 5f c9 3f
       -0.2416093945503235 0.19822491705417633
000500 00 00 00 c0 2e 59 bc 3f 00 00 00 80 75 8e ca bf
       0.11073581874370575 -0.20747250318527222
000510 00 00 00 00 b8 15 cf 3f 00 00 00 40 8f 8c d1 3f
       0.24285030364990234 0.2742040753364563
000520 00 00 00 e0 26 b8 8f bf 00 00 00 00 6b cd bb bf
       -0.015487960539758205 -0.10860317945480347
000530 00 00 00 40 de 67 b3 bf 00 00 00 60 70 49 ce 3f
       -0.07580365240573883 0.23661617934703827
000540 00 00 00 a0 d9 35 51 bf 00 00 00 c0 89 a4 df bf
       -0.0010504365200176835 -0.49441760778427124
000550 00 00 00 60 0c 17 c4 3f 00 00 00 20 c7 5f de 3f
       0.1569533795118332 0.4745958149433136
000560 00 00 00 20 0e 86 be bf 00 00 00 00 b0 ff e2 bf
       -0.11923301964998245 -0.5937118530273438
000570 00 00 00 80 09 d6 ea 3f 00 00 00 e0 4b b0 e2 bf
       0.8386275768280029 -0.5840205550193787
000580 00 00 00 a0 3a bc cc bf 00 00 00 20 6b e9 e1 3f
       -0.22449429333209991 0.5597434639930725
000590 00 00 00 a0 41 f0 70 3f 00 00 00 c0 61 13 aa bf
       0.0041353763081133366 -0.05092912167310715
0005a0 00 00 00 60 ac 8f cd bf 00 00 00 00 58 5b d8 bf
       -0.23094706237316132 -0.38057518005371094
0005b0 00 00 00 c0 50 2b ea 3f 00 00 00 a0 57 af eb bf
       0.8177875280380249 -0.8651540875434875
0005c0 00 00 00 40 e4 4b e0 3f 00 00 00 a0 de 63 b2 bf
       0.5092641115188599 -0.07183638960123062
0005d0 00 00 00 20 0b 02 c8 3f 00 00 00 e0 f1 9a d0 3f
       0.18756236135959625 0.2594570815563202
0005e0 00 00 00 e0 2c 0d c7 3f 00 00 00 40 23 19 e2 3f
       0.1800895780324936 0.5655685663223267
0005f0 00 00 00 00 72 3e e9 bf 00 00 00 00 79 0c e9 3f
       -0.7888727188110352 0.7827725410461426
000600 00 00 00 60 d3 f5 bc 3f 00 00 00 60 f5 6d e5 3f
       0.1131260022521019 0.6696726679801941
000610 00 00 00 80 3f 8e a7 3f 00 00 00 60 36 47 cf 3f
       0.04600714147090912 0.24436073005199432
000620 00 00 00 40 ed 77 d5 3f 00 00 00 20 3b b8 e9 bf
       0.33544474840164185 -0.8037391304969788
000630 00 00 00 20 06 39 d7 3f 00 00 00 40 c2 70 e8 bf
       0.362855464220047 -0.763764500617981
000640 00 00 00 c0 74 cb e0 3f 00 00 00 00 85 63 d2 bf
       0.5248359441757202 -0.2873241901397705
000650 00 00 00 a0 2b cf dc 3f 00 00 00 40 6a c3 7c 3f
       0.4501446783542633 0.00702229980379343
000660 00 00 00 60 79 66 e8 3f 00 00 00 20 3f cd ea 3f
       0.7625090479850769 0.8375545144081116
000670 00 00 00 c0 e9 f0 e9 bf 00 00 00 60 ee 0f eb 3f
       -0.81065833568573 0.8456947207450867
000680 00 00 00 a0 ef 35 ba bf 00 00 00 a0 c4 62 e6 3f
       -0.1023854985833168 0.6995566487312317
000690 00 00 00 40 fa 6b eb bf 00 00 00 20 92 e6 e4 bf
       -0.8569308519363403 -0.6531458497047424
0006a0 00 00 00 60 87 2d ac bf 00 00 00 40 02 43 e6 bf
       -0.055034857243299484 -0.695679783821106
0006b0 00 00 00 60 76 94 de 3f 00 00 00 80 d5 03 ea bf
       0.47781142592430115 -0.8129680156707764
0006c0 00 00 00 40 7d f4 ce 3f 00 00 00 a0 b4 7a b1 bf
       0.24183622002601624 -0.06827858835458755
0006d0 00 00 00 a0 69 8c e7 3f 00 00 00 e0 81 c6 e8 3f
       0.7358902096748352 0.7742318511009216
0006e0 00 00 00 80 cf f6 c8 bf 00 00 00 00 6f d7 d2 bf
       -0.1950320601463318 -0.2943990230560303
0006f0 00 00 00 00 7b c8 e6 bf 00 00 00 c0 f6 c6 d9 3f
       -0.711972713470459 0.4027687907218933
000700 00 00 00 00 88 b9 d8 3f 00 00 00 c0 16 e9 d5 bf
       0.3863239288330078 -0.34235161542892456
000710 00 00 00 c0 d0 09 6e bf 00 00 00 a0 19 2c e9 3f
       -0.00366678973659873 0.786633312702179
000720 00 00 00 40 83 d1 db 3f 00 00 00 40 8e f8 aa 3f
       0.4346626400947571 0.05267757922410965
000730 00 00 00 40 ea 17 e8 bf 00 00 00 80 9d 3d e8 3f
       -0.7529193162918091 0.757521390914917
000740 00 00 00 00 a1 35 e1 3f 00 00 00 c0 83 5a e6 3f
       0.5377964973449707 0.6985491514205933
000750 00 00 00 40 a5 f7 c3 bf 00 00 00 00 fe 9a e4 bf
       -0.15599504113197327 -0.6439199447631836
000760 00 00 00 60 77 84 db 3f 00 00 00 00 8e 86 e9 3f
       0.42996010184288025 0.7976751327514648
000770 00 00 00 00 a0 bd d2 bf 00 00 00 a0 49 fa e8 3f
       -0.29282379150390625 0.7805526852607727
000780 00 00 00 20 3a 6d e6 3f 00 00 00 00 50 96 a4 bf
       0.7008333802223206 -0.040209293365478516
000790 00 00 00 40 df 1c dc 3f 00 00 00 20 88 dc d7 3f
       0.4392622113227844 0.3728351891040802
0007a0 00 00 00 c0 51 30 d9 3f 00 00 00 80 64 76 e2 3f
       0.39357417821884155 0.5769522190093994
0007b0 00 00 00 60 01 de cd bf 00 00 00 c0 37 eb dc 3f
       -0.23333756625652313 0.4518565535545349
0007c0 00 00 00 e0 bb 2d b3 3f 00 00 00 c0 c7 a2 c3 3f
       0.07491659373044968 0.15340515971183777
0007d0 00 00 00 c0 a3 8c c5 3f 00 00 00 60 0c f1 e0 3f
       0.16835448145866394 0.5294248461723328
0007e0 00 00 00 00 18 44 ea 3f 00 00 00 80 05 ac b7 3f
       0.8208122253417969 0.09246858954429626
0007f0 00 00 00 e0 2c 72 d3 3f 00 00 00 80 0f d9 b2 bf
       0.3038437068462372 -0.07362458109855652

linear_sigmoid_stack.0.bias f8 [16]
000000 00 00 00 80 85 74 70 3f 00 00 00 c0 09 4a 58 3f
       0.00401737354695797 0.0014824958052486181
000010 00 00 00 20 e7 59 5a 3f 00 00 00 60 f7 dc 7a bf
       0.001608348567970097 -0.006558386143296957
000020 00 00 00 80 7c d5 6b 3f 00 00 00 40 71 60 5b bf
       0.003397696651518345 -0.0016709428746253252
000030 00 00 00 00 02 78 5f bf 00 00 00 60 95 92 64 3f
       -0.0019207019358873367 0.0025113027077168226
000040 00 00 00 00 4d f5 90 bf 00 00 00 c0 27 61 63 bf
       -0.01656074821949005 -0.002365663181990385
000050 00 00 00 20 e1 2b 84 3f 00 00 00 40 7a c4 80 3f
       0.00984931830316782 0.008187251165509224
000060 00 00 00 c0 8a 5d 59 bf 00 00 00 00 26 f4 68 bf
       -0.0015481810551136732 -0.0030461065471172333
000070 00 00 00 a0 a1 6b 59 3f 00 00 00 c0 84 6d 57 bf
       0.0015515402192249894 -0.0014299198519438505

linear_sigmoid_stack.2.weight f8 [4, 16]
000000 00 00 00 40 18 af e3 3f 00 00 00 a0 4d 2e ce bf
       0.6151238679885864 -0.23578806221485138
000010 00 00 00 20 dd ea c1 bf 00 00 00 40 db e3 d3 bf
       -0.13997997343540192 -0.310782253742218
000020 00 00 00 a0 27 7e de 3f 00 00 00 80 32 3c b1 3f
       0.4764498770236969 0.06732478737831116
000030 00 00 00 20 1f 54 c4 3f 00 00 00 60 5a d0 e1 bf
       0.15881718695163727 -0.5566837191581726
000040 00 00 00 e0 20 1b d7 bf 00 00 00 20 c2 77 a3 bf
       -0.36103078722953796 -0.03802305832505226
000050 00 00 00 40 ef 09 c5 bf 00 00 00 00 ff 91 e7 bf
       -0.16436567902565002 -0.7365717887878418
000060 00 00 00 40 d9 43 d7 3f 00 00 00 80 e0 68 93 3f
       0.3635161519050598 0.01895476132631302
000070 00 00 00 60 84 3d e1 bf 00 00 00 20 3b a8 d4 3f
       -0.5387594103813171 0.3227680027484894
000080 00 00 00 00 a9 29 d5 3f 00 00 00 a0 db ae d1 bf
       0.33066773414611816 -0.2762974798679352
000090 00 00 00 40 4b 59 c5 bf 00 00 00 20 af 73 d8 bf
       -0.1667875349521637 -0.38206079602241516
0000a0 00 00 00 e0 78 36 e0 3f 00 00 00 00 e9 c8 95 bf
       0.5066494345664978 -0.021274223923683167
0000b0 00 00 00 a0 05 af d6 3f 00 00 00 e0 cf 16 ca bf
       0.35443249344825745 -0.20382116734981537
0000c0 00 00 00 e0 9f 06 dc 3f 00 00 00 20 9b b9 d2 bf
       0.43790432810783386 -0.29257848858833313
0000d0 00 00 00 40 a7 da d7 3f 00 00 00 00 5a 86 d3 3f
       0.37272053956985474 0.30507516860961914
0000e0 00 00 00 80 1d 0a c7 3f 00 00 00 20 43 62 b8 bf
       0.17999619245529175 -0.09524936228990555
0000f0 00 00 00 60 f3 5c c5 3f 00 00 00 80 53 a5 d0 bf
       0.16689912974834442 -0.260090708732605
000100 00 00 00 60 89 5f d1 3f 00 00 00 c0 8f 52 e8 3f
       0.2714560925960541 0.7600783109664917
000110 00 00 00 80 0b 0a e6 3f 00 00 00 40 83 8f e1 3f
       0.6887261867523193 0.5487686395645142
000120 00 00 00 a0 5b 25 a7 3f 00 00 00 c0 98 bc b3 3f
       0.04520689323544502 0.07709650695323944
000130 00 00 00 a0 12 c9 d7 3f 00 00 00 20 07 09 d3 3f
       0.37164750695228577 0.2974260151386261
000140 00 00 00 20 29 81 e6 3f 00 00 00 c0 0d 0c e5 bf
       0.7032666802406311 -0.6577214002609253
000150 00 00 00 e0 a4 f7 bf bf 00 00 00 00 34 6a d8 3f
       -0.12487249821424484 0.3814821243286133
000160 00 00 00 e0 94 1c bd 3f 00 00 00 c0 e5 19 df bf
       0.11371736973524094 -0.4859556555747986
000170 00 00 00 20 76 90 d4 3f 00 00 00 e0 34 05 df bf
       0.32131722569465637 -0.48469278216362
000180 00 00 00 20 74 32 d7 3f 00 00 00 60 f0 c8 e5 bf
       0.36245444416999817 -0.6807786822319031
000190 00 00 00 e0 e7 b3 d3 bf 00 00 00 40 6e f1 ab bf
       -0.3078555762767792 -0.05457634478807449
0001a0 00 00 00 60 35 9b c5 bf 00 00 00 20 4b 04 8c bf
       -0.16879908740520477 -0.013680064119398594
0001b0 00 00 00 20 58 0b dc 3f 00 00 00 00 a7 23 e0 bf
       0.4381923973560333 -0.5043520927429199
0001c0 00 00 00 80 3b 48 e4 3f 00 00 00 e0 f5 74 d9 bf
       0.6338174343109131 -0.3977636992931366
0001d0 00 00 00 20 32 86 db bf 00 00 00 40 c8 2e e8 bf
       -0.43006566166877747 -0.7557107210159302
0001e0 00 00 00 80 28 63 c2 3f 00 00 00 40 51 ea d0 bf
       0.1436510682106018 -0.264301598072052
0001f0 00 00 00 40 9e 4a e0 bf 00 00 00 e0 3b 57 c8 3f
       -0.5091086626052856 0.19016216695308685

linear_sigmoid_stack.2.bias f8 [4]
000000 00 00 00 00 4f 73 64 3f 00 00 00 c0 ca d5 ae 3f
       0.0024963896721601486 0.060224853456020355
000010 00 00 00 00 a4 97 a3 bf 00 00 00 40 40 f0 ab bf
       -0.03826630115509033 -0.05456734448671341

last_fc.weight f8 [1, 4]
000000 09 5b 45 65 72 b9 cb bf b7 6a 96 35 82 ec d9 bf
       -0.21659688897008092 -0.405060341197593
000010 5f 85 b8 1c b7 11 d0 3f 30 5d a2 69 51 8d d5 3f
       0.2510812550045411 0.3367503673157044

last_fc.bias f8 [1]
000000 76 b9 e1 d2 74 46 99 3f
       0.024682832118224828
