Trained_paremeters/nn_checkpoints_CHRNA3_TL_sage.pth (torch, 4695 bytes, 5 tensors)

linear_sigmoid_stack.0.weight f4 [16, 34]
00000000: cbe0 c83e 7851 4d3f 65a4 2a3f 4494 6bbf
00000010: d364 563f 2493 d1be aa71 483f c1be 403f
00000020: 2def 163f 4309 56be dd83 a2be 6d15 28bf
00000030: 1d41 ffbd 4df1 12bf 8013 0b3e 7213 07be
00000040: 3df2 e6bd 56b0 833f 4a58 2b3f b956 e6bd
00000050: 1bb8 bdbd 3c9c adbe 5a10 1ebf 7d91 1bbf
00000060: cca8 e3be 7eb3 ee3e c1ac 3c3f d94a 45bf
00000070: 6004 1abf 1cc5 8a3e d746 f8be c380 7fbf
00000080: e74e 4cbf 7ffb 5a3e 77c1 e73e d6d2 8ebe
00000090: c586 36bf 8abf 36be d1a6 0bbf 1bee 3f3f
000000a0: 8420 f9be 95f7 483f b981 5dbe edae 443f
000000b0: 38cb cc3e d55e f9be 003f 7ebf 5b24 ac3e
000000c0: bc9f 14bf 05f7 503f 18fb 58bf 6999 443e
000000d0: c03e fbbd 4324 47bf 0dd5 9fbe ed26 12bf
000000e0: d301 6c3f 3911 7bbf da1b 593f 3f20 6b3d
000000f0: 0a35 6e3f b79a 0a3c b0ab 153d de13 703f
00000100: ad89 d03e cfdd 153e 5d50 42bf 6c9e 1dbf
00000110: 96f6 943e 02cc 913e 1744 e13e 29aa 1f3f
00000120: e652 f9be 463a 5bbe 77cd 29bf 69d4 713f
00000130: f5ab 68bf 88c7 6bbf e883 fb3e e99c 453f
00000140: 74c4 4f3f 7cbc 52bf a7c1 0a3f 07e7 663f
00000150: aead 12bf 777a 09bf efcd afbe 5974 e7be
00000160: 95a8 e43d c1e4 693f 30f1 4bbf 08d4 413f
00000170: fb3b 7bbe 7d75 68be c5c3 383f f3ac 213e
00000180: 7fbe debe d951 babe dc6e d53e 294b 383f
00000190: d459 613e 9785 533d 96b9 143f 2f95 783f
000001a0: 4ded 1ebf c772 44be 92c7 203f 168e c43c
000001b0: 1c86 33bf 5e21 5a3e b2af d73c fd14 7dbe
000001c0: 7e65 1abe 7ace 3cbf cd65 b6be 63e5 ea3e
000001d0: cae2 1e3f 74c4 c23e e008 3fbf 0ea8 233f
000001e0: 9961 90bd 93e7 93be 9a55 253f 5a66 193f
000001f0: d736 dfbe bef4 6f3f 5d11 963e 351c 0fbf
00000200: 24cf 3bbf 24fb 1fbf 501d 12be 412a 2f3d
00000210: 59f3 173f 4794 703f 1332 1abf 82e7 4fbf
00000220: cc46 0dbf 7c65 58bf 7a61 febe 6bf8 033f
00000230: ac01 473f 5a09 febe 385b 03bf 6c2c b3be
00000240: 090a 733f ba71 013e 04a3 0b3f 8d31 a03e
00000250: 2306 b5bd bd9a 273e 49ab ae3e d26f 19bf
00000260: a46f 4b3f db41 0fbf 35e8 e73e 1a9b 213e
00000270: 33d5 de3e 6def 35be 092a 4dbc 7fd1 423f
00000280: 0c94 21bf e995 c7be 9575 0cbf ee0e d03e
00000290: 3691 613f f1db 79bf c869 69bc 3d95 0abf
000002a0: f045 cbbd a78b d33e 71a5 44bf 15ca a83e
000002b0: ef52 c8bb 6469 b2be b6b6 3b3f f1c8 debe
000002c0: 6ef6 5e3f 041f 2d3f 146b 863f 5fd3 953c
000002d0: a6dd 29be 089f b63e 913f 713f 5862 6c3e
000002e0: 9f25 7ebf 490a b4be ef83 b0be 1728 cebd
000002f0: 599b abbb 3c12 28bc e909 633e ecdb dcbd
00000300: 135f 64be 2e03 6dbe 3115 a1be 6342 07bf
00000310: 3a95 583e 7d53 233f 0337 163f 583a 53bf
00000320: bd60 2bba bb79 57bf c1bd 343f 6c1a 3fbf
00000330: 33d1 4a3b e5af 003e 0e1a 27bf af15 59be
00000340: 7387 553f 4677 723f 1075 6b3f 1691 69bf
00000350: 892c 243f ada1 61be 83a7 febe be92 0cbf
00000360: 6668 663f 2bc0 29bd a061 7e3f 848b 30bf
00000370: 9f94 a13e 96e5 7a3f fab6 6e3f 1bfa 273f
00000380: fa45 e7be 8379 183f 03a4 febe 7bbd 383f
00000390: 8585 00bf 0dcf 193f 34a8 67bf aa93 5ebf
000003a0: 165c 983e 7d27 96be 7e18 c2bd b714 dabe
000003b0: 3fde 61bf a633 943e 65ec 78bf c6e1 5e3e
000003c0: 37fb 77bf f045 2f3f ebc0 8f3e 6bd7 103e
000003d0: 4867 a8bb d933 8fbe 9485 443f ad1d 203f
000003e0: b919 3abe ba05 803e a38c ea3e 44b3 6e3e
000003f0: b128 dcbe ff7a f6be 8405 943e 5f75 863d
0.39234003 0.80202436 0.66657096 -0.9202311 0.83747596 -0.40932572 0.7829844 0.7529107
0.58958703 -0.2090197 -0.3174123 -0.65657693 -0.12463591 -0.57399446 0.13581657 -0.13191012
-0.11276672 1.0288188 0.66931593 -0.1124701 -0.09263631 -0.3390826 -0.617437 -0.6076887
-0.4446472 0.46621317 0.737011 -0.77067333 -0.60162926 0.27103508 -0.48491547 -0.9980585
-0.79807895 0.21385 0.4526479 -0.2789523 -0.7129939 -0.17846504 -0.54551417 0.74972695
-0.4865762 0.7850278 -0.21631517 0.76829416 0.39998794 -0.48705164 -0.9931488 0.33621487
-0.58056235 0.8162692 -0.8475814 0.19199146 -0.12267828 -0.77789706 -0.31217232 -0.57090646
0.92190284 -0.98073155 0.84808123 0.0574038 0.9304968 0.008459738 0.036540687 0.93780315
0.40730038 0.14635395 -0.75903875 -0.6156986 0.2909438 0.28475958 0.4399726 0.6236902
-0.4869606 -0.21408948 -0.6632914 0.9446474 -0.90887386 -0.92101336 0.49124074 0.7719255
0.8115914 -0.82318854 0.5420174 0.9019627 -0.57296264 -0.5370249 -0.34336802 -0.45205954
0.11164967 0.91364676 -0.796649 0.7571416 -0.245346 -0.22701068 0.7217372 0.15788631
-0.43504712 -0.3639057 0.41686141 0.71989685 0.22006923 0.051641073 0.5809568 0.97102636
-0.6208084 -0.19184409 0.6280452 0.023993533 -0.7012651 0.21301791 0.026328895 -0.24715038
-0.15077779 -0.7375256 -0.35624543 0.45878133 0.620648 0.38040507 -0.7462292 0.63928306
-0.07049865 -0.28887615 0.6458374 0.599218 -0.43596527 0.9373282 0.29310122 -0.55902416
-0.73362947 -0.62492585 -0.14268994 0.042764906 0.59355694 0.93976253 -0.6023266 -0.8121263
-0.5518615 -0.8452985 -0.49683744 0.5155093 0.77736926 -0.4961651 -0.51311064 -0.3499483
0.9493719 0.1264104 0.5454562 0.31287804 -0.08839061 0.16367622 0.34115055 -0.5993625
0.79467225 -0.5595986 0.45294347 0.15781823 0.43522033 -0.17767115 -0.012522229 0.76100916
-0.63116527 -0.3898156 -0.54866916 0.4063639 0.881122 -0.9760123 -0.014246412 -0.5413397
-0.09925449 0.41317484 -0.76814944 0.32966676 -0.006113402 -0.34846032 0.7332567 -0.4351268
0.8709477 0.6762545 1.0501428 0.018289266 -0.16588458 0.35668206 0.9423762 0.2308439
-0.99276155 -0.35164097 -0.34475657 -0.1006624 -0.0052370247 -0.010258254 0.22171749 -0.10784134
-0.22301893 -0.23145744 -0.3146148 -0.52835673 0.21150675 0.6379927 0.5867769 -0.825109
-0.00065375475 -0.8417012 0.7060204 -0.7464969 0.0030947446 0.12567098 -0.6527413 -0.21199678
0.83409804 0.94713247 0.919755 -0.9123701 0.64130455 -0.2203433 -0.49737176 -0.5491141
0.9000305 -0.04144303 0.99367714 -0.68962884 0.315587 0.9800657 0.9324795 0.65616006
-0.45170575 0.5956041 -0.49734506 0.72164124 -0.50203735 0.6008156 -0.9049103 -0.8694407
0.29757756 -0.29327002 -0.09477328 -0.4259393 -0.88229746 0.28945655 -0.9723571 0.21765813
-0.968677 0.6846609 0.28076872 0.14144675 -0.005139265 -0.27969244 0.76766324 0.6254528
-0.18173875 0.2500437 0.45810422 0.23310572 -0.42999795 -0.48140714 0.28910458 0.065653555

linear_sigmoid_stack.0.bias f4 [16]
00000000: 7c52 6fbc 6fd8 293c f2f8 d73c bae4 43bc
00000010: 0e51 5fbc d017 29bc 1542 14bb 9315 8a3c
00000020: 13c5 da3c 780a a7bc af24 383c 6482 9dbb
00000030: eba3 4c3c fa52 493c 3373 a5bc 23e4 5b3c
-0.014607068 0.010366543 0.026363824 -0.011956388 -0.013630165 -0.010320619 -0.0022622396 0.01685599
0.0267053 -0.020390734 0.011239215 -0.0048068035 0.012490253 0.01228785 -0.020196533 0.013421091

linear_sigmoid_stack.2.weight f4 [4, 16]
00000000: 9e25 70bf 3cda 87bd 6586 d3be b73a 63bf
00000010: 3bb3 913e 24eb 443f bda7 42bf a5e0 2fbf
00000020: 2534 5b3e c912 093e 5c89 4dbe 3f0a 87be
00000030: f0fc 31bf af9f 2c3f 164c 9c3e d6bf 33bf
00000040: 829a 023f 3793 47bf a76d 4ebe f0d1 733f
00000050: 961f 73bf 80e6 22be 0dd4 053f d18c ee3e
00000060: 0520 793f 6f90 2dbe c9e0 16bf 0c4e 623f
00000070: 6011 72bf a056 e13d 3e32 46bf 9b3a ad3e
00000080: 0606 5b3f ac51 5a3f e2e4 803f fca7 64bf
00000090: 8f89 4bbf b30c 333f 8ba9 183f 66b4 7a3d
000000a0: 0cd8 9f3e 09c7 29bf 82fb 7dbd d364 913e
000000b0: c16f 23bf 84f4 553f adef 3abf a0bb 613f
000000c0: e2cb 69bf 150b 843e 0a99 a33e 5a17 29bf
000000d0: 4b2f 42bf 5d72 803f 9879 d33e 31c3 6a3f
000000e0: 2908 20bf b908 233f b48c 58bf 5219 2b3f
000000f0: ba49 08bc 19c1 4abf 7497 79bf 7d4e 113f
-0.938074 -0.06633422 -0.41313472 -0.88761467 0.28457054 0.76921296 -0.760372 -0.68702155
0.2140661 0.13386072 -0.2007193 -0.26375005 -0.69526577 0.6743116 0.305268 -0.70214593
0.5101701 -0.7795901 -0.20159017 0.95242214 -0.9497007 -0.15908241 0.5227669 0.4659181
0.9731448 -0.16949628 -0.58936745 0.8840034 -0.9455776 0.110028505 -0.77420413 0.33833775
0.85556066 0.8528087 1.006985 -0.89318824 -0.7950677 0.6994125 0.596337 0.061207198
0.31219518 -0.6631933 -0.062007435 0.28397235 -0.638424 0.83576226 -0.73021966 0.8817692
-0.91326725 0.25789705 0.31952697 -0.66051257 -0.75853413 1.0034901 0.41303706 0.9170409
-0.6251245 0.63685185 -0.84589696 0.6683551 -0.008318359 -0.79200894 -0.97496724 0.5676039

linear_sigmoid_stack.2.bias f4 [4]
00000000: 4b66 18bb df0c 55bd 2b4e 22bd 1a74 993d
-0.002325433 -0.052014228 -0.039625328 0.07492848

last_fc.weight f4 [1, 4]
00000000: ba56 813e a2f5 3a3e 40f6 423d eb2f 11bd
0.2526148 0.18257764 0.047598124 -0.03544609
