Trained_paremeters/nn_checkpoints_CHRNA3_TL_ukb_y1002.pth (torch, 7191 bytes, 6 tensors)

linear_sigmoid_stack.0.weight f8 [16, 34]
000000 00 00 00 a0 47 48 db 3f 00 00 00 c0 7d 2b cb 3f
       0.42628660798072815 0.212264746427536
000010 00 00 00 40 3f c1 e5 bf 00 00 00 a0 39 75 d7 bf
       -0.6798397302627563 -0.3665298521518707
000020 00 00 00 e0 e4 f5 d3 bf 00 00 00 80 14 34 e5 bf
       -0.31188318133354187 -0.6626074314117432
000030 00 00 00 a0 43 74 ea 3f 00 00 00 20 5c 29 e0 3f
       0.8266924023628235 0.5050488114356995
000040 00 00 00 e0 98 fb e3 bf 00 00 00 a0 40 26 e7 bf
       -0.6244625449180603 -0.7234194874763489
000050 00 00 00 60 e5 27 df bf 00 00 00 60 88 6b d3 bf
       -0.4868100583553314 -0.303438276052475
000060 00 00 00 80 20 5a e8 bf 00 00 00 c0 1f 15 d2 bf
       -0.7610018253326416 -0.2825393080711365
000070 00 00 00 a0 66 cf e9 bf 00 00 00 20 bc 1b d3 3f
       -0.8065674901008606 0.2985678017139435
000080 00 00 00 80 39 61 d4 3f 00 00 00 20 77 da d9 3f
       0.31843411922454834 0.4039590656757355
000090 00 00 00 a0 fd ef bd 3f 00 00 00 80 16 14 e8 3f
       0.11694321781396866 0.7524521350860596
0000a0 00 00 00 e0 94 b3 d6 bf 00 00 00 a0 c2 89 cc bf
       -0.35471078753471375 -0.22295410931110382
0000b0 00 00 00 a0 fc 9a cb bf 00 00 00 e0 81 10 c0 bf
       -0.21566732227802277 -0.1255037635564804
0000c0 00 00 00 00 11 43 c7 bf 00 00 00 20 8c 14 ea bf
       -0.18173420429229736 -0.8150082230567932
0000d0 00 00 00 40 ec 40 df bf 00 00 00 c0 04 07 da bf
       -0.48833757638931274 -0.40667837858200073
0000e0 00 00 00 e0 d8 36 d2 3f 00 00 00 00 91 4f be 3f
       0.28459760546684265 0.11840158700942993
0000f0 00 00 00 e0 13 51 da bf 00 00 00 e0 0e 60 ab bf
       -0.41119858622550964 -0.05346724018454552
000100 00 00 00 80 0a 26 c4 3f 00 00 00 00 a1 05 91 3f
       0.15741091966629028 0.016623035073280334
000110 00 00 00 e0 bf a2 bc bf 00 00 00 00 a0 51 e1 3f
       -0.11185836046934128 0.5412139892578125
000120 00 00 00 00 75 00 b4 3f 00 00 00 00 e8 11 aa bf
       0.07813197374343872 -0.050917863845825195
000130 00 00 00 80 4e 20 e6 bf 00 00 00 a0 d2 de c7 3f
       -0.691443681716919 0.18648751080036163
000140 00 00 00 a0 76 e1 dd bf 00 00 00 40 01 6e cf bf
       -0.4668861925601959 -0.24554458260536194
000150 00 00 00 20 79 9f eb bf 00 00 00 a0 44 71 e6 bf
       -0.8632169365882874 -0.7013266682624817
000160 00 00 00 00 5a 06 eb bf 00 00 00 80 4e 70 9c bf
       -0.8445253372192383 -0.027772165834903717
000170 00 00 00 a0 96 fc e1 bf 00 00 00 a0 53 b7 e3 bf
       -0.5620835423469543 -0.6161287426948547
000180 00 00 00 a0 ef 40 c1 bf 00 00 00 00 60 8a d8 3f
       -0.1347941905260086 0.38344573974609375
000190 00 00 00 20 80 df b3 3f 00 00 00 a0 b6 83 d9 3f
       0.07762909680604935 0.3986641466617584
0001a0 00 00 00 40 4b 58 d1 bf 00 00 00 80 08 94 e7 3f
       -0.2710140347480774 0.7368204593658447
0001b0 00 00 00 00 09 2a e8 bf 00 00 00 c0 4d fd dc bf
       -0.7551312446594238 -0.45296043157577515
0001c0 00 00 00 20 16 24 e6 bf 00 00 00 e0 49 b7 d0 3f
       -0.6919050812721252 0.26118704676628113
0001d0 00 00 00 40 45 07 ea bf 00 00 00 40 c2 5b e8 bf
       -0.8133875131607056 -0.761201024055481
0001e0 00 00 00 80 01 72 e3 3f 00 00 00 80 8c c8 df 3f
       0.6076667308807373 0.49661552906036377
0001f0 00 00 00 00 c4 5d eb bf 00 00 00 60 97 30 e2 bf
       -0.8551959991455078 -0.568431556224823
000200 00 00 00 e0 77 10 dd bf 00 00 00 40 48 f9 e6 3f
       -0.4541301429271698 0.7179299592971802
000210 00 00 00 00 ff da e2 bf 00 00 00 00 58 ca b1 3f
       -0.5892329216003418 0.06949377059936523
000220 00 00 00 80 2e 2b e3 bf 00 00 00 00 30 8f cc 3f
       -0.5990211963653564 0.22311973571777344
000230 00 00 00 e0 e6 05 cc 3f 00 00 00 00 09 48 cd bf
       0.21893011033535004 -0.22876083850860596
000240 00 00 00 00 de a2 c2 bf 00 00 00 40 08 69 d0 bf
       -0.14559531211853027 -0.2564106583595276
000250 00 00 00 c0 3b de d6 bf 00 00 00 40 0d 38 b1 3f
       -0.3573140501976013 0.06726153194904327
000260 00 00 00 a0 b0 9b dc 3f 00 00 00 40 e4 3b d2 3f
       0.4470025599002838 0.28490549325942993
000270 00 00 00 00 d0 e8 ab bf 00 00 00 20 28 79 e6 3f
       -0.05451059341430664 0.7022896409034729
000280 00 00 00 80 cb ab cf bf 00 00 00 80 74 ec e8 3f
       -0.24743026494979858 0.7788641452789307
000290 00 00 00 60 e5 1a c4 bf 00 00 00 a0 72 8e a7 bf
       -0.1570708006620407 -0.04600866511464119
0002a0 00 00 00 e0 19 be e1 bf 00 00 00 00 4d 5c ea bf
       -0.5544556975364685 -0.8237671852111816
0002b0 00 00 00 c0 9c 20 d4 bf 00 00 00 80 be 6e df bf
       -0.31449049711227417 -0.49113428592681885
0002c0 00 00 00 80 5a cf c5 bf 00 00 00 60 b3 19 e2 3f
       -0.17039042711257935 0.5656372904777527
0002d0 00 00 00 c0 a0 ed d3 bf 00 00 00 00 51 8f bb 3f
       -0.3113786578178406 0.1076555848121643
0002e0 00 00 00 20 d7 a8 be bf 00 00 00 a0 ca ed d2 bf
       -0.1197637990117073 -0.29576364159584045
0002f0 00 00 00 20 51 be a5 3f 00 00 00 c0 8e 26 d2 bf
       0.0424676276743412 -0.28360337018966675
000300 00 00 00 40 62 e1 d4 3f 00 00 00 80 7e 8c e9 3f
       0.32625633478164673 0.7984001636505127
000310 00 00 00 a0 e5 a6 c9 bf 00 00 00 00 19 5d e4 3f
       -0.2004057914018631 0.6363644599914551
000320 00 00 00 e0 3c 63 db 3f 00 00 00 60 f8 79 c0 bf
       0.4279319941997528 -0.12872223556041718
000330 00 00 00 e0 a3 66 e1 bf 00 00 00 a0 15 46 e3 3f
       -0.5437793135643005 0.6023052334785461
000340 00 00 00 20 a3 88 d5 bf 00 00 00 c0 91 fc e4 bf
       -0.33646467328071594 -0.6558312177658081
000350 00 00 00 40 87 6e d0 bf 00 00 00 60 48 48 ea 3f
       -0.2567461133003235 0.821323573589325
000360 00 00 00 60 ac 33 d5 bf 00 00 00 c0 c6 6f e6 bf
       -0.33127889037132263 -0.7011445760726929
000370 00 00 00 a0 58 62 d5 3f 00 00 00 c0 f1 21 dd 3f
       0.3341275751590729 0.4551967978477478
000380 00 00 00 a0 4f 34 d5 3f 00 00 00 40 98 b6 d2 bf
       0.33131781220436096 -0.2923946976661682
000390 00 00 00 a0 64 41 aa bf 00 00 00 a0 2f 36 d9 bf
       -0.05128015950322151 -0.3939322531223297
0003a0 00 00 00 c0 bb c5 d0 3f 00 00 00 40 02 c0 e6 3f
       0.2620686888694763 0.710938572883606
0003b0 00 00 00 80 10 0f e6 bf 00 00 00 20 e5 ff e6 3f
       -0.6893389225006104 0.7187371850013733
0003c0 00 00 00 80 30 f5 eb bf 00 00 00 80 45 8c e3 3f
       -0.8736803531646729 0.6108729839324951
0003d0 00 00 00 20 98 af c5 bf 00 00 00 80 eb a9 e0 bf
       -0.1694212108850479 -0.5207421779632568
0003e0 00 00 00 20 0e e9 e1 3f 00 00 00 00 18 40 e0 bf
       0.5596991181373596 -0.5078239440917969
0003f0 00 00 00 e0 74 d2 e4 3f 00 00 00 80 0a d8 ba 3f
       0.650690495967865 0.10485902428627014
000400 00 00 00 60 7c ea db bf 00 00 00 a0 56 13 b6 bf
       -0.43618687987327576 -0.08623258024454117
000410 00 00 00 40 bb 78 e1 3f 00 00 00 c0 e5 c7 e6 3f
       0.5459877252578735 0.7119015455245972
000420 00 00 00 a0 e0 42 e2 3f 00 00 00 a0 ca fd d0 bf
       0.5706637501716614 -0.26549020409584045
000430 00 00 00 c0 9c b3 b5 bf 00 00 00 a0 ff 5a b9 3f
       -0.08477191627025604 0.09904477745294571
000440 00 00 00 80 b8 84 d3 3f 00 00 00 c0 be d7 dd 3f
       0.30497562885284424 0.4662930369377136
000450 00 00 00 e0 24 0e bd 3f 00 00 00 40 d7 a2 df 3f
       0.11349707096815109 0.4943140149116516
000460 00 00 00 60 b4 20 a1 3f 00 00 00 20 b1 5b bd bf
       0.03345264121890068 -0.11468035727739334
000470 00 00 00 80 9e 67 e3 3f 00 00 00 20 e7 b8 e7 3f
       0.6063988208770752 0.7413211464881897
000480 00 00 00 a0 ee e7 e4 3f 00 00 00 40 05 b4 dc 3f
       0.6533120274543762 0.4484875798225403
000490 00 00 00 20 d8 c9 d9 bf 00 00 00 e0 3d 5d e7 3f
       -0.4029445946216583 0.7301320433616638
0004a0 00 00 00 e0 91 bd cc bf 00 00 00 80 f2 0d e2 bf
       -0.22453521192073822 -0.5642025470733643
0004b0 00 00 00 40 e3 c3 9e bf 00 00 00 a0 b7 47 dd 3f
       -0.030044127255678177 0.4575022757053375
0004c0 00 00 00 c0 82 45 d4 3f 00 00 00 e0 ec 52 e1 3f
       0.31674259901046753 0.5413727164268494
0004d0 00 00 00 80 74 24 d9 3f 00 00 00 20 93 86 c1 3f
       0.39285004138946533 0.13691939413547516
0004e0 00 00 00 60 68 65 c1 bf 00 00 00 60 60 9e c6 3f
       -0.13590721786022186 0.17670826613903046
0004f0 00 00 00 40 6e 4d d3 bf 00 00 00 a0 0f d3 dd bf
       -0.30160099267959595 -0.46600714325904846
000500 00 00 00 00 31 ba dc 3f 00 00 00 c0 dc 53 ea bf
       0.448864221572876 -0.8227370977401733
000510 00 00 00 80 e4 35 d3 3f 00 00 00 c0 6d 7e d2 3f
       0.3001643419265747 0.2889665961265564
000520 00 00 00 40 2c 3b ea bf 00 00 00 20 51 46 d5 bf
       -0.8197232484817505 -0.3324168026447296
000530 00 00 00 60 28 b1 d2 3f 00 00 00 e0 5a 75 b6 bf
       0.2920628488063812 -0.08772819489240646
000540 00 00 00 e0 df 56 7c bf 00 00 00 a0 32 9f e4 3f
       -0.006918787490576506 0.644433319568634
000550 00 00 00 80 a0 71 c8 3f 00 00 00 00 54 f0 b8 bf
       0.1909676194190979 -0.09741711616516113
000560 00 00 00 80 6d e1 d7 bf 00 00 00 e0 9a 4a dc 3f
       -0.3731340169906616 0.44205352663993835
000570 00 00 00 c0 18 e1 e4 3f 00 00 00 20 bf 80 b8 bf
       0.6524776220321655 -0.0957145169377327
000580 00 00 00 80 c8 6e e8 3f 00 00 00 00 ad 31 d6 3f
       0.7635233402252197 0.34678196907043457
000590 00 00 00 40 49 27 e2 bf 00 00 00 00 b5 20 e0 3f
       -0.5672956705093384 0.5039925575256348
0005a0 00 00 00 20 74 10 e1 3f 00 00 00 00 4a 9f e7 3f
       0.5332584977149963 0.738194465637207
0005b0 00 00 00 c0 91 eb db 3f 00 00 00 a0 8b e3 e5 3f
       0.43625301122665405 0.6840265393257141
0005c0 00 00 00 80 28 40 d6 bf 00 00 00 00 9f 24 b1 bf
       -0.3476659059524536 -0.06696504354476929
0005d0 00 00 00 80 44 cf bc 3f 00 00 00 80 27 4d cf 3f
       0.11253765225410461 0.24454206228256226
0005e0 00 00 00 80 38 8d e8 bf 00 00 00 e0 f4 c4 e2 bf
       -0.7672388553619385 -0.586542546749115
0005f0 00 00 00 20 9e 70 d4 3f 00 00 00 00 ec 03 dd bf
       0.31937363743782043 -0.45336437225341797
000600 00 00 00 c0 b5 bb db bf 00 00 00 80 67 7c bd 3f
       -0.4333319067955017 0.11517950892448425
000610 00 00 00 00 a9 6a d7 bf 00 00 00 20 0b f8 c6 3f
       -0.36588501930236816 0.17944468557834625
000620 00 00 00 e0 18 87 e3 bf 00 00 00 40 1e 92 b8 bf
       -0.6102413535118103 -0.09597958624362946
000630 00 00 00 40 eb 0a ec bf 00 00 00 40 10 5f e1 3f
       -0.8763328790664673 0.5428544282913208
000640 00 00 00 a0 19 14 de bf 00 00 00 00 08 d7 70 bf
       -0.4699768126010895 -0.0041113197803497314
000650 00 00 00 80 7d 60 e6 bf 00 00 00 20 3b 2a a3 3f
       -0.6992785930633545 0.03743157163262367
000660 00 00 00 e0 de 31 c1 bf 00 00 00 00 2c 2e ea bf
       -0.13433443009853363 -0.8181362152099609
000670 00 00 00 40 7c c5 a0 bf 00 00 00 e0 ce 6a da 3f
       -0.03275669366121292 0.41276904940605164
000680 00 00 00 00 22 fa d6 bf 00 00 00 40 75 5d d8 3f
       -0.35901689529418945 0.38070422410964966
000690 00 00 00 e0 a9 15 e0 3f 00 00 00 00 f5 15 de 3f
       0.5026444792747498 0.4700901508331299
0006a0 00 00 00 80 fa 08 c2 bf 00 00 00 80 8e d1 e3 3f
       -0.14089900255203247 0.619330644607544
0006b0 00 00 00 c0 a3 87 ac 3f 00 00 00 00 65 48 d8 3f
       0.055722348392009735 0.37941861152648926
0006c0 00 00 00 e0 7b 89 c4 bf 00 00 00 00 14 0b a5 3f
       -0.1604456752538681 0.041100144386291504
0006d0 00 00 00 00 77 af a2 3f 00 00 00 a0 d2 63 e8 3f
       0.036494940519332886 0.7621853947639465
0006e0 00 00 00 20 18 1c dc 3f 00 00 00 40 41 60 d5 bf
       0.4392147362232208 -0.3339999318122864
0006f0 00 00 00 80 a1 0e dc bf 00 00 00 60 71 df d9 bf
       -0.4383929967880249 -0.40426287055015564
000700 00 00 00 00 b1 2d dc 3f 00 00 00 40 95 7b a9 3f
       0.440288782119751 0.049770988523960114
000710 00 00 00 80 ea dc e1 3f 00 00 00 c0 0c 51 e6 bf
       0.5582172870635986 -0.6973937749862671
000720 00 00 00 80 53 85 e0 3f 00 00 00 80 48 ed d1 bf
       0.51627516746521 -0.28010761737823486
000730 00 00 00 00 e1 83 e6 bf 00 00 00 e0 f6 dc ea bf
       -0.7035984992980957 -0.8394731879234314
000740 00 00 00 80 d5 31 e9 3f 00 00 00 c0 c0 e6 e5 bf
       0.7873332500457764 -0.6844180822372437
000750 00 00 00 00 55 9d db 3f 00 00 00 c0 8c e7 dc 3f
       0.43147778511047363 0.45163267850875854
000760 00 00 00 c0 f3 b8 e0 bf 00 00 00 40 9e 42 ea bf
       -0.522577166557312 -0.8206321001052856
000770 00 00 00 c0 4e eb da bf 00 00 00 80 2c f4 e4 3f
       -0.42061203718185425 0.65480637550354
000780 00 00 00 00 fe 31 e1 bf 00 00 00 20 d4 33 d9 3f
       -0.5373525619506836 0.3937883675098419
000790 00 00 00 40 c8 6c 91 3f 00 00 00 80 12 e4 eb bf
       0.017016533762216568 -0.8715908527374268
0007a0 00 00 00 20 22 9e d2 bf 00 00 00 40 57 be d4 3f
       -0.29090169072151184 0.3241174817085266
0007b0 00 00 00 00 3b dc e5 3f 00 00 00 20 fa b5 e6 3f
       0.683133602142334 0.7097139954566956
0007c0 00 00 00 60 05 5c 92 3f 00 00 00 60 33 dc cc 3f
       0.017929157242178917 0.22546999156475067
0007d0 00 00 00 80 6f 8d b0 bf 00 00 00 80 4b f4 e8 bf
       -0.06465813517570496 -0.7798211574554443
0007e0 00 00 00 80 58 ce ea 3f 00 00 00 60 ca ce cd bf
       0.837688684463501 -0.23287324607372284
0007f0 00 00 00 a0 40 83 e3 bf 00 00 00 20 08 c1 ec bf
       -0.6097720265388489 -0.8985634446144104

linear_sigmoid_stack.0.bias f8 [16]
000000 00 00 00 e0 26 c4 72 3f 00 00 00 a0 7b ef 6b bf
       0.004581596236675978 -0.0034100927878171206
000010 00 00 00 20 9f 19 70 3f 00 00 00 c0 a5 a4 63 3f
       0.003930684644728899 0.0023978459648787975
000020 00 00 00 00 ff fa 7f 3f 00 00 00 e0 bf 92 70 3f
       0.00780772790312767 0.00404620124027133
000030 00 00 00 c0 4d 47 5f bf 00 00 00 a0 21 13 7e 3f
       -0.0019090899731963873 0.0073424638248980045
000040 00 00 00 60 5e 63 71 3f 00 00 00 20 43 c0 6d 3f
       0.004245155956596136 0.003631716826930642
000050 00 00 00 20 f6 cb 41 3f 00 00 00 60 0c 8b 68 bf
       0.0005431129247881472 -0.002995990915223956
000060 00 00 00 a0 71 aa 85 3f 00 00 00 a0 7e 4f 5c 3f
       0.01057900208979845 0.0017279373714700341
000070 00 00 00 e0 6e ac 7f bf 00 00 00 40 16 2d 96 3f
       -0.007732804398983717 0.021656367927789688

linear_sigmoid_stack.2.weight f8 [4, 16]
000000 00 00 00 c0 9b 40 e2 3f 00 00 00 40 f6 6e da 3f
       0.5703867673873901 0.41302257776260376
000010 00 00 00 40 a1 27 e8 3f 00 00 00 60 49 8c cf 3f
       0.7548376321792603 0.2464687079191208
000020 00 00 00 e0 11 67 e3 3f 00 00 00 00 68 28 d2 bf
       0.6063317656517029 -0.28371620178222656
000030 00 00 00 60 fe f9 e1 bf 00 00 00 20 40 b1 d0 3f
       -0.5617668032646179 0.2608185112476349
000040 00 00 00 c0 f2 e5 e3 3f 00 00 00 20 2c ed d4 3f
       0.6218198537826538 0.32697585225105286
000050 00 00 00 20 5d 40 c5 bf 00 00 00 c0 5c 44 e4 bf
       -0.16602672636508942 -0.6333450078964233
000060 00 00 00 00 ff 0e d9 3f 00 00 00 a0 a4 07 85 bf
       0.3915402889251709 -0.010268484242260456
000070 00 00 00 60 0b 55 ce bf 00 00 00 c0 1e a5 e1 3f
       -0.23697035014629364 0.5514062643051147
000080 00 00 00 c0 f7 cc e2 bf 00 00 00 c0 48 e2 ce bf
       -0.5875204801559448 -0.24128064513206482
000090 00 00 00 80 6e fb d9 3f 00 00 00 20 7d 4c d1 bf
       0.4059711694717407 -0.2702935039997101
0000a0 00 00 00 a0 f6 25 ce 3f 00 00 00 80 7b 22 d2 bf
       0.23553355038166046 -0.28335464000701904
0000b0 00 00 00 20 f2 ea b7 bf 00 00 00 c0 cc 90 e7 bf
       -0.09342873841524124 -0.7364257574081421
0000c0 00 00 00 60 6a 14 c5 bf 00 00 00 a0 a9 02 db bf
       -0.16468553245067596 -0.4220375120639801
0000d0 00 00 00 40 dd a4 e1 bf 00 00 00 20 32 41 e3 bf
       -0.5513750314712524 -0.6017084717750549
0000e0 00 00 00 80 e4 78 b4 bf 00 00 00 80 3b 61 e4 3f
       -0.07996967434883118 0.6368691921234131
0000f0 00 00 00 a0 1a ea e8 3f 00 00 00 00 58 09 d0 bf
       0.7785771489143372 -0.25057029724121094
000100 00 00 00 40 c6 6c e2 bf 00 00 00 00 3b fa 97 bf
       -0.5757781267166138 -0.023415490984916687
000110 00 00 00 e0 1c 46 e8 bf 00 00 00 a0 a7 dd c8 3f
       -0.7585586905479431 0.19426436722278595
000120 00 00 00 40 f2 b3 d6 3f 00 00 00 a0 7c 68 e8 3f
       0.35473304986953735 0.7627547383308411
000130 00 00 00 00 0d d3 e1 3f 00 00 00 40 be 78 da 3f
       0.5570130348205566 0.4136195778846741
000140 00 00 00 40 d8 a3 c5 3f 00 00 00 20 98 d8 ab 3f
       0.16906264424324036 0.05438685789704323
000150 00 00 00 40 86 4e db 3f 00 00 00 40 cd 27 bc 3f
       0.4266677498817444 0.10998232662677765
000160 00 00 00 60 0f 85 dc 3f 00 00 00 c0 7e b6 e6 bf
       0.4456213414669037 -0.7097772359848022
000170 00 00 00 20 73 8c e1 bf 00 00 00 a0 79 c7 e0 3f
       -0.5483947396278381 0.5243499875068665
000180 00 00 00 e0 d1 3c ce 3f 00 00 00 a0 2b 1e d5 bf
       0.23623107373714447 -0.3299664556980133
000190 00 00 00 c0 90 2a e5 3f 00 00 00 60 da 84 e7 bf
       0.6614459753036499 -0.7349674105644226
0001a0 00 00 00 40 a2 ab e3 bf 00 00 00 20 1c e8 e0 3f
       -0.6147013902664185 0.5283337235450745
0001b0 00 00 00 00 a9 aa ce 3f 00 00 00 20 70 5c e1 3f
       0.23958313465118408 0.5425339341163635
0001c0 00 00 00 e0 5f b4 d0 bf 00 00 00 80 3f 1a b7 bf
       -0.26100918650627136 -0.09024426341056824
0001d0 00 00 00 00 55 98 ac bf 00 00 00 80 52 cc d2 3f
       -0.055849701166152954 0.2937208414077759
0001e0 00 00 00 60 2a d7 d3 3f 00 00 00 00 18 39 e6 bf
       0.31000766158103943 -0.6944694519042969
0001f0 00 00 00 20 a6 2e e1 bf 00 00 00 80 87 c0 d7 bf
       -0.5369444489479065 -0.37112605571746826

linear_sigmoid_stack.2.bias f8 [4]
000000 00 00 00 40 1e fa b1 3f 00 00 00 a0 94 51 72 bf
       0.07022275030612946 -0.004472332540899515
000010 00 00 00 a0 79 0a a3 3f 00 00 00 e0 59 c6 80 bf
       0.0371892936527729 -0.008190824650228024

last_fc.weight f8 [1, 4]
000000 c4 73 86 72 2b 2d c0 3f ff a5 c5 e0 5e aa c7 bf
       0.12637847034502958 -0.18488679862211652
000010 0f 0e a2 b5 27 64 a5 3f c4 e4 d0 70 c3 02 ca 3f
       0.041779747888565415 0.20320933350175185

last_fc.bias f8 [1]
000000 fa c9 c2 7d 0e a6 c5 bf
       -0.1691301454607837
