Trained_paremeters/nn_checkpoints_CHRNB3_ukb_y4.pth (torch, 4311 bytes, 5 tensors)

linear_sigmoid_stack.0.weight f4 [16, 28]
00000000: adda ad99 34dc 1c98 a167 cb19 c9cc c517
00000010: 9aa3 cd17 b6e8 4319 9c36 d899 cdd0 ad19
00000020: 0133 5a19 b015 2818 3565 b019 db1d c117
00000030: 27aa b719 5df5 ba18 e334 8519 0844 d299
00000040: ceef 4219 3410 c618 ab8a f899 2aeb 5719
00000050: 7dc4 a219 afb3 dd99 1e54 1d19 675e e719
00000060: 0bbd 9d16 3074 cb19 6e9f 9718 b183 7d19
00000070: 9909 aa19 a66c c299 65e1 5817 61b2 2518
00000080: 6732 f019 a583 ea97 0cad c699 7e61 0419
00000090: 9cd4 8499 d35f a717 1d55 bd99 286c e018
000000a0: 59fe 6497 dd1e 8f19 13ad a098 59bd 7a19
000000b0: 6257 e819 14fe e718 d8d2 f319 b8f2 5e17
000000c0: ffcc 4718 dfac fb19 ea03 d999 29a7 6a19
000000d0: e467 ee19 014d ba99 74d3 0b98 ea9d 8698
000000e0: 6424 1d17 46ac cc16 08e0 cd19 92b6 9419
000000f0: 66ef d619 6c63 f799 ad53 2b99 a48c a399
00000100: 5e43 ef19 dfdf c519 751e ed19 1006 0018
00000110: 9391 df98 25d7 6a19 2f4c fe99 bd45 9098
00000120: 99b9 0319 255d d119 b61e 6d18 4f18 8796
00000130: dd80 d619 d48f d199 f26a 1198 9fb5 8c99
00000140: 90b3 f619 195a b096 6f04 bc19 d778 ec99
00000150: 694b c799 5c8e b999 7889 9219 b0af ed99
00000160: 3df4 fb19 e75a fa98 aa69 9919 a245 4299
00000170: 0a23 cc17 f7c0 c799 8029 8a18 b8e4 b819
00000180: 9ae1 b698 5ab1 0d19 8547 cc19 13b4 b499
00000190: 6daf d099 aa9e d396 9934 ec19 701e 2099
000001a0: 91dd ad18 fbf4 c299 161d dc19 9e07 3a19
000001b0: cf4a 0719 befc 8699 9618 b218 5356 7218
000001c0: 8e13 8398 3e06 bb99 eccc 1019 4bea c698
000001d0: 552c c399 1e6f 4099 6403 d019 f544 1f18
000001e0: 4c07 0d98 3172 e799 7b9a ef99 df0e bc18
000001f0: e597 9f19 0723 5e99 0d16 cd19 43d8 b399
00000200: 8f57 b398 bf91 9619 550e 9a19 505d bb99
00000210: b8dc e899 ec37 4099 c534 7b99 2585 9817
00000220: 0751 0619 0eef 2719 e7fe d418 50af b299
00000230: 328b 3f19 c960 b999 349c 8e19 55b4 3319
00000240: c3e7 9298 d394 4a99 c31c 8297 2139 0798
00000250: 1447 8e99 2c51 a199 9e49 3618 4221 aa18
00000260: e7df c999 7d37 ac99 2bae fa96 9cab 0819
00000270: 633a f299 3698 8f98 05c3 f496 8405 5b19
00000280: 4f2b e119 3ddb d498 7d42 f399 cf1d 9699
00000290: 0e36 0799 0291 2f99 cdd9 ea99 93c8 6b99
000002a0: 2a85 d299 80c2 8999 9e0c e919 7945 5199
000002b0: 3611 bf19 51fe 6d19 9fcd bc19 da3a 5719
000002c0: 782c 9a99 f369 9419 0e29 8d19 7cb7 bd99
000002d0: a729 9c99 406d 1319 a8d4 b517 85e3 db99
000002e0: 59a9 6d95 bdda 4699 1168 bd19 6dcc 0b19
000002f0: c6be ad99 482f af99 f6fd c317 145e 0e19
00000300: 04e2 2e18 d15d ee99 62f0 3399 08e8 2c19
00000310: f611 9319 75f9 d599 6af5 ca99 bb1b 5816
00000320: fe62 e299 dd8d 3d19 cbf2 f598 51c9 d019
00000330: 0537 a519 14b0 ed19 7305 9899 0e0b 0199
00000340: 8f76 ab19 aa20 2d19 8d87 3099 6fd0 2499
00000350: a517 8f19 2199 e219 459f db17 a362 1a19
00000360: c8b9 9c99 790f f819 d103 3299 5420 e819
00000370: 0a14 7998 74d3 d097 98d6 8219 badc 3018
00000380: 2c31 ec18 579b f917 3e68 6419 b650 4619
00000390: 2f7c f519 9b28 c399 2e33 db99 2d4a fd98
000003a0: 0ee1 3d98 a763 8499 b9f5 2e99 8d85 9a19
000003b0: 35f1 9519 1a7c d819 cfb5 a919 0437 e618
000003c0: 5faf c419 0dfb cc19 c78e d599 6d97 4099
000003d0: c50c e419 79a4 c617 d9a0 b597 bd8b a219
000003e0: e2ea 9699 022b 4796 ccb1 9919 c79f 6819
000003f0: 2c57 c898 7c6f ae99 eae6 9599 9edb d399
-1.7976103e-23 -2.0273702e-24 2.1031563e-23 1.2782522e-24 1.3289113e-24 1.0128259e-23 -2.2355933e-23 1.7972115e-23
1.1280636e-23 2.172444e-24 1.823885e-23 1.2479869e-24 1.899048e-23 4.8327627e-24 1.3773238e-23 -2.1740969e-23
1.0077993e-23 5.119816e-24 -2.5698607e-23 1.11627305e-23 1.6829768e-23 -2.2923438e-23 8.133697e-24 2.3922969e-23
2.548402e-25 2.1036636e-23 3.9193568e-24 1.3106388e-23 1.7581464e-23 -2.0103013e-23 7.007785e-25 2.1415809e-24
2.4835776e-23 -1.5155127e-24 -2.0542613e-23 6.8439284e-24 -1.3734352e-23 1.0816311e-24 -1.9576519e-23 5.8011853e-24
-7.3991805e-25 1.4798319e-23 -4.153379e-24 1.29629355e-23 2.4023531e-23 5.9968654e-24 2.521077e-23 7.2038423e-25
2.5823644e-24 2.6022614e-23 -2.2438855e-23 1.2131274e-23 2.4650584e-23 -1.9263051e-23 -1.8072085e-24 -3.479764e-24
5.0775367e-25 3.3066697e-25 2.1286989e-23 1.5376581e-23 2.2223774e-23 -2.5579358e-23 -8.857391e-24 -1.691061e-23
2.473923e-23 2.0459743e-23 2.4517527e-23 1.6546673e-24 -5.779114e-24 1.21409646e-23 -2.6293755e-23 -3.7293545e-24
6.8100224e-24 2.1647714e-23 3.0647037e-24 -2.1825767e-25 2.2179129e-23 -2.1668185e-23 -1.8794804e-24 -1.4549017e-23
2.5508329e-23 -2.8491193e-25 1.9440535e-23 -2.4450635e-23 -2.0606576e-23 -1.918605e-23 1.515157e-23 -2.4576185e-23
2.6051439e-23 -6.4715273e-24 1.5862507e-23 -1.0043627e-23 1.3192036e-24 -2.0654056e-23 3.571407e-24 1.9117533e-23
-4.7273697e-24 7.325345e-24 2.1121992e-23 -1.8684295e-23 -2.157755e-23 -3.418902e-25 2.4423072e-23 -8.277953e-24
4.4943177e-24 -2.0158077e-23 2.2759215e-23 9.617513e-24 6.994444e-24 -1.3957357e-23 4.6036747e-24 3.132135e-24
-3.388245e-24 -1.9337868e-23 7.486009e-24 -5.1418376e-24 -2.0180433e-23 -9.948607e-24 2.1508065e-23 2.0585083e-24
-1.8227507e-24 -2.3930962e-23 -2.4774415e-23 4.8611877e-24 1.6501564e-23 -1.1484205e-23 2.120541e-23 -1.8595514e-23
-4.6358827e-24 1.5568503e-23 1.5929015e-23 -1.9373035e-23 -2.4077385e-23 -9.937461e-24 -1.29870526e-23 9.85638e-25
6.944001e-24 8.681974e-24 5.50581e-24 -1.8475577e-23 9.902579e-24 -1.9167643e-23 1.4745546e-23 9.290501e-24
-3.7974135e-24 -1.047321e-23 -8.408314e-25 -1.7477184e-24 -1.4711164e-23 -1.6679795e-23 2.3560116e-24 4.397755e-24
-2.0873346e-23 -1.7806795e-23 -4.0499594e-25 7.0656914e-24 -2.5045796e-23 -3.7118327e-24 -3.95434e-25 1.13231485e-23
2.3281947e-23 -5.502209e-24 -2.5152466e-23 -1.5521676e-23 -6.990253e-24 -9.076572e-24 -2.4283002e-23 -1.2189721e-23
-2.1767276e-23 -1.4244026e-23 2.4096731e-23 -1.0819077e-23 1.9755889e-23 1.2303972e-23 1.9521794e-23 1.11271245e-23
-1.5941188e-23 1.5345634e-23 1.459564e-23 -1.961625e-23 -1.6146845e-23 7.621785e-24 1.1750533e-24 -2.2735964e-23
-4.799536e-26 -1.0280534e-23 1.9584174e-23 7.227415e-24 -1.7964834e-23 -1.8113673e-23 1.2665688e-24 7.360227e-24
2.2603082e-24 -2.4646515e-23 -9.302628e-24 8.93905e-24 1.5206698e-23 -2.2124439e-23 -2.0985432e-23 1.7457091e-25
-2.3407835e-23 9.79972e-24 -6.3576174e-24 2.1588007e-23 1.7082822e-23 2.4576343e-23 -1.5718633e-23 -6.671376e-24
1.7728871e-23 8.950487e-24 -9.126361e-24 -8.520694e-24 1.4795403e-23 2.34297e-23 1.4192749e-24 7.981533e-24
-1.6205058e-23 2.5648848e-23 -9.203155e-24 2.4001295e-23 -3.2192613e-24 -1.3495063e-24 1.3528359e-23 2.2858905e-24
6.105422e-24 1.6130461e-24 1.1808375e-23 1.02526595e-23 2.5382564e-23 -2.0178928e-23 -2.266474e-23 -6.5473866e-24
-2.4541301e-24 -1.368873e-23 -9.0452125e-24 1.5977168e-23 1.5503662e-23 2.2384e-23 1.7547622e-23 5.950916e-24
2.0336757e-23 2.1194504e-23 -2.2081351e-23 -9.9567475e-24 2.3579805e-23 1.2836969e-24 -1.17374545e-24 1.6806847e-23
-1.5604505e-23 -1.6088663e-25 1.5891641e-23 1.2026386e-23 -5.178681e-24 -1.8036207e-23 -1.5499504e-23 -2.1905591e-23

linear_sigmoid_stack.0.bias f4 [16]
00000000: ab46 723a f963 82ba b0b3 f13a 8ae6 333b
00000010: 1643 cbb9 8824 90ba e643 16bb abd6 acb9
00000020: 4d90 6c3a 7912 7dbb 5236 2aba a3bf 2f3b
00000030: 793b ad39 2a25 b4ba 16c6 513a ab59 2dba
0.0009242098 -0.0009948007 0.0018440392 0.0027450644 -0.0003876916 -0.0010997215 -0.0022928654 -0.00032966337
0.0009024188 -0.0038615747 -0.00064930797 0.0026817105 0.00033041442 -0.0013743986 0.00080022344 -0.0006612788

linear_sigmoid_stack.2.weight f4 [4, 16]
00000000: 19ee 1021 618f 9920 dc7a 0120 3833 eb1f
00000010: 9f30 3c21 d2cc 1921 beb5 1e21 4d78 3f21
00000020: 10ae 179e 380a 6b9f c80c 0221 9482 1b21
00000030: 255c 2b21 578f 1720 255c 0f20 2e33 ed1f
00000040: fb28 a69e fbbf 359f f028 339f 56b8 c79e
00000050: 380a 2e9f a9c7 a59e 94c2 019f b3de 649f
00000060: 4db8 1d9f 3833 b19d bdb5 649f 618f 9d9e
00000070: e6ba 089f dc7a 659e 2e33 331d 76d4 3b9f
00000080: 6c66 5321 dca3 7620 578f 3721 fbff 3f9f
00000090: e751 9320 94c2 9c20 38b3 6421 9419 7e21
000000a0: e751 8821 f0d1 8521 95c2 6321 e77a 4420
000000b0: 251c ae21 0540 8221 faa8 0e21 f051 9b20
000000c0: 42e1 3321 245c 1122 4321 1a22 fbff bf20
000000d0: a970 3321 4d21 0e22 f051 0c20 245c e79f
000000e0: d24c f821 4de1 f220 5738 1422 9f19 0622
000000f0: e651 c8a0 dc23 1322 8aeb d120 d2cc 8d21
4.9104217e-19 2.6014088e-19 1.0967376e-19 9.9611106e-20 6.3761227e-19 5.2109494e-19 5.3773016e-19 6.4872534e-19
-8.029869e-21 -4.977164e-20 4.406263e-19 5.268886e-19 5.8059006e-19 1.2837625e-19 1.2143059e-19 1.00458074e-19
-1.7592883e-20 -3.8487043e-20 -3.7938587e-20 -2.1146184e-20 -3.6854386e-20 -1.7552632e-20 -2.7477764e-20 -4.846509e-20
-3.3398493e-20 -4.690447e-21 -4.8431208e-20 -1.6682322e-20 -2.895372e-20 -1.2148566e-20 2.3716912e-21 -3.9774534e-20
7.1625135e-19 2.0891227e-19 6.219252e-19 -4.0657565e-20 2.4956967e-19 2.655619e-19 7.74866e-19 8.60924e-19
9.237398e-19 9.068001e-19 7.716812e-19 1.6642511e-19 1.1798148e-18 8.826088e-19 4.833511e-19 2.6312243e-19
6.0945685e-19 1.9699943e-18 2.08885e-18 3.2526052e-19 6.0796663e-19 1.9262218e-18 1.1885572e-19 -9.798474e-20
1.6825468e-18 4.1145486e-19 2.0087566e-18 1.817395e-18 -3.3935514e-19 1.9941199e-18 3.5561844e-19 9.608747e-19

linear_sigmoid_stack.2.bias f4 [4]
00000000: 2dc9 8c37 21dc b1bb f592 1ebc ecaa 053b
1.678298e-05 -0.0054278527 -0.009678592 0.0020396067

last_fc.weight f4 [1, 4]
00000000: 420a 1db0 9f70 3d2e 4de1 90b0 b347 26b1
-5.7130844e-10 4.3073652e-11 -1.0541413e-09 -2.4196936e-09
